results/dqn/seed_33/dqn.pt (torch, 233309 bytes, 7 tensors)

embed.weight f4 [500, 64]
000000 a9 f3 19 3f c8 b3 de 3d 08 56 e6 be da bd 48 3f
       0.6013742 0.10874134 -0.44987512 0.7841469
000010 2d ae 27 3f 90 c1 9c be ad 5d b2 3f 61 24 81 3d
       0.65500146 -0.30616426 1.3934838 0.06305767
000020 76 2f a0 bf a1 23 a3 3f b5 99 f4 3e e5 3c e7 be
       -1.2514484 1.2745248 0.4777352 -0.45163646
000030 84 87 0e 3e a3 df c1 bf 40 d7 93 3e a4 76 0e 3f
       0.13918883 -1.5146374 0.2887516 0.5564978
000040 0a 07 e2 be 60 1e c0 bf bf 63 a0 3f 30 ae 30 bf
       -0.44145995 -1.500927 1.253044 -0.6901579
000050 5d 3a 75 3e 09 14 ab 3f e1 a2 12 bf e7 69 09 3f
       0.23948045 1.3365489 -0.57279783 0.5367722
000060 f5 cc fa 3e 68 61 a1 bf fa 6d a3 be 14 2d a4 3e
       0.48984495 -1.2607851 -0.31919843 0.32065642
000070 fd 50 49 be 74 d8 46 bf f0 9a bb bf 15 22 8b bf
       -0.19659801 -0.7767403 -1.4656658 -1.0869776
000080 af a8 84 bf 5e 0e a4 3e 60 fa 83 bf 8e 8d 49 3f
       -1.0363978 0.3204221 -1.0310783 0.7873162
000090 48 a0 a7 bf f8 45 ac be ce 08 9a bf b3 a6 c0 3f
       -1.3095789 -0.33647132 -1.2033937 1.5050873
0000a0 12 42 98 be b5 1b cc 3e 39 c8 fd 3e d4 22 60 3f
       -0.29737908 0.3986489 0.4956682 0.87553144
0000b0 77 7c 19 3f 5a 20 03 3e 12 09 82 3e 9d 5d 9f be
       0.59955543 0.1280531 0.25397545 -0.3112611
0000c0 df ea 95 bf 4f 0e 89 bf 87 68 c1 3f b6 af b8 bf
       -1.1712302 -1.0707492 1.5110024 -1.4428623
0000d0 ec de ad be 09 a4 d8 bf 81 aa b0 be 0f 81 a9 3f
       -0.33959138 -1.692506 -0.34505084 1.324251
0000e0 71 43 0d 3e 2c dc 45 bf d8 af 6c 3f 0d 41 12 3f
       0.13795258 -0.7728908 0.92455816 0.5713051
0000f0 54 54 88 3e e0 26 c4 be 65 64 36 3f 76 cd 2e c0
       0.26626837 -0.3831091 0.7124694 -2.7312903
000100 78 e2 c1 be bf 71 df bf fb 41 cb be 28 e3 06 bf
       -0.37868094 -1.7456588 -0.39698777 -0.5269036
000110 c3 0b 40 bf e4 97 79 3e 09 77 a2 bf 02 c5 77 3f
       -0.75017947 0.24374348 -1.2692577 0.96784985
000120 e5 15 96 3f 7a c6 16 40 4b 12 45 3f 76 20 81 bf
       1.1725432 2.355864 0.7698104 -1.0088031
000130 12 51 fc 3e 68 ac 5a be b0 4c 02 bf ab 90 6a bf
       0.49280602 -0.2135483 -0.50898266 -0.91626996
000140 fd 13 01 40 5d de 4d bf 3f eb b8 bf 5d be 5b 40
       2.016845 -0.80417424 -1.4446791 3.4334939
000150 11 66 15 40 2f b4 6d 3c 6e 40 05 3f 22 17 25 bf
       2.3343546 0.014508291 0.52051437 -0.6448842
000160 30 04 7f be 19 73 02 40 62 4a 0e bf bd 36 aa bf
       -0.24903941 2.038275 -0.5558225 -1.3297955
000170 d5 78 82 3f 36 c3 99 be db 1d d0 bd e4 79 d0 bf
       1.0193125 -0.30031747 -0.101619445 -1.6287198
000180 8d 3e e8 be b3 60 b2 bf 4a 90 58 40 c6 57 f4 be
       -0.45360222 -1.393576 3.3838067 -0.47723216
000190 d5 be 40 bf b4 20 b2 be ac b9 58 3f 22 d0 fd 3f
       -0.75291187 -0.34790576 0.8465831 1.9829142
0001a0 c2 68 c8 bd 8e 3b f2 3f 4b 53 b4 3f 24 78 7b 3d
       -0.09785606 1.8924425 1.4087919 0.061393872
0001b0 a0 bb df 3e 00 c4 ad 3e 2c a3 a7 3f 5b 9c 29 3f
       0.43697834 0.339386 1.3096671 0.66254205
0001c0 63 31 bc be 83 93 6e 3f f6 32 0f bf 0f 25 2a 3e
       -0.3675643 0.93193835 -0.55937135 0.16615699
0001d0 07 75 ad bf 31 ef af 3f 5b 37 26 c0 2f 0d 81 bf
       -1.3551339 1.374487 -2.5971286 -1.0082148
0001e0 62 1e 84 bf 78 f8 f5 3f 8a 98 0c bf f9 78 90 bf
       -1.0321772 1.9216452 -0.54920256 -1.1286918
0001f0 37 d1 86 3f f4 96 fe bf d7 f2 ae bf 0d c9 cd 3f
       1.0532597 -1.9889817 -1.3667859 1.6076981
000200 95 14 93 be 5d 7d 0b bf 16 5b bc 3e cc c9 ce 3d
       -0.2872664 -0.54488164 0.36788243 0.100970834
000210 fc 23 a6 3f 2c 79 9a 3f f0 e6 28 bf 1c 0e f1 3f
       1.2979732 1.2068229 -0.6597738 1.8832431
000220 e0 3a 23 bf 2b a3 bc 3f 44 0d ff 3f 47 6d 45 bf
       -0.6376171 1.4737295 1.9925923 -0.7711987
000230 e6 26 ea bf 17 28 95 bf 4a a0 95 bf fc 0a 54 3f
       -1.8293121 -1.165286 -1.1689541 0.8282926
000240 ea da d9 bf 55 6d 72 3f ab 34 06 40 a6 64 9b 3f
       -1.7019932 0.9469808 2.0969646 1.214009
000250 9d d9 df be 48 57 c9 3f f2 81 9a 3e ae 0a f7 3f
       -0.43720713 1.5729761 0.30177265 1.9300134
000260 dd b3 93 bf 33 f9 f4 bd 6c 3c b9 3e d8 0a fb bf
       -1.1539265 -0.119615935 0.3617891 -1.9612684
000270 34 f1 18 40 4d 1f 80 3f 4d 36 0f bd 3d 1c 39 bf
       2.3897219 1.0009552 -0.034963895 -0.72308713
000280 b2 f9 80 bf f0 01 4e bf ad e6 28 3f 12 d4 8c 3e
       -1.0076201 -0.80471706 0.65976983 0.27505547
000290 2e ec 22 3f d2 6a b8 3e 03 64 4b bf cc d6 b8 bf
       0.6364163 0.36018997 -0.7944948 -1.4440551
0002a0 5b aa 17 3f 20 64 86 bf 46 f0 13 40 e7 24 2a 3f
       0.59244317 -1.0499306 2.3115401 0.6646256
0002b0 9c 6b 17 bf 56 70 08 3f cd 6f 07 40 35 c2 25 bf
       -0.59148574 0.5329641 2.1161988 -0.6474946
0002c0 8d 87 8f bf 68 68 4d 3f 39 14 c5 3f 59 4d aa bf
       -1.1213242 0.80237436 1.5396796 -1.3304855
0002d0 67 a8 50 bd ed d8 c0 bf 3c ee 4d 3e fd fb 4d be
       -0.05094185 -1.50662 0.2011041 -0.20115657
0002e0 8f 47 a2 3f 9e db ff 3f e8 99 e1 3d b0 37 be bf
       1.2678088 1.9988897 0.110156834 -1.4860744
0002f0 03 06 73 3e d4 b8 bc 3a 5a 11 a1 bf d0 f0 b4 bf
       0.23732762 0.0014398345 -1.258342 -1.413599
000300 67 24 02 c0 39 bd 68 bf a7 3f 37 bf 96 d3 f8 bf
       -2.0334718 -0.9091373 -0.715815 -1.9439571
000310 4f ed 77 3d f3 95 20 3f 72 11 e0 3f af 6d 89 3f
       0.06052905 0.62728804 1.7505324 1.0736598
000320 65 41 49 3e ac dd ec be ab 98 d5 bc 09 35 65 bf
       0.19653852 -0.46262872 -0.026073774 -0.8953405
000330 c7 3b 13 3f bb 3b ed bf 14 7f da be e2 b7 84 bf
       0.5751309 -1.8533853 -0.42675078 -1.0368617
000340 15 ec c1 3c 01 39 f7 3e 43 d9 93 bf a7 27 a9 3d
       0.023672143 0.48285678 -1.1550678 0.08259516
000350 3f 09 7e bf d0 87 93 3d f6 d0 55 bf 3f bd ca 3f
       -0.9923286 0.072036386 -0.83521974 1.5839003
000360 2a d6 18 bf cf b8 82 3e 6e 09 ff be 05 c9 9a 3d
       -0.5970179 0.25531623 -0.49811882 0.07557873
000370 e0 ae 83 3f 5e 00 07 be a2 79 46 3f d1 30 fd be
       1.0287743 -0.13183734 0.77529347 -0.49451306
000380 99 56 20 bf 32 00 8d be b9 39 46 bf 90 74 93 bf
       -0.6263214 -0.27539212 -0.7743183 -1.1519947
000390 c4 27 1c c0 37 5a 4b 3e 29 77 ee 3c 30 bb b4 3e
       -2.439927 0.19858633 0.029109554 0.35299063
0003a0 a8 9d 21 3f e2 94 56 bf 2e 03 fb 3f e5 98 4c bf
       0.6313119 -0.8382093 1.9610345 -0.799208
0003b0 4d 1b 8a 3f 3e 86 ce 3e 41 39 19 be 79 88 eb 3e
       1.0789582 0.40336794 -0.14963247 0.46002558
0003c0 58 f4 5e bf 00 0f 20 bf eb b5 af 3d b1 ff 61 3f
       -0.8709159 -0.6252289 0.0857962 0.8828078
0003d0 d1 98 76 bf 57 10 9a bf 54 30 c1 bf ce 69 2b c0
       -0.9632693 -1.2036237 -1.5092874 -2.6783328
0003e0 38 d1 4d 3e 9d 8a 60 bf 3e 0a bd be 3b 51 44 3f
       0.20099342 -0.8771151 -0.36921877 0.7668645
0003f0 93 26 7a 3d c9 1b 87 bf 8a 80 7c bf b4 6d 48 bf
       0.061071943 -1.0555354 -0.98633635 -0.78292394

net.0.weight f4 [128, 64]
000000 31 f8 17 3f 79 04 7f 3e 01 4d 0a 3f 45 68 81 3e
       0.59363085 0.2490405 0.5402375 0.25274864
000010 38 11 0e 3d 92 e1 95 bd 65 a8 86 be 3b a1 20 bf
       0.03468439 -0.07318415 -0.2630035 -0.6274602
000020 aa d6 99 3d 96 4f 53 3e a6 9c b5 3e 07 b5 04 3f
       0.07511647 0.20635828 0.35471076 0.51838726
000030 f5 78 01 be 42 d7 5e bd c2 f8 19 be 26 bf 91 bf
       -0.12643798 -0.054404505 -0.150363 -1.1386459
000040 6d 06 a4 3c 79 e5 a7 3e 0f f7 1a 3e 64 cd 3f bf
       0.020022595 0.3279226 0.15133308 -0.74922776
000050 f0 de 19 bf d2 e5 09 3f 3d 23 3e bf 2e 28 a9 3e
       -0.601058 0.538663 -0.7427252 0.33038467
000060 17 4c 16 3f 3d 0f 02 bf f8 45 2c 3f 29 0b 9e 3e
       0.58709854 -0.508045 0.67294264 0.3086789
000070 07 cd a4 be e9 4a db 3e e2 09 95 bc 01 f1 d0 3e
       -0.32187673 0.4283059 -0.018193189 0.4080887
000080 f3 b6 75 be 68 43 5f 3c a3 f9 dc be b3 e5 61 3d
       -0.23995571 0.013626911 -0.43159208 0.0551507
000090 16 66 8b bd 52 d9 1f 3e 43 5c 3b 3f d4 86 6f be
       -0.06806581 0.15610245 0.73187655 -0.23391277
0000a0 9d fb fe bd fe 67 01 be a1 43 85 be a5 ff f1 be
       -0.12450335 -0.12637326 -0.2602816 -0.47265354
0000b0 be 0e 8e bd fb ed ac 3e ff 5f ef be d4 56 56 be
       -0.069364056 0.33775315 -0.46752927 -0.2093156
0000c0 72 97 7b 3e b8 e6 27 3f a7 27 05 bf 73 c2 25 bf
       0.2456949 0.65586424 -0.5201363 -0.6474983
0000d0 a7 a5 a1 3e 74 60 27 3f 5d c0 a7 3e 41 7b 09 3f
       0.31571695 0.6538155 0.3276395 0.53703696
0000e0 72 53 39 3f d7 6a ca be e8 0e d9 be f3 0a 8a be
       0.7239295 -0.39534637 -0.42394185 -0.2696148
0000f0 a4 c8 eb 3d 00 fe 16 3f df 57 9e 3e 37 9f 90 be
       0.115128785 0.58981323 0.30926415 -0.2824647
000100 17 07 9f 3e 4b 2c 70 3e 81 12 a9 be ff 6f 18 3e
       0.31060097 0.23454396 -0.3302193 0.14886473
000110 c7 cc c4 3e 35 5a 52 3f f7 30 cf 3f ff 54 16 be
       0.38437483 0.82168895 1.6186818 -0.14680861
000120 8a 4c 26 3f 81 b7 05 bf a5 79 04 3e f1 03 a7 3d
       0.6496054 -0.5223313 0.12937029 0.08155049
000130 a1 8e 82 bf 9b f1 d1 be 4e 5e e2 be 6d d5 10 bd
       -1.0199777 -0.41004643 -0.44212574 -0.03535979
000140 f2 43 31 3e 84 df 2d bf ec fe c7 be 5d 98 31 3e
       0.17311075 -0.6791918 -0.39061677 0.17343278
000150 3f 11 2f 3f fd 7f 56 3e 1a 10 c1 3e 07 dc d5 3d
       0.6838569 0.20947261 0.37707597 0.104423575
000160 02 77 c5 be b4 ce 70 3f 4b 4e 33 bf 0c c3 0c 3f
       -0.38567358 0.94065404 -0.7004134 0.5498512
000170 a7 1d 3b 3f ac 73 36 3e ba 9f 78 3e 06 9f 2b 3e
       0.7309212 0.17817563 0.24279681 0.16759881
000180 9b 50 32 3f 94 c7 fe be de 30 d4 bb 6c 18 88 bf
       0.69654244 -0.4976164 -0.006475552 -1.0632453
000190 9f 53 cf 3e 4e e1 9d 3f 35 46 86 bf c1 e6 09 3f
       0.40493485 1.2334383 -1.0490175 0.5386773
0001a0 8f 24 0c 3d cc ad 5f be c2 30 48 3e d6 29 84 3f
       0.034214552 -0.21843642 0.1954985 1.0325267
0001b0 ac 19 82 be a8 53 b2 be 40 4a 3d bf 99 23 b3 3e
       -0.2541021 -0.3482945 -0.7394142 0.34988096
0001c0 b3 2a 44 3e 5d 9c 29 bf a7 88 3e 3d 09 71 8d 3e
       0.19156913 -0.66254216 0.04651704 0.276253
0001d0 84 17 60 bf 30 2c cc bd 43 07 f6 be 98 57 9e 3f
       -0.8753588 -0.099693656 -0.48052415 1.2370481
0001e0 cf c4 5b bf 54 0a 2b bf 99 3c 50 bf b5 71 0d 3f
       -0.8584718 -0.66812634 -0.81342465 0.5525163
0001f0 62 a0 c1 3e 66 0d 81 be 30 23 02 bf 27 5c b8 3e
       0.37817675 -0.25205535 -0.5083494 0.36007807
000200 54 4c 88 3f d9 58 b6 be 21 f1 e0 3e e5 0c 60 3e
       1.0648293 -0.3561466 0.43933967 0.21879919
000210 a7 9b e6 3e 0b f2 ac 3e b5 7f 8d be 5a 67 52 bf
       0.45040628 0.33778414 -0.27636495 -0.8218895
000220 16 5e ab 3e de d9 2e 3f be c3 06 bf ac 2d 69 3d
       0.3347022 0.6830119 -0.5264243 0.05692832
000230 9c ee ea be 9b da ec be 68 6e 14 bd 17 10 8b bf
       -0.4588517 -0.46260533 -0.036238104 -1.0864285
000240 45 bd 50 bb 2c 28 54 3f 86 cd 87 3f 5f fa 3d bf
       -0.0031851095 0.828738 1.0609596 -0.7421016
000250 35 c5 f7 be 19 76 c9 be 6c e9 b3 be 08 23 89 bf
       -0.48392645 -0.39347914 -0.35139024 -1.0713816
000260 d5 89 c1 be 3d 92 8f bd ce 2e 81 3f 04 51 ca be
       -0.3780047 -0.070103146 1.0092409 -0.39514935
000270 35 14 0d bf ad 7d 89 bd 51 bf 32 bd 8d 56 9e 3e
       -0.5510896 -0.06713424 -0.043639485 0.30925408
000280 83 2e 1d bf 21 b6 ac 3f 33 47 0c bf df ef 39 bf
       -0.61399096 1.3493081 -0.5479614 -0.7263164
000290 cf 07 86 be 3f 7a bc be e5 f3 92 3e bc 4c 9e bd
       -0.26177832 -0.36812016 0.28701702 -0.0772948
0002a0 5b a4 be 3d 0f e9 63 3e e3 3d f1 3e 13 75 d1 be
       0.09308692 0.22256874 0.47117528 -0.40909633
0002b0 03 4f 26 3e f8 b9 84 be aa da 0e bf 32 de 21 be
       0.16241078 -0.25923133 -0.55802405 -0.15807417
0002c0 ae 4e 19 bf ec 25 fb bd 91 1e 80 3e f7 3c 2c bf
       -0.5988568 -0.122630924 0.2502332 -0.67280525
0002d0 12 e9 09 3f f5 84 bd bc a0 99 71 be 42 28 1d bf
       0.5387126 -0.023134688 -0.2359376 -0.61389554
0002e0 44 ce 81 be cf 8b 45 3e a6 d1 bf be 1b 81 90 be
       -0.2535268 0.19291614 -0.37464637 -0.282235
0002f0 6e 94 2d bf cf ba 55 be b9 99 42 be 25 60 bc bc
       -0.6780461 -0.20872043 -0.19003953 -0.022995064
000300 d5 e6 db 3e c6 2e 7d 3e e3 a5 dc bd 06 0c af 3e
       0.42949548 0.24724874 -0.10773828 0.3418886
000310 35 5a 7c 3e 58 e0 77 3e 6d 12 4e bf 2a 62 15 bf
       0.24643786 0.24206674 -0.80496866 -0.5835291
000320 fc db b7 3e 65 4b 43 3e 52 0f 91 3d 7f 9c 68 be
       0.35910022 0.1907173 0.07083 -0.22715949
000330 6b 62 b7 be e3 e6 cc bd 6d 3e bf be 43 54 ed be
       -0.35817274 -0.10004976 -0.37352315 -0.4635335
000340 5d ce 07 3f d2 29 36 3f e6 60 b2 3e 3a a3 25 bf
       0.5304926 0.7115756 0.34839553 -0.6470219
000350 46 0f a8 3c 56 a4 d1 be 9c 86 e6 be b7 10 33 3f
       0.020515095 -0.4094569 -0.45024574 0.6994738
000360 e3 3f f8 be 47 68 8e 3e f2 34 02 3e 0f 11 6c 3e
       -0.48486242 0.27813932 0.1271551 0.23053382
000370 0d f2 6e bd 32 ac 0b 3e 6e 97 3c be 3c 7a d2 3e
       -0.058336306 0.13639906 -0.18417141 0.41108882
000380 c6 ce dd 3d a7 ed 55 3f 6c 47 74 bf b5 89 e4 3d
       0.108304545 0.83565754 -0.9542148 0.11159078
000390 52 23 44 bf 13 9e 2e bf dd fb ee 3d 9a 1b 16 3e
       -0.76616395 -0.6820995 0.11669133 0.14658967
0003a0 94 c9 02 3e df 76 97 3e 2e b1 1b be 4d 55 e1 be
       0.12772208 0.2958288 -0.15204307 -0.44010392
0003b0 31 28 2b 3e 3b 9f cf be e1 90 dc bd f0 b3 4b be
       0.1671455 -0.4055117 -0.10769821 -0.1989286
0003c0 bb 7b d5 3c 14 ee 11 bd 0a 76 b6 be 66 8c 2d bf
       0.026059976 -0.03562744 -0.35636932 -0.67792356
0003d0 f2 8c c3 bd 03 86 86 3e 4d 60 b6 be ce 6f 03 be
       -0.095483676 0.26274118 -0.35620347 -0.12835619
0003e0 0b 09 20 be 1c 1a d3 3e 1f 6b e9 3e 35 6c d0 be
       -0.1562845 0.41230857 0.4558954 -0.40707555
0003f0 e3 59 76 bd ae ca 9f 3e f7 80 f4 bc 61 3a 37 3e
       -0.060144316 0.3120932 -0.029846651 0.17893364

net.0.bias f4 [128]
000000 9f f2 8b bf 65 99 01 3f 0f bf cf be 6e d2 a3 be
       -1.0933417 0.50624686 -0.40575454 -0.31996483
000010 e3 a6 59 bd c6 bf 95 bf 9e 0c 26 be 95 74 ce 3e
       -0.05313767 -1.169915 -0.1621575 0.4032332
000020 8d 38 b8 3f 18 49 55 be ef 9a 02 c0 ac d6 b8 3e
       1.4392258 -0.20828664 -2.0407064 0.36101282
000030 24 2c 76 bf c9 00 60 3f 3d ea 3a bf a0 2f f9 be
       -0.96161103 0.875012 -0.7301367 -0.48669147
000040 1d 3c ba 3d fd 1d 72 3f 5d 8c 03 3f eb 29 19 40
       0.09093497 0.9457701 0.5138605 2.3931835
000050 7e 71 b2 3f d7 a0 ef bc ee e9 f2 bd 60 55 e7 be
       1.3940885 -0.0292515 -0.11861025 -0.45182323
000060 6a 61 37 3f fd 74 b3 3e d3 27 82 bf c5 aa f9 bd
       0.7163302 0.35050192 -1.0168403 -0.12190775
000070 56 22 83 bc da 08 80 3e 27 0d 0b c0 81 d2 dd 3e
       -0.016007584 0.25006753 -2.1726778 0.43324664
000080 19 6b 42 3f 21 51 8d 3f fe 99 05 c0 25 2a 07 bf
       0.7594467 1.1040384 -2.087524 -0.5279868
000090 70 ac 1e 3f cf 9f d2 3e d7 10 b4 3d be 29 eb 3e
       0.6198187 0.4113755 0.087922744 0.45930284
0000a0 8b 9e a2 3f b9 cd 5e bf e9 f9 7a 3f 99 d4 89 3f
       1.2704633 -0.8703266 0.9803758 1.0768005
0000b0 fd a1 9f 3f dd f0 6c bf ae a5 84 bf 0f db dc 3d
       1.247131 -0.9255503 -1.0363061 0.107839696
0000c0 7e eb 95 3e 54 bf 08 40 bf 4a 9d 3e 0f bc 31 be
       0.2928123 2.1366777 0.3072109 -0.17356895
0000d0 be 03 82 bd da 2d 9b 3e 6d 6a f9 bf 25 ab 21 3f
       -0.0634837 0.3030842 -1.9485604 0.6315177
0000e0 1e 8c eb 3f d8 50 d3 bf 4f ca 8a 3f 6e 67 89 bf
       1.8402135 -1.6509047 1.084299 -1.0734689
0000f0 ec a3 89 bf 95 46 dc 3f 23 94 11 c0 6d ec e3 bf
       -1.075315 1.720904 -2.2746665 -1.7806526
000100 63 47 f1 3e 43 2f d6 bf 30 b1 d5 be 91 ed 88 bf
       0.47124776 -1.6733173 -0.41736746 -1.06975
000110 f1 23 44 3d 66 0f 03 3f 03 f1 03 c0 0c 85 67 be
       0.04788584 0.5119537 -2.0615852 -0.22609347
000120 4c 81 f9 bf f0 83 33 c0 a3 74 3b 3f 62 3a d5 be
       -1.9492583 -2.8049278 0.7322485 -0.41646105
000130 da 83 8a bd a8 dc 58 3e 93 de 13 c0 28 cf b2 bf
       -0.0676343 0.21177924 -2.3104599 -1.3969469
000140 b8 52 22 bf fc b1 57 3d 90 89 54 3f 1b 1b 08 bf
       -0.6340747 0.052659974 0.83022404 -0.5316636
000150 e9 df 36 3f 6c 05 08 bf f7 49 12 c0 b6 63 63 3e
       0.7143541 -0.53133273 -2.2857645 0.22206005
000160 40 d4 8a 3f 36 e3 b5 3f a9 75 64 bf 18 64 cc bb
       1.0846024 1.4209964 -0.89242035 -0.006237518
000170 d0 73 6a bf be c1 10 3f 73 e3 bf bf 52 c3 a2 bf
       -0.91582966 0.5654563 -1.4991287 -1.2715857
000180 8d 6c e9 bf 8d 18 d1 3f a2 11 6c 3f a8 79 f9 3e
       -1.8236252 1.6335617 0.92214406 0.4872563
000190 99 5a 18 3e b9 d5 85 bf c0 02 c0 3f 19 7b cf bf
       0.1487831 -1.0455848 1.5000839 -1.6209441
0001a0 5e 6f 8c bf 0b f4 b1 3f d4 4f 3b bf ba ae 50 3f
       -1.0971487 1.3902601 -0.73168683 0.8151661
0001b0 bf 0f 01 40 e2 cf 9a bf 14 53 36 bf 5e 97 07 c0
       2.016586 -1.2094691 -0.7122052 -2.1186137
0001c0 f3 52 f0 bf 68 38 44 bf a2 2b 31 3d ac 91 a5 bf
       -1.8775314 -0.7664857 0.043254502 -1.293508
0001d0 7d 7b 93 3f ed 2e cf be 40 37 67 bf 37 c5 93 3f
       1.1522061 -0.4046549 -0.9031868 1.154456
0001e0 36 ef b0 3f 62 60 46 be 63 e0 a9 bf 1a 3a 9f be
       1.3823001 -0.19372705 -1.3271602 -0.31099015
0001f0 42 00 6c be f8 36 fd 3f 86 4f f2 be 72 64 a7 3f
       -0.23046973 1.97824 -0.47326297 1.3077528

net.2.weight f4 [128, 128]
000000 ab 2a 63 be c4 b8 65 be 07 be 36 bd 24 7d 00 3e
       -0.22184245 -0.22433764 -0.044614818 0.12547737
000010 02 0b 05 be f6 3c 1d be c8 cf 32 be 24 53 42 be
       -0.1299248 -0.15355286 -0.17462075 -0.18977028
000020 f0 d3 de be 3a df 41 be 7b db ec bd 73 07 4d 3e
       -0.4352107 -0.1893281 -0.115653 0.20022373
000030 1a 1e 8f 3e 04 3c c2 3e c6 8e 8a be 8e a4 99 bd
       0.27952653 0.37936413 -0.27062052 -0.075020894
000040 5f 1d 2c 3e b6 eb 37 be f6 32 7c be 02 fe 11 be
       0.16808079 -0.1796101 -0.24628815 -0.14257053
000050 03 93 56 bd 48 f0 29 be 6f ae 16 bf e7 35 3b 3c
       -0.052386295 -0.16595566 -0.58859915 0.011426426
000060 fe 64 79 be 83 74 20 bc 2d 89 63 be 82 3c 32 bd
       -0.24354932 -0.009793404 -0.22220297 -0.043514736
000070 e1 84 95 be f7 63 a4 be 29 06 b8 be 56 66 87 be
       -0.2920294 -0.32107517 -0.359422 -0.26445264
000080 3a c4 67 3d e9 74 8e bc a6 c9 7b be c4 97 b7 be
       0.05658362 -0.017389731 -0.24588642 -0.35857975
000090 f3 7d 06 bd 64 cb b0 3c e7 e7 bf 3c a0 40 12 be
       -0.03283496 0.02158136 0.02342601 -0.14282465
0000a0 7e 52 92 be 8c 9c cd bd 20 29 00 bf 6d f5 01 bf
       -0.28578562 -0.100396246 -0.5006275 -0.50765115
0000b0 c2 d9 65 bd 83 e2 bb be 57 56 ed 3d e4 f4 88 be
       -0.056115873 -0.36696252 0.11588734 -0.26749337
0000c0 fd d9 ad be db a9 4f 3d b3 57 98 3d 57 15 48 be
       -0.33955374 0.050699096 0.07438602 -0.1953939
0000d0 5a e7 e3 bd fb 66 0f bf 8c de ab 3e 74 e5 0e bf
       -0.11128111 -0.5601651 0.33568227 -0.5581887
0000e0 53 e8 1b 3d ba c2 43 3e a7 41 b9 bd f0 dd 9f 3d
       0.03806336 0.19117251 -0.09045725 0.07806003
0000f0 89 76 e5 be 1e 10 15 3d 96 9e 5a be 4e 48 35 bf
       -0.44816998 0.036392324 -0.21349558 -0.70813453
000100 36 33 95 be 1f 87 f5 3d d8 9a a4 be db 73 58 3e
       -0.29140633 0.11988663 -0.32149386 0.21137945
000110 f4 6f 94 be 05 bf a7 bc 8b c5 c0 3c 60 a0 4f bd
       -0.28991663 -0.020476827 0.023531696 -0.050690055
000120 9f 6e 8f 3d 54 fc 63 3e 82 cc a3 3c 47 46 21 be
       0.07003521 0.22264224 0.019994978 -0.15749465
000130 0c 51 70 bd 7e 66 9f 3e 9a e0 aa 3e 63 08 4b 3e
       -0.058671042 0.31132883 0.33374482 0.19827418
000140 82 e1 e7 bd 3c cb d8 be 8a 03 97 be ec e4 27 be
       -0.11322309 -0.42342556 -0.29494888 -0.1639592
000150 1c b2 2f be 4f 2f ae bd f9 4b b1 be c5 28 5a 3d
       -0.17157787 -0.08505117 -0.34628275 0.053261537
000160 d8 8e 4f be 8a 6d c7 be 1b f8 f6 be 53 8e 33 3e
       -0.20269334 -0.3895076 -0.48236164 0.17534761
000170 18 95 0f 3e a7 43 59 bc e4 06 2d bf e9 36 a3 be
       0.14021719 -0.0132607585 -0.6758864 -0.3187783
000180 9c 7a dd bd a5 d1 a9 bd 55 d6 a0 3e 0c 2e a1 be
       -0.108144015 -0.0829194 0.31413522 -0.31480443
000190 dd dc f2 be 72 72 1d be c1 00 ac be 01 69 28 3e
       -0.4743413 -0.15375689 -0.33594325 0.16446306
0001a0 e9 df 8f bc 7c a1 9c be 08 de 0c be 18 e6 4c bd
       -0.017562823 -0.30591953 -0.13756573 -0.050024122
0001b0 64 2d 80 be f0 38 23 be 53 87 86 be ea 48 ba bc
       -0.2503463 -0.15939689 -0.2627512 -0.022739846
0001c0 43 4d fa be 64 2e 27 3e 94 d5 c7 be 1d e3 4d 3c
       -0.4888707 0.1632629 -0.39030135 0.012566355
0001d0 e8 90 57 be 8c 9e 10 bf e3 fe e8 3d f3 77 22 bf
       -0.21051371 -0.56491923 0.11376741 -0.6346428
0001e0 8e d7 b1 bd 98 29 9d bc 91 d4 7d be 67 a8 1a bf
       -0.08683692 -0.019184873 -0.24788119 -0.6041321
0001f0 07 ef 0a bd 7c 84 d5 be e4 4d 01 bf ca 27 75 be
       -0.03391936 -0.4170264 -0.50509477 -0.2394096
000200 66 28 06 bd a0 ac ca be 30 87 64 bf 6e 46 5d bb
       -0.03275337 -0.39584827 -0.8926878 -0.0033763903
000210 c4 6a 07 bf 20 2d b1 3e 63 9d 12 bf a8 2d 18 be
       -0.52897286 0.3460474 -0.57271403 -0.14861166
000220 a4 94 58 3e 72 04 00 bf 76 eb bf be 47 0e 46 be
       0.21150452 -0.50006783 -0.3748433 -0.19341384
000230 c5 97 c5 bd 73 e5 cf be 63 af db bd 8d 2c dd be
       -0.09648088 -0.40604743 -0.10726812 -0.43198052
000240 d2 79 0e 3e 76 69 ab be f3 ff d8 bd fb 5b 35 3d
       0.13913658 -0.33478898 -0.105956934 0.044277173
000250 f0 b9 f6 be 15 64 8f be 80 3b 85 be 2a 4f 80 be
       -0.48188734 -0.28006044 -0.26021957 -0.25060397
000260 47 61 a2 be 44 4f ab 3e 31 8c bd bd e2 53 0d be
       -0.31714842 0.33458912 -0.09255255 -0.1380153
000270 3c b3 3c be 15 3b 76 be af 92 14 bb 55 45 a0 3d
       -0.18427747 -0.24045976 -0.0022670438 0.07825724
000280 15 93 06 bf 2b a6 0c bf c6 a9 85 3d 4c d4 b1 3d
       -0.5256818 -0.5494105 0.06526522 0.086830705
000290 da 48 90 bd de da c2 3d 89 87 31 3d 11 03 90 bc
       -0.07045145 0.09514402 0.043342147 -0.017579587
0002a0 7e 55 39 3e a7 60 0b bd ea 77 42 3b 1d c4 5b bf
       0.18099019 -0.03402772 0.0029673525 -0.8584612
0002b0 2a 48 22 bd 0e fb 95 be 9a 76 77 be 6d 1a f3 be
       -0.039619602 -0.29293102 -0.24166337 -0.474811
0002c0 f1 bd 56 be c5 12 b2 bd ed ce 6c be 7f 0b 09 bf
       -0.20970894 -0.08694986 -0.23125811 -0.53533167
0002d0 70 31 d9 be af 16 7c 3e e6 2e 59 be 1e 69 df be
       -0.4242053 0.24618028 -0.21209297 -0.43634886
0002e0 6d 7d b1 be 72 5e 1c be bc 89 2a bd b6 b7 5c bc
       -0.34666005 -0.15270403 -0.04163526 -0.0134715345
0002f0 eb 02 46 be ee 3f b0 bd 59 98 a9 3d e5 0f a2 be
       -0.1933705 -0.086059436 0.08281011 -0.31652752
000300 07 d6 0f bd 75 27 99 be c0 05 66 3d fc 50 b3 be
       -0.03511622 -0.29912916 0.056157827 -0.35022724
000310 b9 a8 2e bf 47 88 d8 bd 63 d9 05 3e f6 85 fa 3d
       -0.682262 -0.10572868 0.13071208 0.12232582
000320 02 02 8f be 4f 90 ba 3d 18 41 b9 be c3 e5 4f 3d
       -0.2793122 0.09109556 -0.36182475 0.050756227
000330 91 fd ae be 8f 74 ee 39 18 a9 d7 3d 7b 9d c8 bd
       -0.3417783 0.0004548174 0.10530299 -0.09795662
000340 06 4a b0 be ce f4 86 be 60 c9 f1 bc 86 51 1a be
       -0.34431475 -0.26358646 -0.029514968 -0.15070161
000350 61 b8 3d be bd 3d 7e be bc 3d d9 3e f4 40 43 3e
       -0.18527366 -0.24828239 0.42429912 0.19067746
000360 94 70 35 be 76 5e 04 3d 25 82 12 3e ba fb 28 3e
       -0.17718726 0.032316647 0.14307459 0.16502276
000370 22 03 1a bf 58 f2 08 3e cc bd 8d 3e 3a d8 89 3d
       -0.6016103 0.13373697 0.27683866 0.06730695
000380 ae f2 40 bd 3b 0e 13 bf 64 23 b0 3d 28 bb ba 3d
       -0.047106437 -0.5744359 0.086005 0.091177285
000390 8c ef cc be cf 43 4a 3e 26 92 b3 3d 82 ac 9b be
       -0.4002651 0.1975243 0.0876811 -0.3040505
0003a0 ae 8c 51 3d 8b 90 ff bd 91 7a 05 bf 46 2f d9 bc
       0.051159553 -0.12478741 -0.52140146 -0.0265118
0003b0 df bb 88 be 63 eb 61 3e 70 6f 20 3e b2 d8 8b 3c
       -0.26705834 0.22062449 0.1566751 0.017071102
0003c0 74 3f 23 bf 1d 01 0b bf e2 5b 03 3e 2c 49 a5 3d
       -0.63768697 -0.54298574 0.1282802 0.08070597
0003d0 9e 24 b2 be 50 ca 00 3d b1 4f fe be 16 e1 a3 bd
       -0.34793562 0.03144294 -0.49670175 -0.08001916
0003e0 6e a2 a3 bb b9 36 a7 bd 3a 05 b8 be 80 5f 13 be
       -0.0049937284 -0.081647344 -0.35941488 -0.14391899
0003f0 23 56 cd be 30 37 b9 3e c6 e9 c7 be d6 22 f0 be
       -0.4010478 0.36174917 -0.39045542 -0.46901578

net.2.bias f4 [128]
000000 ec 2a a5 be 03 ef 02 bd 32 23 94 3e 39 2b 10 3e
       -0.3225931 -0.03196622 0.28933102 0.14078988
000010 01 77 22 3e bb e6 db 3f 4f 64 ae 3d a5 fa ef 3e
       0.15865709 1.7179788 0.08515226 0.46870914
000020 a8 45 a0 3c 48 f6 82 3e 41 2b 09 be bb ee b1 be
       0.019564465 0.25578523 -0.13395406 -0.3475245
000030 c6 1b ec bd b9 54 f4 3a 8d df bb bd 54 8f 70 3d
       -0.11528735 0.0018640972 -0.09173498 0.05873044
000040 8c a8 df 3b 9a d0 82 3e 23 bc 6a 3e 63 d9 3c 3d
       0.0068255123 0.25549775 0.22923331 0.046105754
000050 3e e3 91 be 26 5c 0c be 86 bf a8 3d d3 ed ef bd
       -0.28493685 -0.13707027 0.08239655 -0.11715283
000060 bb 8c 81 bd 92 ba 39 3d f7 31 2e 3e 11 f3 38 3e
       -0.0632567 0.045343943 0.17011248 0.18061472
000070 f3 09 d0 bd 8e a1 a9 3d 76 75 0b bf db 29 3e be
       -0.10158148 0.08282767 -0.54476106 -0.18570654
000080 2d db 83 be 14 b1 18 40 30 c2 ff bd f0 6b a6 bb
       -0.25753155 2.385808 -0.1248821 -0.005078785
000090 20 16 81 be 71 3d 53 be ff 54 48 3e 64 c3 4a 39
       -0.25212193 -0.20628907 0.19563673 0.0001933701
0000a0 37 c5 50 3d 7e fb 45 be 24 5c d2 3d 38 e4 04 3e
       0.05096933 -0.19334218 0.10271481 0.12977684
0000b0 26 96 94 bd 31 e7 d8 3e f8 ed d8 bd 24 bc b0 be
       -0.07255201 0.42363885 -0.10592264 -0.3451854
0000c0 f5 61 fd bc 30 e7 01 be 49 d5 01 be 0a f5 03 be
       -0.030930499 -0.12685847 -0.12679018 -0.12886444
0000d0 f1 bb 98 3e e6 5d b9 3e 06 1f da bd 65 24 f3 be
       0.29830888 0.3620445 -0.106504485 -0.47488704
0000e0 e4 93 9a 3d 20 d4 d8 bd a5 2c f5 3e 28 5b 59 bd
       0.07547739 -0.10587335 0.47885624 -0.05306545
0000f0 76 d8 a3 bc d7 f8 76 3d 88 2b 0e be ef 59 15 3e
       -0.020000678 0.060295906 -0.13883793 0.14585088
000100 a6 2f 9c 3e 2d c1 bb 3e 24 e6 b3 3e 8c c2 91 3d
       0.30505103 0.3667082 0.3513652 0.07117185
000110 2c 68 d4 be 14 21 32 be d2 07 b3 3d 49 cf 9c 3a
       -0.41485727 -0.17395431 0.08741726 0.0011963631
000120 0e 23 2c 3e 86 ab d8 be 87 0a 0f be 88 af ab bd
       0.16810247 -0.42318362 -0.1396886 -0.08383089
000130 7c 17 b4 be db c2 c3 bc 59 db 8f be f9 a4 0b be
       -0.35174167 -0.023896625 -0.28097036 -0.13637151
000140 80 3d 91 be e5 0c b8 be 57 e7 ad 3d 90 cb e0 3e
       -0.28367233 -0.35947338 0.0849139 0.43905306
000150 cb 8b 80 3e 8e b9 69 be 26 ba aa bd 92 79 e2 bd
       0.25106654 -0.2282469 -0.08336286 -0.11058344
000160 3a 5c fe 3f da 8c 6b be 73 88 26 40 7c 07 05 3f
       1.9871895 -0.2300295 2.6020782 0.51964545
000170 e0 bb c3 3d 5e eb 23 3d 4b 56 d6 be bc 30 aa 3d
       0.09557319 0.040019386 -0.4186271 0.083100766
000180 20 ad 36 3e 8b e7 b7 bd 34 d6 e3 3e 0c 8a 65 3e
       0.1783948 -0.0897971 0.44499362 0.22415942
000190 97 e6 1b be f0 38 f4 3d 06 7b 65 bd e4 71 00 be
       -0.15224682 0.119249225 -0.056025527 -0.12543446
0001a0 a3 4b d6 3d 13 c8 0a 3f 47 1b 0d be c8 89 c8 bc
       0.10463645 0.5421154 -0.13779937 -0.024479762
0001b0 fa 31 ae 3e 83 8b f6 bd 92 f4 06 bc 58 3e 11 bd
       0.34022504 -0.120383285 -0.008237021 -0.035459846
0001c0 aa 27 01 3d 9d 74 0f be 7a cf cf be 16 ac 41 be
       0.031531967 -0.14009328 -0.4058798 -0.18913302
0001d0 31 68 74 be 7e 52 ba bd 88 57 c6 bd 3d b5 c8 bd
       -0.23867871 -0.090977654 -0.09684664 -0.098001935
0001e0 a6 c6 8b bd 53 52 ba be 1d bd 57 3e 80 59 a6 3c
       -0.068249986 -0.36390933 0.21068235 0.020306349
0001f0 98 ef 26 be d6 55 33 3d 07 b4 11 bd 0a f8 76 be
       -0.16302335 0.04378303 -0.035572078 -0.24118057

net.4.weight f4 [6, 128]
000000 a8 8f cf 3e 64 05 68 be fc 97 4f 3f 68 65 05 3e
       0.4053929 -0.22658306 0.81091285 0.13026965
000010 67 2d 58 3e dd f7 92 bf 72 b3 21 be d6 32 6a 3e
       0.2111107 -1.1481892 -0.15791109 0.22870955
000020 48 34 56 3e 10 5c 01 3e 6b 93 24 3f 3b ec 5e 3d
       0.20918381 0.12632775 0.6428744 0.054424506
000030 29 6f 26 3d 43 09 0c 3e 30 a6 f4 bd bd 40 a8 3d
       0.040633354 0.13675408 -0.1194576 0.08215473
000040 eb ac 02 3f e0 71 de 3e d5 9e a9 3f 41 95 ac 3d
       0.510451 0.43446255 1.3251597 0.084269054
000050 83 76 e0 3e 73 b5 ac bd 06 f4 11 3f f1 4c 81 3f
       0.43840417 -0.08433046 0.57012975 1.0101606
000060 fe a5 31 3f ef 88 30 3f 0f b9 c0 3e a0 14 5e 3e
       0.6939391 0.68958944 0.37641189 0.21687555
000070 15 72 28 bd f0 31 9a 3e d8 81 e8 3e 9d 00 bd bd
       -0.041124422 0.30116224 0.45411563 -0.092286326
000080 de 1a 8b 3e 81 a8 3a bf 6f 91 4c 3d 6f 57 df 3e
       0.27168936 -0.72913367 0.049943384 0.43621394
000090 a9 4d 92 3d 6c f5 c3 3e bd ee e4 3e 5d 77 63 3e
       0.07143719 0.3827318 0.44713393 0.22213502
0000a0 29 cd 00 be 21 87 19 3f e9 0d 29 be fd bd de 3e
       -0.12578262 0.59971815 -0.16509213 0.43504325
0000b0 2e 8f 0f 3e 43 23 b5 3e fe 04 b2 3e 75 63 43 3e
       0.14019462 0.35378465 0.34769434 0.19080909
0000c0 73 41 97 bd 71 aa 2e 3e 4d f1 18 bd 06 bd 36 be
       -0.0738553 0.17057206 -0.037339497 -0.17845544
0000d0 3f 80 a9 3e 2c 50 e7 3e 37 7c 93 3e c9 e3 1e 3e
       0.33105657 0.45178354 0.28805706 0.1551658
0000e0 69 30 ff 3e af 6b 91 3e 04 63 86 3f 2f ae 02 3f
       0.49841622 0.2840247 1.0498967 0.51047033
0000f0 82 84 13 bd d6 ec f8 3d bc 3b 0a 3e 04 ac 86 3e
       -0.03601504 0.12154548 0.1349935 0.26303113
000100 1a 7f 8f 3d 58 27 5d 3f 67 b0 07 3f de 91 0e bc
       0.070066646 0.8638816 0.53003544 -0.00870177
000110 b6 a5 2c 3f 9d ad f8 3e 5c d9 c9 bb 64 55 43 bd
       0.67440355 0.48569956 -0.0061599445 -0.047688857
000120 c0 1f d2 3d 7c fd a5 3e f3 b6 43 be 48 0a e9 3e
       0.10259962 0.32419956 -0.19112758 0.45515656
000130 16 cf 79 3d 96 9a df 3e 30 b3 67 be 3e a2 57 be
       0.06098851 0.43672627 -0.22626948 -0.21057984
000140 fb 3c ae 3e a0 83 86 be 9c c1 4e 3d 0b d5 24 3f
       0.340309 -0.26272297 0.05047761 0.6438758
000150 8f ca fd 3e fa da 2f be c0 86 c3 3e 41 42 68 be
       0.49568602 -0.17173377 0.38188744 -0.22681524
000160 8c e5 d6 be c9 0b 23 ba d8 e4 ea be 7a 5f c4 3e
       -0.41972005 -0.00062197127 -0.4587772 0.38354093
000170 55 e5 ae 3e 76 c6 2a 3d 3a 73 4f 3e 0d 2d ee 3c
       0.3415934 0.041693173 0.20258799 0.029074216
000180 8b cc 68 3e ae 5c e8 bb a5 56 d5 3e 1a 43 87 3d
       0.22734277 -0.0070911264 0.41667667 0.066045955
000190 2c 79 28 bd ee 21 4a 3e 02 87 9d 3e c1 4e c1 3d
       -0.041131184 0.19739506 0.30767065 0.09438849
0001a0 cc 79 a6 3e 90 ae f5 be 70 e1 a6 3e db 8c 5a bd
       0.325148 -0.47984743 0.3259387 -0.053356986
0001b0 c1 ba 42 3f 50 b9 f4 3e bf 8a 04 bd 3d 25 6d bd
       0.76066214 0.47797632 -0.03235888 -0.05789684
0001c0 18 88 b9 3e dd f2 00 3d 2e 32 e8 3e 20 91 2a be
       0.36236644 0.031481612 0.45350784 -0.16656923
0001d0 2b 2c b8 be ea 6f 9b be bb 92 fd 3e 7e 21 b8 3e
       -0.35971197 -0.3035882 0.4952601 0.35963053
0001e0 b0 ff cb 3e 74 e7 20 3f c4 b7 d2 bb ba f1 0a be
       0.39843512 0.6285317 -0.006430598 -0.13568774
0001f0 71 4b b4 3e 14 5a d1 3e 63 1a 12 3d ec 36 98 3e
       0.35213807 0.40889037 0.035669696 0.29729402
000200 73 8d 12 bf 4e 71 ad be 29 76 5a 3f 32 21 cd 3e
       -0.57247084 -0.33875507 0.8533655 0.4006439
000210 93 77 11 3f 87 a4 18 3f 95 19 cd be 18 15 28 3e
       0.5682308 0.5962605 -0.4005858 0.16414297
000220 c8 dd ab 3e 30 74 75 3d e3 3e 3b bf d5 14 1b be
       0.33567643 0.05992526 -0.7314283 -0.15144666
000230 9d 53 52 be 2e ae 98 3d 98 b6 4e bc 23 79 17 3c
       -0.20539708 0.07455097 -0.012616776 0.00924519
000240 44 f0 ed 3e 7f 8a cb 3e 5e ac 9e 3f 42 fc ee 3e
       0.4647237 0.39754102 1.2396352 0.46676832
000250 23 b0 d6 3e a0 a9 3a bd 37 6a b1 bc 0a 82 8d 3f
       0.41931257 -0.045571923 -0.021657092 1.105531
000260 f4 55 5d bd 94 f2 53 3f e3 73 20 3f 82 b4 61 3e
       -0.05403705 0.8279202 0.6267683 0.22041515
000270 8d 6d 12 3b 52 e3 f6 3e 68 fc 13 3e 58 2e 9a 3e
       0.002234313 0.48220307 0.14451754 0.30113482
000280 21 9b 96 3e d8 c5 1b bf 6d ae 8d bd 54 d3 58 3e
       0.2941523 -0.6084876 -0.06918035 0.21174365
000290 ca 3c 8b bd f8 a0 ae be ee b9 f0 3e 14 8c 14 bf
       -0.06798704 -0.34107184 0.47016853 -0.5802624
0002a0 23 96 44 bb 0a b8 19 3f d2 9d bb 3e 4b 2c 78 3d
       -0.0029996715 0.60046446 0.36643845 0.060589116
0002b0 68 8a 3b be a4 ad 90 3e 5b 0b f0 3e 68 fe 8e be
       -0.18314517 0.28257477 0.46883664 -0.27928472
0002c0 6a 8c 80 bd 66 dc 0c bf 63 53 be b6 21 a1 19 bf
       -0.06276782 -0.550238 -5.6721487e-06 -0.6001149
0002d0 51 49 c7 3e 36 e9 a6 3d 19 6d 16 3e bf 06 03 3f
       0.38923123 0.0814995 0.14690055 0.5118217
0002e0 0d 44 84 3e 9b 34 08 be 45 30 6e 3f e9 a4 7a be
       0.2583317 -0.13301317 0.93042403 -0.2447697
0002f0 c5 c9 21 3f fb 66 fc 3e 25 42 20 be 17 0d 6a 3e
       0.631985 0.49297318 -0.15650232 0.22856556
000300 34 44 9f 3e 7b 3b 7c 3f e0 06 e1 3e 44 a8 b4 3e
       0.31106722 0.9852826 0.43950558 0.35284626
000310 b8 aa 40 3f 74 5d d9 3d bb 8f 83 be b4 35 43 bd
       0.75260496 0.10613528 -0.25695595 -0.047658637
000320 3f 1a 3c 3f 80 88 19 bf 1f 3e e4 bb 6f b8 14 3e
       0.7347755 -0.5997391 -0.006965413 0.14523481
000330 4b c4 28 3f 2c ee b0 3e 70 72 08 3e 38 42 28 3f
       0.6592452 0.3455671 0.13324904 0.6572604
000340 92 65 e3 3e 15 9a 8a be 78 61 9d be 30 bc 0e 3f
       0.4441343 -0.2707068 -0.30738425 0.557559
000350 aa 1a e5 3e c5 ea ab 3e df 53 ce 3e 66 4c 87 3c
       0.44746906 0.33577552 0.40298364 0.016515922
000360 cf 34 7f 3f 21 29 83 3e 51 3d 28 bf af 43 e2 3e
       0.99689955 0.25617316 -0.6571856 0.44192263
000370 e7 cb ee 3e 8f 9b 11 3f 24 58 a7 3e 8b c7 8b be
       0.4663994 0.5687799 0.32684433 -0.27300677
000380 d0 56 31 3e de 98 25 3f 21 01 bb 3e ae 8e 6e 3e
       0.17318273 0.6468638 0.365243 0.23296615
000390 9e c5 66 3e 4d 19 3d 3f ca d4 33 3e ad e4 b1 3e
       0.22536322 0.7386673 0.17561641 0.34744778
0003a0 40 dd 8a 3e f2 0d dc be d3 8a 89 3e 6f 65 c1 bb
       0.27121925 -0.4297939 0.26863727 -0.0059019844
0003b0 de 71 4f 3f 9c a6 ad bc da b1 eb bd 84 9d 77 3e
       0.8103312 -0.02119761 -0.11508532 0.24181181
0003c0 bd 07 c3 3e 47 fb 39 3e 4b 8b a2 be 0a ef 06 3e
       0.3809184 0.18162261 -0.31746897 0.13177124
0003d0 36 af 69 bf d2 de 43 3e cd 0d 3e 3f 32 94 e9 3e
       -0.91282976 0.19127968 0.7423981 0.45620877
0003e0 13 61 33 3c e4 a7 20 3f 58 67 29 3e 5f b7 51 bd
       0.010948437 0.6275618 0.16543329 -0.051200267
0003f0 b8 26 06 3f 6f 5f 00 3f 68 76 cb b9 41 e8 c1 3d
       0.5240283 0.5014562 -0.00038807397 0.09468127

net.4.bias f4 [6]
000000 ac 5d ce bf ac 93 da bd dc f9 7e 3e 25 35 a8 3d
       -1.6122336 -0.106726974 0.24900001 0.082132615
000010 7e 22 c3 c0 ed 9b 80 c0
       -6.0979605 -4.019034
