results/dqn/seed_44/dqn.pt (torch, 233309 bytes, 7 tensors)

embed.weight f4 [500, 64]
00000000: 7608 cb3f ed09 903f c850 ea3f 0032 e73d
00000010: ddc6 fe3e ac1f c03f 9ab5 10be e850 b4be
00000020: ad3b 28be e620 95bf 3e58 d1be 7971 06bf
00000030: 785a a8bf 5966 1a3f 12f9 4fbf e88a 173f
00000040: 1600 9dbf 7cb3 75bf 2d1c db3f 817f 6ebc
00000050: d5b4 d93e 781a acbf cb42 ce3f ca63 173f
00000060: 3662 283e fe2d a03f a46d 043f cdca 4ebf
00000070: bb0a 05c0 6e10 233f 33f2 b03f e466 6abf
00000080: a9bd 933f 65ea ec3d 4a61 99bf 140a b93e
00000090: f0f7 83bf f396 923f d7f7 d5be 53c4 4dbf
000000a0: 17bf 593e 44c1 6fbf 34ab 92bf c1e2 673e
000000b0: 828e ff3e 5497 573e 3fe9 cabf b501 193f
000000c0: dd13 e53e 0b58 96bf fd10 d8bc 4691 e4bf
000000d0: 55b7 09be ac75 41be 264f a5be 5a7f ab3f
000000e0: 4b72 ca3e 112e 8bbf 79c9 2bbf c9de e0bd
000000f0: fa67 f63f a7f0 dabc 14c4 afbe afad 8fbf
00000100: 995b d13f 18ba 0fbe fe4b c0be 7b97 7cbf
00000110: 3043 833f 6c3d 9c3e 5fbf 853f e11b 02bf
00000120: dc7d f33f b2dc 80bf 9045 19bf 8c72 93bd
00000130: ffaf b4be 8468 2fbd 4583 3d3f 58e8 b83d
00000140: dd08 f93e 311c 5e3e 1ab7 263f bd3d 61bf
00000150: aa31 e9bf ae1b 94bf 9c6a a63f 44e2 21c0
00000160: c2d8 0fbe d635 963f 9983 6dbf fb0d 0940
00000170: 5c1d dabe c467 08bf 2c21 763f d5ad 433f
00000180: 0319 a73f 020d ed3e ec20 d8be 7723 1ebf
00000190: 0e73 a73f ce23 233f 9251 d7be 943f 4ebf
000001a0: 0bda 95bf 4ca6 1640 9587 d93e 458a 133f
000001b0: 5e66 95be 427b b03e 50df 653e 84fd 10c0
000001c0: 81fe 9cbd c8d8 1fbf 41f2 5c3e caf4 f43c
000001d0: de7b 11bf 7753 cebe ed1f 58bf 9e71 a93f
000001e0: 912f e9bf 7459 4cbf 5b3b 603e b709 4bbf
000001f0: 95bf edbf 5ff7 1a3e 0ed6 813f 1471 babf
00000200: a204 083f 9dd9 2f3f 1081 793f bf4e 73be
00000210: fcb1 b5bf 5938 4bbf 69c4 873f 45f7 923f
00000220: 9eae 4abf ce34 e03f 5f4b 583e f5cf b43e
00000230: bed4 8dbe 5041 913e 5fe9 87bd 9a7a b43f
00000240: 85b7 0dbe ceab 723e 080e 063f 31ba d5bd
00000250: cc34 a0bd 4a85 e13f e13b 1bbe c911 4fbf
00000260: aa07 ba3f 6b60 5d3e 3782 48bd a664 96be
00000270: 7451 983f 4df8 be3d 0d1d 18bf 818a 003e
00000280: 5cf6 31be dad6 873f 446c 5f3f 840d ccbd
00000290: abed 423d 9798 09bf 117e e0bf 3755 97bf
000002a0: fce8 8cbf 1798 d9be aba1 dfbf 7dc5 9f3e
000002b0: bf8b 6bbf 1820 a13f 998f 603f d124 9a3e
000002c0: a7db f93e 18a0 febe 6e61 c9bf 5b7d 853d
000002d0: 5c08 a0bf cab0 8d3c 6146 a43f cdbc 93bf
000002e0: a46d 7dbf d71e 8dbf 1ade 4c3f 5963 583f
000002f0: 88d0 79bf 5b6b 113e e7b0 d03f 6924 ea3d
00000300: 23a5 4bbf 0b1b 7abf b6cf 79be 1997 393d
00000310: 7e4c 4fbf 491c 1cbf e323 77bf 09da ba3c
00000320: 1858 bd3f db8c 9b3e 43e8 9b3f 75f8 8a3e
00000330: e017 243f 64b2 d6be 9430 b5bf 97cb 1bbf
00000340: a5b8 b6be ead9 343e 83cc 75bf 807d b6bf
00000350: bf96 713f 41b2 a23e 3aac c53e 662f 11be
00000360: e6e9 aabf 8076 7cbd c6ad 8d3f a798 ba3e
00000370: 62ce b03f 39f4 1d3f 742e 1dbf 0060 3a3e
00000380: 0ae9 423f 5d04 33bf 0a89 95bf a070 693e
00000390: 8881 863f df10 a43e 2b66 2ebf f44e 8f3d
000003a0: eca6 0d3f 6678 3ebf f915 59be c2bb d53f
000003b0: c5b3 8bbe aad5 abbe d9de 263f 1294 acbe
000003c0: 9c74 0f3d c29f 3d40 c55d b33f 9277 a2bf
000003d0: ced9 91be d6d8 91bf 9aed 1740 d48d 203f
000003e0: c4c1 d83e 8ea5 50bf 18b0 55bf e5af 1e3f
000003f0: 7dda 96bf cdba 563e 8f81 263f 2201 22bf
1.5861957 1.1253029 1.8305902 0.112888336 0.49761096 1.5009665 -0.14131775 -0.35217977
-0.16429015 -1.1650665 -0.40887636 -0.52516896 -1.3152609 0.6031242 -0.81239426 0.5919633
-1.2265651 -0.95976996 1.7117974 -0.0145567665 0.42520776 -1.3445578 1.6114134 0.5913664
0.16443714 1.2514036 0.517298 -0.807782 -2.07878 0.63696945 1.3823913 -0.9156325
1.1542255 0.11568145 -1.1982815 0.36140501 -1.031004 1.1452316 -0.4179065 -0.8037769
0.21264301 -0.93654275 -1.1458497 0.22645094 0.49913412 0.21053821 -1.5852431 0.5976823
0.44741717 -1.1745619 -0.026375288 -1.7856834 -0.13448842 -0.18892545 -0.32286948 1.339824
0.39540324 -1.0873433 -0.671043 -0.10979993 1.9250481 -0.02672608 -0.34329283 -1.1224879
1.6356078 -0.14035833 -0.37557977 -0.9866864 1.0254879 0.3051561 1.0449027 -0.5082379
1.9022784 -1.0067351 -0.5987177 -0.071995825 -0.35290524 -0.042824283 0.74028426 0.09028691
0.48639575 0.21690442 0.6512314 -0.8798483 -1.8218281 -1.1570947 1.3001285 -2.5294352
-0.1404753 1.173518 -0.9277893 2.1414783 -0.42600524 -0.53283334 0.96144366 0.7643712
1.3054508 0.46298987 -0.42212617 -0.61772865 1.3081987 0.6372651 -0.4205442 -0.8056576
-1.1707166 2.3539 0.42486253 0.5763286 -0.29179662 0.34469038 0.22448468 -2.2654734
-0.0766573 -0.62440157 0.21576788 0.02990188 -0.5682963 -0.40298054 -0.84423715 1.3237798
-1.8217641 -0.79823995 0.21897642 -0.793117 -1.8574091 0.15133427 1.0143449 -1.4565759
0.5313207 0.68691427 0.9746256 -0.23760508 -1.4194942 -0.79382855 1.0606815 1.1481711
-0.79172695 1.7516115 0.21122502 0.3531491 -0.27701372 0.28370142 -0.06636309 1.4099915
-0.13839538 0.23698351 0.5236516 -0.10435904 -0.0782257 1.7618802 -0.1515956 -0.80886513
1.4533589 0.21618812 -0.048952308 -0.29373664 1.1899858 0.09324703 -0.5941933 0.12552835
-0.17379135 1.0612442 0.87274575 -0.099635154 0.04758994 -0.5374846 -1.7538472 -1.182288
-1.1008601 -0.42498848 -1.7471212 0.3120536 -0.9201011 1.2587919 0.8771911 0.30106214
0.48800394 -0.49731517 -1.5732858 0.0651805 -1.2502551 0.017296214 1.2833978 -1.1541992
-0.98995423 -1.1025037 0.800264 0.8452659 -0.9758382 0.14201109 1.6303986 0.11432726
-0.79548854 -0.97697514 -0.24395642 0.045310114 -0.8097609 -0.6098066 -0.96539134 0.022809045
1.4792509 0.30380902 1.2180256 0.27142683 0.6409893 -0.41932976 -1.415545 -0.6085753
-0.35687748 0.17661253 -0.96015185 -1.425705 0.94370645 0.31776622 0.3860796 -0.14178237
-1.335263 -0.061636448 1.1068656 0.3644459 1.3812983 0.6170078 -0.61399007 0.18200684
0.7613684 -0.6992853 -1.1682446 0.2279687 1.050828 0.32044122 -0.68124646 0.06997481
0.5533283 -0.74402463 -0.21199788 1.6697924 -0.2728559 -0.3356145 0.6518379 -0.3370672
0.035023317 2.9628758 1.4012991 -1.269274 -0.28486484 -1.1394298 2.373877 0.6271641
0.4233533 -0.81502616 -0.8347182 0.61987144 -1.1785427 0.20969696 0.6504144 -0.6328298

net.0.weight f4 [128, 64]
00000000: ace7 3ebd 69e8 78bd 574d 95bd e3b6 5a3d
00000010: 280b 143d 2af2 02be d29b 0ebc ba96 113e
00000020: 6e21 033e 3f3f 4a3d d8b0 95bd c9a2 1fbe
00000030: 75bc 783d 3285 3bbd 03c8 b53d dc7e 20be
00000040: 0d60 82bb ee6c b13c 7f0f 0bbe 6a43 ff3d
00000050: aa4a 55be 3eb9 f1bc 898b ad3d 62d5 f5bd
00000060: 9c2e b5bd ecc9 103e 652c c63c 253a 07be
00000070: 1eab 3fbc 9d12 43be ca8a 2d3e 204a a9bd
00000080: 834d 183d 131a 5c3b e0a2 183e ca05 56be
00000090: d2b4 29bd cf42 37bd f34e 263d 4cf2 d1bd
000000a0: 8dda 64be 37b6 17bd db9d 9fbd 294e 92be
000000b0: eef9 6e3e b835 19bd 42da 023d ba4e 683d
000000c0: 85ac 5a3c df32 2c3e ce93 ff3d 7f5b c3bc
000000d0: 7bcc 4fbe 3285 5f3e 48b3 e9bd 628a 8a3c
000000e0: d4ec b03d ebd5 a5bd 53d5 01bd 9f15 863c
000000f0: ee11 cbbd f1b9 8b3d b457 58be 343a 803d
00000100: 8507 babc a068 adbe cc1c b43e bc6e a2bd
00000110: d2ea 10be 065b 80be 239a aabd 204e cb3d
00000120: 3af2 31be 811f 47be 01d9 e5bd 109e 16be
00000130: 7a58 51be 2ecb 84be 8b34 0abe 2826 55bd
00000140: 447e 123d d384 99be c24d d63e bebb d63d
00000150: ea66 093e 1029 a4bd 7036 b73c 3396 123e
00000160: 9e78 ec3d dee0 223e 6c15 ecbc 9c54 dabd
00000170: 6795 9fbe 6118 34be 3504 13bd 286e 8cbe
00000180: 6d57 1d3c 74e3 2bbe 16d8 353e 5e9a c33d
00000190: 6d40 9dbd c737 febb 2ba2 3b3d a39a 8c3e
000001a0: 9e0d 97be bc33 b9bb bed4 41bd 45d4 803e
000001b0: 9f70 3abc 50ed a1bd ff6f 07bf cdc5 923e
000001c0: ecd5 653e 2add 723e aa45 303e 1bb9 79bd
000001d0: 1c5c 533c 57f2 113e 27db 9abe d9a9 b13e
000001e0: 8acf d3be 7a83 91bd 326d 203c c35a 91be
000001f0: 05b8 21be 2a28 bcbc 649f a43d 4cdc efbd
00000200: 7b2d 963e 1364 4f3e 112d 32be 32e7 e83d
00000210: 8458 513c 081c 403e 5648 59be 9c92 ec3e
00000220: a921 be3e 2d98 da3e 2022 c4bd d0d0 50be
00000230: c2e1 143e f968 d2be 0a35 b1be 26ca fdbc
00000240: cbbc 033e d4cb 5a3e b7d3 21bf 5c6a 913e
00000250: 36ce 0f3e cffe f2bc b558 1ebf ebea 32be
00000260: 4c79 93be 383f db3c 2dc9 9c3e b6dc 6d3d
00000270: 6b42 b63a afdc ee3d 243b 943e d3e9 443c
00000280: 65a4 fcbd f658 9b3e 5b34 bdbe 4885 a53e
00000290: d20c c23c 167a 923d cab7 8b3e 2c85 09bd
000002a0: 36ef 5abe 4441 c23c c872 aa3e ae71 13be
000002b0: 8b44 fabd 3f7c 573f 0b85 f43d 4158 1cbe
000002c0: fe7a 0bbf 3a45 cdbe 210d 153e ff3a c43e
000002d0: 5581 fe3c 8524 60be fb26 13be 44ae a6be
000002e0: 2fbc 96be 62e9 a8be a5b9 543e fb3e f3be
000002f0: ff2f 283e 91a0 453e 3c21 03bf caf8 c3bc
00000300: 3034 9d3e 1610 5ebe 2b18 08bf d6db 5cbd
00000310: a696 113c 3f4b 81be f101 213e d006 0b3e
00000320: 11b1 613e 06b2 aa3d 7fab 983d 3dff e2be
00000330: b597 26be 9ad7 d03c 2b66 44be c9bb 523d
00000340: 368a 143e 5e10 d7bd f728 1f3d ff80 8dbe
00000350: 63b8 58bb 540b 81bd c57f 72bd 964b f93c
00000360: c553 f33d d258 0ebe 526e 32be 1559 57bd
00000370: 2090 423c 1b5a 35bd ecaa 313e ee44 5dbb
00000380: bb53 b5bc 551b e9bc 9c62 5fbd d4ba 243e
00000390: 7d40 8e3d 0847 3e3e c615 9e3e 273a abbe
000003a0: 5919 123e 875e 1b3e dde2 d03e 244d 72be
000003b0: 5eb2 21be 422b a5bc 1ab6 e5bd ea09 e63d
000003c0: 4829 b33b f089 3abe a807 e13d 4c65 dc3d
000003d0: 0b96 343e ef1b 0f3f e447 b3bd 3195 423e
000003e0: 786a 9b3d 68a7 adbe c396 2ebd 9ebb 1d3d
000003f0: ba22 20be c80f 4dbe 8859 26be b5b1 8d3e
-0.04660766 -0.06076852 -0.07290142 0.05339707 0.036143452 -0.12787691 -0.008704143 0.14217654
0.12805721 0.049376722 -0.07309121 -0.15589441 0.0607266 -0.04578132 0.0887604 -0.15673393
-0.0039787353 0.021658387 -0.1358013 0.1246403 -0.20829263 -0.029507276 0.0847388 -0.1200359
-0.08846781 0.14139527 0.02419109 -0.13205774 -0.011698512 -0.19050069 0.16947475 -0.08266091
0.037183296 0.0033584877 0.14905882 -0.20900646 -0.04143221 -0.044741448 0.040602636 -0.102512926
-0.22348996 -0.037039008 -0.077937804 -0.28575256 0.23337528 -0.037404746 0.031946428 0.056715705
0.013346796 0.16816281 0.124793634 -0.02384734 -0.20292847 0.21828154 -0.11411148 0.01691169
0.086389214 -0.08097442 -0.031697582 0.016367732 -0.09915529 0.06822575 -0.21127206 0.06261101
-0.022708664 -0.33868885 0.3517822 -0.07931277 -0.14152077 -0.25069445 -0.083301805 0.099270105
-0.17377558 -0.19445612 -0.11223031 -0.14708734 -0.20443907 -0.25936264 -0.13496606 -0.05203834
0.035764948 -0.2998415 0.418562 0.10485028 0.13418165 -0.080156446 0.022364825 0.14315109
0.115464434 0.15906093 -0.028818808 -0.10660669 -0.31168672 -0.17587425 -0.035892684 -0.27427793
0.009603363 -0.16785985 0.17758211 0.095509276 -0.07678304 -0.007758114 0.045808952 0.27461728
-0.29502577 -0.005651919 -0.047322027 0.2516195 -0.01137939 -0.07906592 -0.5290527 0.28666535
0.22444886 0.2371718 0.17214075 -0.060967546 0.012900379 0.14252602 -0.30245325 0.34699896
-0.41369277 -0.07105155 0.009791659 -0.28389558 -0.15792854 -0.02296837 0.08038214 -0.1171194
0.29331574 0.20253019 -0.17400004 0.11372222 0.012777451 0.18760693 -0.21219 0.46205604
0.37135056 0.42694226 -0.09576821 -0.20392156 0.14539245 -0.41095713 -0.34610778 -0.030980181
0.12864988 0.21366817 -0.63213676 0.28401458 0.14043507 -0.029662518 -0.61854106 -0.17472427
-0.2880348 0.026763543 0.30622235 0.058071814 0.0013905292 0.11663186 0.2895137 0.012018639
-0.12336043 0.3034131 -0.36954007 0.32328248 0.023687754 0.07152192 0.27288657 -0.03357427
-0.21380314 0.023712762 0.33290696 -0.14398834 -0.12220105 0.8417396 0.119394384 -0.15268041
-0.54484546 -0.40091878 0.1455579 0.3832626 0.03106753 -0.21888931 -0.14370339 -0.3255483
-0.29440448 -0.32990557 0.20773943 -0.47508988 0.16424559 0.19299532 -0.51222587 -0.023922343
0.30703878 -0.21685824 -0.5316188 -0.05392059 0.008886015 -0.2525272 0.15723397 0.13576818
0.22040202 0.083347365 0.07454585 -0.44335356 -0.16268809 0.025493432 -0.19179599 0.051448617
0.14505848 -0.10501169 0.038857426 -0.2763748 -0.0033068887 -0.06300989 -0.05920388 0.03043155
0.11881212 -0.1390107 -0.17424896 -0.05257519 0.011875182 -0.044275384 0.17350358 -0.003376301
-0.022134652 -0.028455416 -0.0545374 0.16086894 0.06945894 0.18581784 0.30875987 -0.33442804
0.14267482 0.15172778 0.40798083 -0.2366224 -0.15790698 -0.020162228 -0.11216374 0.1123236
0.0054675676 -0.18216681 0.109877884 0.10761508 0.17635362 0.55902 -0.087539464 0.19002225
0.07588667 -0.33916783 -0.042624246 0.038509004 -0.15638247 -0.20025551 -0.16245091 0.27674642

net.0.bias f4 [128]
00000000: ec18 87bf f178 d9be 78c8 ae3e c0da 27be
00000010: d78b dabe 7d51 09be 1647 03bf bc1f ffbe
00000020: 0419 ce3d adb6 c4be ba70 20be 5ddc 2fbf
00000030: d566 f0be 3652 48bf b0af 5abf 6b5a 283f
00000040: 9193 56bf d183 07be fe56 27bf 9bfc 8d3e
00000050: 48c4 8bbe e1f9 4abf 2a07 1bbc 1ce1 36bf
00000060: 7126 79be 4010 49bf 1f1d 25bf 2dd9 21bf
00000070: af18 bebe 1c53 acbe 00cc 43bf 7fee a03e
00000080: b604 ffbe dd7a f2bd 1d7e dabd 8b39 f73e
00000090: adc1 52bf 54ce d6be 36df afbe e7c2 20be
000000a0: 3a00 333f 9efb 4dbf 1b09 afbd 878f 2ebf
000000b0: f5bc 22bf fd40 7c3f fcea 55bf 20cb 03bf
000000c0: 6fe0 2fbf 871f cabe 5372 21bf a4b2 fbbe
000000d0: 1aa6 3bbf 07f6 67bf af57 60bf cc11 8fbe
000000e0: 8bd3 05bf a16a 4fbf 19fc 55be 537d 18bf
000000f0: 23a9 68be 2557 0cbf 2db9 d83e d166 70be
00000100: 7eb1 21bf 6133 493a 2d20 cdbe d673 7cbf
00000110: feaa b8be 7329 d9be 1463 14bf 615a 24bf
00000120: 6d03 09bf 7c08 2fbe b36e 003e 8b42 c9bd
00000130: 3443 f3be 4989 8cbf 4c35 f4be 33e0 bd3e
00000140: 8635 4c3c 4cb6 b3be 1ca0 98bd 0924 85be
00000150: dc6c cabe 1202 71bf d247 18bf 9cdb 7abf
00000160: b9a2 5bbe f1f9 1bbf 839c 22bf d891 a53e
00000170: 294f c5be 3cfb f93e 2600 b5be 4745 abbc
00000180: 561e 7c3e b5df 21bf dde9 22bf f92a 67bf
00000190: 06c7 b73d bb74 8dbe f748 29bf d990 0fbf
000001a0: 0a77 c1be 7164 d0bd c4dd 6dbe 2c07 1fbf
000001b0: daa9 34bf 569a aebd af07 93be 675c 22bf
000001c0: 3f04 90bf cb36 2bbf aa55 1cbf 5b17 0a3e
000001d0: eaa4 0ebf c13c 22bf c80f 61bf 3181 4bbf
000001e0: f9f7 35bf 755b a3be ded6 e7be 4369 02bf
000001f0: 0bf1 2bbf cac9 09bf 286c 0ebf 331b 44bf
-1.055448 -0.42475083 0.3413732 -0.1639204 -0.42684814 -0.13409992 -0.51280344 -0.498289
0.10063365 -0.3842062 -0.15668002 -0.6869562 -0.46953455 -0.78250444 -0.8542433 0.65762967
-0.8381892 -0.13233878 -0.65367115 0.27731785 -0.27298188 -0.79287535 -0.009462157 -0.7143724
-0.2433107 -0.7854042 -0.6449756 -0.6322201 -0.37128207 -0.33657157 -0.76483154 0.31431958
-0.49808282 -0.118398406 -0.106685854 0.4828609 -0.82326776 -0.4195429 -0.34349984 -0.1569935
0.6992222 -0.8046206 -0.085466586 -0.68187755 -0.63569576 0.98536664 -0.8356168 -0.5148182
-0.68701833 -0.39477178 -0.6306507 -0.4915973 -0.73300326 -0.9060978 -0.87633795 -0.27943265
-0.52275914 -0.8102208 -0.20896949 -0.5956623 -0.2272077 -0.5482047 0.42328778 -0.23476721
-0.63161457 0.00076751976 -0.4006361 -0.9861425 -0.36067957 -0.42414436 -0.5796368 -0.6420041
-0.5352085 -0.1709308 0.12542228 -0.09827145 -0.4751221 -1.0979396 -0.47696912 0.37085113
0.012463933 -0.3510002 -0.074524134 -0.26004055 -0.39536178 -0.94143784 -0.5948459 -0.9799135
-0.21448793 -0.60928255 -0.6352007 0.32337832 -0.38536957 0.4882449 -0.35351676 -0.020907057
0.24620947 -0.63231975 -0.636381 -0.90299946 0.089735076 -0.2762812 -0.6612696 -0.56080395
-0.37786132 -0.10175408 -0.23229128 -0.6212032 -0.7057167 -0.08525531 -0.287168 -0.63422245
-1.1251296 -0.6688048 -0.61068213 0.13485472 -0.5572039 -0.63373953 -0.87914705 -0.79494005
-0.710815 -0.31905714 -0.45281118 -0.50941867 -0.6716468 -0.5382353 -0.55633783 -0.76604

net.2.weight f4 [128, 128]
00000000: 950b 1dbe 5e2b c1be ab06 23be b0a9 c9bd
00000010: c809 3b3d ae7b 63bd 8050 90be a74b 50be
00000020: 12e5 7abe d731 4abe a640 823d cafd 57bd
00000030: 25d0 27be ea35 26be 9550 b4be 7ca7 11bf
00000040: e4b1 07bf e2ab fabe 052e 3dbe d3f5 d5be
00000050: 48d1 5bbe e1ea 12bd 7288 82be ae88 9abd
00000060: aeb7 443e e7f7 dc3d a717 5c3d f6e1 e9bc
00000070: a17b 123e 81c0 c6bd 76dc 48bd 34d9 e7bd
00000080: 350b 553d 4802 a3be 0a5c a3bd 01b6 b83c
00000090: 3a4f a2be 6046 3a3d fd10 c5be 9453 9b3d
000000a0: 461d adbe b483 eebd 0d17 3cbe dfa3 f4bc
000000b0: 306e 9abd 21a5 9fbe 2eb4 713d 026a 3d3d
000000c0: 8879 03be b68d 89be c09a 45be 5fc5 4fbe
000000d0: 4de9 7abd 8ee9 2bbc 31de 2c3e 377b ec3b
000000e0: 223b a2bd e11f ebbd 25d5 0ebe ca7f 48be
000000f0: 1256 aa3d 9a93 213d 928d 80bd 0e23 503d
00000100: 5635 733d f465 093d 36c4 3abf caaf d1bd
00000110: 9df8 e1be 849b ffbd bb91 24be 3128 77be
00000120: 14ff c03b 727d 01be b36a 16bd 3549 c03b
00000130: b3a8 1cbf 1d5f f13c df7f 4e3e 380d 79bc
00000140: e818 6bbe 8b25 3fbd 6792 e8bc 2537 71bd
00000150: ac88 013e 2774 1dbe ccbc a0bc 078a 683d
00000160: a152 873d bcad 98bd fefb f2bd ac80 40be
00000170: 3593 b93e c92e a2be 9a92 c13d 81d1 99be
00000180: 032f 553e a81a 5d3e 92dd dfbd 7a21 303d
00000190: 8250 dabe fd18 3ebc f0b3 1dbe 18a6 5dbe
000001a0: 2d46 b8bd 9629 83be 587d 0dbe 3099 183e
000001b0: 201c 9abd c582 84be fc05 2cbe 1b27 73be
000001c0: 36d9 2bbe e59a c93d d909 1cbe 0ed5 d6bd
000001d0: 64d7 44be 0111 31bc afb6 bfbc 9460 bbbe
000001e0: 4753 2abd 0745 01bf 8964 a2bd ce9f 23bf
000001f0: 9f93 6abd a294 8d3e eb99 e9be 5af5 31be
00000200: a79d 843e b6fc b53a 43e7 a5be a7d0 98bd
00000210: 1db4 bfbe b690 bebe ba96 67be aeba 8e3d
00000220: 155d 6fbd 2fce 86be a9ff 473e db0a d2bd
00000230: f87e d23d afd8 05bf 3236 51be 2f99 bbbd
00000240: 24c9 0c3d b32c 9d3d ea4a c8be 6266 8bbe
00000250: 17f7 50be b5ec b9bd 54d9 fdbd 481a e73d
00000260: 90d9 09be 9da3 63be 00a7 9fbe 8239 663d
00000270: b989 38be 39d9 66bd 741e e53a 456a 32be
00000280: d6a7 c8bd 8a71 4e3d b6e1 cebd 8354 19bf
00000290: aacb 5e3e c031 183c 060e 10be 22ea a93e
000002a0: 1c42 14bf 8ed4 66bd a769 4fbd 0267 f3bd
000002b0: 6522 9cbe dd5b e3bd 42cc b8bd 506d c23d
000002c0: d073 b4bd 931a 263e f661 2d3e 50d3 163e
000002d0: f80c a93e 735a b93c 8feb 2fbe aa2e f8bd
000002e0: 77a0 59be e255 093d 29ec 263c 7974 9d3d
000002f0: 945c 763d e500 c83d 5d87 ebbe 9c19 c43e
00000300: d45c 913d 3e70 f2be 4198 21be 757a 1bbe
00000310: 3e2d 9ebe baee d2be 247d e7bc c01f 83be
00000320: 971f acbe 782f 1d3e 5ca4 193e 9ba9 fd3d
00000330: 2cab aa3e f088 adbc 754d b83d d580 98be
00000340: d4c4 81be 55db 79be aa5c 66be 3fbe 9d3b
00000350: bc63 e33c 631f c3be 1b6a 103d d51e 9cbe
00000360: 6d92 98be 2a0d 193d 6d03 0fbe 8163 70be
00000370: 39bd 15bf 0c33 233e 53cf bfbc a648 c13c
00000380: 2f9c 73be d2af d5bd d000 39be dce7 483d
00000390: 63cf aebd 6915 9dbe 46ab b6bc 8d8a 443e
000003a0: 06ef 05ba 3c9c e6be 1bfe 34bc 40dd b43e
000003b0: dc1d 70bd 96a2 68bd 4edf 953d 20c6 11bf
000003c0: 5d6d dabd c356 293e 5996 a4bd 4868 b2be
000003d0: b0d5 183d d5fc 79be d32f 2fbe cf91 1abe
000003e0: 7fea 1abe 4f37 8b3e 189c 15bf 58ed 4f3e
000003f0: b1c2 b7be ac24 ebbe 31ee bdbd 4db8 83bd
-0.1533645 -0.377284 -0.15920512 -0.098468184 0.045663625 -0.055537872 -0.28186417 -0.20341359
-0.24501446 -0.19745575 0.06359987 -0.052732266 -0.16387995 -0.16231504 -0.3521773 -0.56896186
-0.53005815 -0.4895926 -0.18474586 -0.41789111 -0.21466553 -0.03586853 -0.25494725 -0.07545601
0.19210693 0.10789471 0.053733494 -0.02855013 0.14304973 -0.09704686 -0.049038373 -0.11320725
0.05201264 -0.31837678 -0.079765394 0.022547724 -0.3170107 0.04547727 -0.38489524 0.07584301
-0.33811396 -0.11646214 -0.18368168 -0.029863296 -0.07540548 -0.3118067 0.059009723 0.046243675
-0.12839329 -0.2686593 -0.19297314 -0.20290135 -0.06125765 -0.0104926955 0.16881634 0.007216837
-0.07921435 -0.1148069 -0.13948496 -0.19579998 0.08317198 0.039447404 -0.062770024 0.05081468
0.059377037 0.033544496 -0.72955644 -0.10238607 -0.4413499 -0.12480834 -0.16071217 -0.24136426
0.0058897827 -0.1264551 -0.03672285 0.005868102 -0.61194915 0.029464299 0.20165966 -0.0152009055
-0.2295872 -0.046666663 -0.028390123 -0.05889048 0.12649792 -0.1537634 -0.019621275 0.056772258
0.06607557 -0.07455012 -0.1186447 -0.18799084 0.36245123 -0.3167632 0.0945179 -0.3004265
0.20818715 0.215922 -0.10930933 0.043000676 -0.42639548 -0.011602637 -0.15400672 -0.21645391
-0.0899776 -0.25617665 -0.13817346 0.14902186 -0.07524896 -0.2588102 -0.16799158 -0.23745386
-0.16782078 0.09843997 -0.15238132 -0.10489856 -0.1922279 -0.010807277 -0.02340254 -0.3659712
-0.041583326 -0.5049595 -0.07929332 -0.6391572 -0.05726969 0.2765246 -0.45625243 -0.1737875
0.2590153 0.0013884518 -0.32403 -0.07461672 -0.37442103 -0.3721978 -0.22616091 0.069692
-0.05843838 -0.2632918 0.1953112 -0.10255977 0.102781236 -0.5228376 -0.2043083 -0.09160077
0.03437151 0.07674541 -0.39119655 -0.2722655 -0.20406757 -0.090783514 -0.12394968 0.112843096
-0.134619 -0.22230382 -0.31182098 0.056207187 -0.18021287 -0.056359503 0.0017480389 -0.17423351
-0.09797637 0.050401248 -0.10101645 -0.5989458 0.21757379 0.009289205 -0.1406785 0.33186442
-0.57913375 -0.05635505 -0.050637867 -0.118848816 -0.3049499 -0.11101506 -0.09023334 0.09493506
-0.08811152 0.16221075 0.169319 0.14729047 0.33017707 0.022626137 -0.17179702 -0.121182755
-0.21252619 0.03352917 0.010188141 0.07688231 0.060146883 0.097657956 -0.4600171 0.38300788
0.07097784 -0.4735126 -0.15780737 -0.15183432 -0.30893892 -0.4119776 -0.028257914 -0.2561016
-0.3361785 0.15350139 0.15004104 0.12385865 0.3333372 -0.021183461 0.08999149 -0.2978579
-0.2534548 -0.24400075 -0.22496286 0.004813939 0.027757518 -0.38109884 0.03525744 -0.30492273
-0.29799214 0.03736607 -0.1396615 -0.23475458 -0.58491856 0.15937442 -0.02341429 0.023594212
-0.23790048 -0.10433926 -0.18066716 0.049049243 -0.085356496 -0.30680397 -0.022298466 0.19193478
-0.00051091646 -0.45041072 -0.011046912 0.3532505 -0.058622226 -0.05679568 0.073179826 -0.5694294
-0.10665391 0.16537003 -0.08036489 -0.34845185 0.037313163 -0.24412854 -0.17108087 -0.15094684
-0.15128516 0.27190635 -0.58441305 0.20305383 -0.35890725 -0.45926416 -0.09273947 -0.06431637

net.2.bias f4 [128]
00000000: a4ac 0dbd abc4 733e f07b 3dbd d2f8 bf3d
00000010: 83aa f53e ee34 15bd 5bb8 6c3e 4151 9b3f
00000020: 7a75 f13b d42f 003d ef7e a2be 925c 9ebd
00000030: 86c6 ac3e 2435 093f 2449 b93e fe8b 0e3f
00000040: 75ff 38be 664c 853f 491b 843e fde8 aa3e
00000050: a5bf 2a3f 0339 993d 46b0 11bd 3660 913c
00000060: 5d96 d13d 6f79 87bc 7a45 833c 4f94 26be
00000070: 7df9 013e 8be0 963e bcc2 803f 148d 36be
00000080: 4a93 563f b633 4b3d 5c40 a3bd 0440 aa3e
00000090: f53f b33e f3d7 aabd 5d2a d5be 5d1a ba3c
000000a0: 7313 983f 63ef 4fbe 5bfb b6bd 25fe c2bd
000000b0: 2a89 d3bc a15f 9f3e 0254 1abe d678 9dbd
000000c0: 066e 8abd 7e0e c93c ed01 883e f498 473e
000000d0: 8d7d 2a3e 90e9 d1b8 ba05 8abd f2b9 133e
000000e0: 3d78 48be 12d3 ad3e 4a30 aa3e 260a 29bd
000000f0: 107f 1a3e 8537 2bbe 18ff f73e 5aa8 7d3f
00000100: 2687 d8bd 4424 6f3f f5cc 723f 9c61 acbe
00000110: c3ae 853e eda9 953f 44c3 c8bd fb3d d9bd
00000120: bcb7 8c3e 6a07 aa3e 79e0 373f 58fb 8b3f
00000130: 5968 75be 1656 aa3e 3e8f 22be 3842 b13f
00000140: 1ab8 343f 669d 4ebe faab 9dbe d987 ad3e
00000150: 869e 343f ee4c 8ebd 82df 9cbc 2283 b83c
00000160: 164b 9dbe ed18 8d3d 9325 413e 084c 11be
00000170: 70d3 b7be 1e99 183f ad36 973d 6d2c 933b
00000180: 7eae 4e3e d841 573e de58 04bd 18d5 6cbd
00000190: 2c2f 213e 5a8a 153e a7d7 733f 95bf 113f
000001a0: f3f0 c63d 018a 483d 56c9 393e 9bbc 723e
000001b0: 8315 013f 8fbf 773d 991c 343f 1f80 febc
000001c0: 3628 923d 7b32 06be 6b3b c03d 721b 053e
000001d0: d30c ebbd eefa 953d f415 acbd b0cf 2abe
000001e0: 3bb2 933e 9a13 a3be 41a3 b6bd b11c 093f
000001f0: 1351 7c3d 7f39 dfbd 0e98 8f3d 345f 48be
-0.03458847 0.23805492 -0.046260774 0.093736306 0.47981653 -0.03642743 0.23117201 1.2134172
0.0073687406 0.031295612 -0.31737468 -0.077325 0.3374521 0.5359671 0.36188614 0.5568236
-0.18066199 1.041394 0.25802067 0.3338088 0.66698676 0.07481577 -0.035568498 0.017746072
0.10233758 -0.016537396 0.01602434 -0.16267513 0.12692828 0.29468188 1.0059428 -0.17827255
0.83818495 0.049609862 -0.0797126 0.33251965 0.35009733 -0.0834197 -0.41633883 0.02271765
1.1880935 -0.20306163 -0.08934661 -0.095211305 -0.02582224 0.31127647 -0.15071109 -0.07689063
-0.067592666 0.024543043 0.2656397 0.1949194 0.16649456 -0.00010009401 -0.067393735 0.14426401
-0.19577117 0.33950096 0.33239967 -0.041269444 0.15087533 -0.16720398 0.4843681 0.9908501
-0.105726525 0.9341471 0.9484399 -0.3366822 0.26109895 1.1692482 -0.09802869 -0.10607525
0.27483928 0.3320878 0.71826893 1.0936079 -0.23965587 0.33268803 -0.15874955 1.3848333
0.70593417 -0.2017723 -0.3079527 0.33892706 0.7055439 -0.06948267 -0.019149546 0.022523466
-0.3072135 0.0688952 0.1886199 -0.1418916 -0.35903502 0.5960864 0.073834755 0.00449138
0.20183751 0.21021211 -0.032311313 -0.05782041 0.15740651 0.14603558 0.95250934 0.56932956
0.09713926 0.048959736 0.1814321 0.2370476 0.5042345 0.06048542 0.70356137 -0.031066952
0.07136576 -0.13105194 0.09386333 0.12998751 -0.114770554 0.07323252 -0.08402625 -0.16680789
0.28846917 -0.31850892 -0.08917857 0.53559405 0.061600756 -0.108996384 0.07011424 -0.19567567

net.4.weight f4 [6, 128]
00000000: ce1c c23d 55d3 adbc 9496 6abd 7413 e53d
00000010: f8b1 f6bc b31f 02be e7a9 88bd 2283 ee3d
00000020: f1b2 b0bd a661 bdbd 1d8a 8a3d 05ca 41bd
00000030: 1a2b 7ebe 2b51 21be 983e 073d d272 053e
00000040: 11d0 28bd ba9b 6c3d f2a8 7e3e 9c46 f5bd
00000050: e50a 7a3d 4dde 1cbe edbb e0bd 9ac2 19bd
00000060: d64c 393d fa9a 0c3d be1e 9dbc 32f1 c9bc
00000070: fe84 693c 1418 873e 2799 dc3d 3da7 053f
00000080: abc4 6d3d 009e 3c3d dcc9 c23c cbcb d7bd
00000090: 5359 003d b83c a03e 0b1f 993d 739c 8d3e
000000a0: 862f 153e d784 45be 56d4 c5bc ee14 a1be
000000b0: 68eb 8c3b 5543 303c 8e88 a1bd 59cf 32be
000000c0: 666e 1cbd a256 e3bd fc72 9fbc de51 be3b
000000d0: 5a17 203e 864e 3d3d abed 71bd 29dd 923d
000000e0: e0e7 113f 528d 85bd 4ccb 883e 4a08 1e3d
000000f0: f7bf ea3c 41fe 763e 0592 103d 1691 7e3e
00000100: 50ca 17be 165d 2a3e ac32 bb3d d0e5 bcbd
00000110: 4a82 ee3d 0aff 2f3e c0a8 c0bd a30f c33c
00000120: 4ac7 97bd ecc5 903d 7789 de3e 7d29 bf3e
00000130: f113 b93d 344d c33c ba31 143e bf7f 8b3e
00000140: 081d 243d 92a3 bc3d 5e66 f0bb d1dd 0abe
00000150: 3224 1a3c 4333 213d f4fd f7bc 84a4 13be
00000160: daf6 c2bc b396 a5bc e367 48be 1705 03be
00000170: 3dc2 8dbe 615f 0c3d d0a6 00be c93e 16bd
00000180: b9fa 9a3d b403 213d ff03 243c 2619 1d3e
00000190: 6b64 443e 429c 25bd def5 e4bd 7bee 24bc
000001a0: e58a 323e 8696 b03c c77a 1dbe a49f 11bc
000001b0: 75ee 44bc f1ca c63d 2ad6 653e 46d5 773c
000001c0: b13a 98bc 351b 863d 4a54 773d b593 823d
000001d0: da35 8a3c 57dc 443c 12c1 683d d510 783e
000001e0: 5a60 26bd f81a 9abe 7731 da3e 951c 1a3c
000001f0: 90b1 e13d e8f0 253c caa6 9b3e 71fd cebd
00000200: 5a2b 013e 18e0 01bc 5af0 ae3d 8a75 113e
00000210: 9b71 923d 43a8 a9bb 3c2a 13be e5f8 1b3e
00000220: 39cc a93d 9e4b 8c3c b829 8fbe 02a6 463e
00000230: 7d3c 213e 6bf4 73bc abef 253d 5cc1 5c3e
00000240: df1d 753e 9b9a 8d3d aed9 753d e326 1d3d
00000250: 60b3 e43d 16c5 dcbc 7f80 cebd fbf7 45bd
00000260: 771d 2dbe f202 71bd 3bee c83c 71b9 61bd
00000270: 9a30 fabd 4f6e 29be 63d1 1b3e a2c6 033f
00000280: a454 053e ec91 73bc 1b3c 66bd e5d5 5c3c
00000290: d3c0 eeb9 535f 283d 234c 8a3e 2459 783e
000002a0: 8026 903e b385 883e b1f5 f0bd 7d59 813c
000002b0: 0201 92bd 86e5 98be 1505 b1be fec8 af3d
000002c0: 9e77 73bd 019e bebd 96a7 133f 1a84 ce3c
000002d0: 669c 6b3e 7ba6 a4bd d45e c8bc 4096 3d3e
000002e0: f68a d6bd 5934 373d e951 943e b17d b93d
000002f0: 21a3 7e3b 8cbf 7c3e 9349 bd3c 8af8 783e
00000300: 1552 563c 40fe 8eba bfbd 923d bfe0 1dbd
00000310: 2759 c93b 8bb3 7a3e 01bd 2d3d e1b5 bc3a
00000320: 633f adbc 0ee4 5fbe 921a 563e dca2 973e
00000330: 1028 d63e b0e6 153d 1b0d 93bc 49a6 bb3d
00000340: 850e e23d d7c7 c7be 1452 34bb c255 97bd
00000350: fd52 723c f731 15bb 4c69 92be 6486 8b3e
00000360: a05c 2fbe 6e7f 0bbd d893 0c3d d330 d7bd
00000370: 6fa1 a23d 55ec 833e 96b5 1cbe ea45 b4bd
00000380: fe89 ab3b 31c3 99bc 89b6 38bd ff1a 3cbd
00000390: a4ef 8c3b 4beb eabd 7e23 d83d 0cb1 c73b
000003a0: f05b 2e3e 9dd5 133d ce3f 903d ded4 bf3c
000003b0: a187 333d b1e8 8d3d 6234 d93d cae6 5f3d
000003c0: c72f c03d 3597 b13d cd22 a5bc 0cb5 eabd
000003d0: a36a a23c d2bd 60bd ced2 063e b19e 763e
000003e0: 1bd6 da3d cbb9 24be 812f 963d c5d8 9cbd
000003f0: 290e 48be 244e 1abb 5aec 873e c9a1 81bd
0.0947815 -0.021218935 -0.05727251 0.11185351 -0.030114159 -0.12707405 -0.06673031 0.11646105
-0.0862788 -0.092471406 0.06764624 -0.0473118 -0.2482113 -0.1575362 0.03301868 0.13032082
-0.041214053 0.0577657 0.24869135 -0.11976358 0.061045546 -0.15319176 -0.10973344 -0.037539102
0.045239292 0.034327485 -0.019179698 -0.024651144 0.014252899 0.26385558 0.10771399 0.5220831
0.058048885 0.046049118 0.023777895 -0.10536917 0.031335186 0.31296325 0.07476624 0.27658424
0.1456891 -0.19288956 -0.024149101 -0.3146128 0.0043005235 0.010758241 -0.07887374 -0.1746191
-0.03819122 -0.11100508 -0.019464009 0.005808099 0.15633908 0.046217464 -0.05906455 0.07171089
0.5699444 -0.06521095 0.26717603 0.038582124 0.02865599 0.24120428 0.035295505 0.24860033
-0.1482327 0.16637072 0.09140524 -0.09223521 0.116459444 0.17187133 -0.094071865 0.023811167
-0.07411058 0.070690006 0.43464252 0.3733634 0.09037007 0.023840524 0.14472094 0.272459
0.04006675 0.09210886 -0.007336422 -0.13561179 0.009408044 0.039355528 -0.030272461 -0.14418226
-0.023799349 -0.02021346 -0.1957088 -0.1279491 -0.27687255 0.034270648 -0.12563634 -0.03668097
0.07567353 0.039310172 0.010010718 0.15341625 0.19178931 -0.040432222 -0.11179708 -0.010066624
0.17435797 0.02155615 -0.15378867 -0.008888159 -0.012019743 0.09706677 0.22444978 0.015126532
-0.018582674 0.06548158 0.06038312 0.06375829 0.016871382 0.012015424 0.05682475 0.24225171
-0.04061923 -0.300987 0.42615864 0.009406229 0.110201955 0.010128237 0.30400687 -0.10106934
0.12614194 -0.007926963 0.08541937 0.14204994 0.07150575 -0.005177529 -0.1437158 0.15231664
0.082909055 0.0171259 -0.27961516 0.19399264 0.1574573 -0.014889817 0.04051177 0.21558136
0.23937176 0.06914254 0.06002205 0.038367163 0.111670256 -0.026949447 -0.100831024 -0.048332196
-0.16905771 -0.0588407 0.02452766 -0.05510849 -0.12216301 -0.16545986 0.15216593 0.51474965
0.13020569 -0.014866333 -0.056209665 0.013478731 -0.00045538563 0.041106533 0.27011213 0.24252754
0.28154373 0.26664504 -0.11765612 0.015789742 -0.071290985 -0.29862612 -0.3457419 0.08583258
-0.059440248 -0.093074806 0.5767759 0.025209475 0.2300888 -0.08039566 -0.02445928 0.18514347
-0.104757234 0.044727657 0.28968742 0.09057177 0.0038854557 0.24682444 0.023106372 0.2431356
0.013081093 -0.0010909513 0.071650974 -0.038544413 0.006144661 0.24482553 0.042416576 0.0014397466
-0.02114839 -0.2186434 0.20908573 0.2961644 0.4182744 0.036596954 -0.017950585 0.09162576
0.11037926 -0.39019653 -0.0027514743 -0.07389404 0.014790294 -0.0022765377 -0.2859596 0.2725097
-0.17125177 -0.034057073 0.034320682 -0.10507359 0.07940947 0.25766245 -0.15303645 -0.088023975
0.005234956 -0.018769832 -0.045095954 -0.045924183 0.0043010283 -0.1147066 0.105536446 0.0060941037
0.17027259 0.03609239 0.0704342 0.023416933 0.043830518 0.06929148 0.10605694 0.054663457
0.09384113 0.086714186 -0.020158196 -0.11460313 0.019826239 -0.054868527 0.13166353 0.24083973
0.106853686 -0.160865 0.073332794 -0.07658533 -0.19536652 -0.002354511 0.2654751 -0.06329686

net.4.bias f4 [6]
00000000: baf2 553f 0f5e 133f 52a9 053f c7a9 003f
00000010: 57e6 d1be 5924 5dbf
0.83573496 0.575654 0.5221149 0.5025906 -0.40996048 -0.8638359
