results/double_dqn/seed_22/double_dqn_target.pt (torch, 233875 bytes, 7 tensors)

embed.weight f4 [500, 64]
0.39201468 0.073355116 -0.0044735535 -0.053509265 -0.058930263 0.60016304 2.0421422 1.3272601
-0.8702952 -1.5554589 -0.8620472 -0.12896909 1.4631724 0.26979968 -1.3582779 -0.75676817
-0.41022253 0.29394463 -0.0538323 -0.95471793 -1.3137968 0.43056983 -1.3356376 1.1685838
0.9661637 -1.7635684 -1.9802228 -0.005623335 0.8050081 0.79275626 -0.64976674 0.035202816
-1.1281183 0.8134486 0.2733707 -0.38326535 1.131899 -0.12402521 -0.6294048 -0.57488775
-0.8880798 0.7359334 0.61982405 0.3908288 1.0492446 0.35432848 0.02891932 -1.0003244
-0.68583685 2.0945442 0.7392829 -0.045545172 -1.7682035 -0.18426766 -1.3310297 0.5903666
0.86047345 0.80022275 1.0861241 -0.06262796 1.0136133 -0.7908504 -0.54822755 1.1483451
0.94479406 1.1573596 0.6014148 -0.5635093 2.417197 1.3654773 1.6933587 -0.016020073
0.5659553 -1.7122543 -1.0964395 -0.07157725 -0.30771512 0.05499833 0.09053772 -0.86708593
-0.5476731 0.055750564 -0.011168975 -0.22667119 -0.15931372 0.24111146 1.5064083 -0.35847571
-0.18535173 -1.1118468 0.9509581 0.78298557 0.18946186 -0.84272885 0.55933464 0.10753962
-0.3686922 -0.73766273 0.05500136 -1.0223991 -0.8405059 -0.16245855 -0.26688492 0.4964646
0.10115485 -1.0254883 0.17314224 -0.30312732 0.113152765 -0.4216948 0.4037956 -0.43744212
-1.6086513 0.35416022 1.930838 -0.93495935 -1.3795865 -0.03454992 0.9520402 -0.7793109
2.5407224 0.13017273 0.65212303 -1.3661603 1.4323858 -1.2248728 0.72030425 0.81620926
0.37568498 -0.6043048 -0.61211 0.26603627 -0.5179622 -0.72892225 1.0787965 -0.26850492
-1.3564479 -1.167683 -0.0683426 -2.081457 -0.5171231 0.49210605 -0.039915606 0.7608068
0.01974041 1.5876538 1.9037732 0.9272929 0.04906067 -0.037358664 -0.031124037 0.82239205
0.14973848 1.12927 -0.045003556 0.40150043 0.57149196 -0.71637625 -0.37461278 0.5313002
0.23616874 -0.80356115 -0.39458573 -0.54213077 -0.39905834 -0.73067147 -1.4295676 -1.5549566
-0.23653321 0.25163594 -0.03754317 -0.8923988 -0.622219 0.05202095 -1.3620452 -0.44893622
-0.020935444 0.030690618 0.1517499 -0.10140929 0.2975386 0.7993173 0.81374615 1.067466
-0.39067185 0.88820815 -1.4569829 -0.1747227 -0.40588722 -1.068451 1.5312504 -1.3238628
0.44765112 2.1251037 1.1663558 -0.35439858 0.2306439 0.6810459 0.92970294 1.6308683
1.278574 1.061431 -0.7838374 -2.0453916 -1.379703 1.518916 -0.29197812 0.49194396
-0.27495727 -0.376328 -0.27489755 0.75400734 -1.7185028 -1.1701905 -0.55860347 -0.0025200834
0.8587395 0.5477403 0.9003714 -0.69202584 1.6116279 -1.2293202 0.03233305 0.592977
-0.05543458 -0.43359673 1.2770367 0.8771475 -0.18220504 -0.09837183 -0.22120024 0.50430197
0.35377756 -0.68581986 -0.40688717 -1.1574911 0.12721138 -1.183417 -0.49862555 -0.0080761
1.2867965 -0.2818137 1.3436928 0.2835852 -0.21881962 1.003052 1.2395337 -0.22765398
-0.17519894 0.91088116 -0.8706889 -3.0192773 -0.26939934 -1.1279435 -0.20048386 -0.23976792
00000000: 26b6 c83e 353b 963d e396 92bb 882c 5bbd
00000010: dc60 71bd 49a4 193f 75b2 0240 a9e3 a93f
00000020: abcb 5ebf 4719 c7bf 20af 5cbf 7910 04be
00000030: 3c49 bb3f 2f23 8a3e 0ddc adbf 8fbb 41bf
00000040: b008 d2be e97f 963e 427f 5cbd 6568 74bf
00000050: 7e2a a8bf a673 dc3e 2cf6 aabf 2794 953f
00000060: 8156 773f 9cbc e1bf f177 fdbf f443 b8bb
00000070: 0315 4e3f 13f2 4a3f 1d57 26bf d430 103d
00000080: 2e66 90bf 2b3e 503f 3ff7 8b3e 5b3b c4be
00000090: 11e2 903f ee00 febd ac20 21bf d82b 13bf
000000a0: 3359 63bf 2266 3c3f caac 1e3f b61a c83e
000000b0: a64d 863f 8b6a b53e 36e8 ec3c a10a 80bf
000000c0: 0193 2fbf 030d 0640 a541 3d3f 938d 3abd
000000d0: 7e54 e2bf a9b0 3cbe 2e5f aabf 4422 173f
000000e0: fd47 5c3f 66db 4c3f 1d06 8b3f 1743 80bd
000000f0: 15be 813f 2c75 4abf a458 0cbf f9fc 923f
00000100: 06de 713f 5c24 943f 52f6 193f 2542 10bf
00000110: 5bb3 1a40 f6c7 ae3f fabf d83f 873c 83bc
00000120: 72e2 103f 262b dbbf 2158 8cbf 1897 92bd
00000130: d68c 9dbe ee45 613d d76b b93d 58f9 5dbf
00000140: 4e34 0cbf b45a 643d 14fe 36bc 7e1c 68be
00000150: 2323 23be ece5 763e fdd1 c03f 218a b7be
00000160: d8cc 3dbe ff50 8ebf fd71 733f be71 483f
00000170: 4a02 423e 14bd 57bf 8e30 0f3f bb3d dc3d
00000180: 39c5 bcbe 77d7 3cbf 1b49 613d f9dd 82bf
00000190: 652b 57bf 895b 26be 24a5 88be 9c30 fe3e
000001a0: 462a cf3d 3343 83bf 334c 313e 8133 9bbe
000001b0: a3bc e73d 61e8 d7be 4cbe ce3e 6af8 dfbe
000001c0: 49e8 cdbf 7d54 b53e b325 f73f 7f59 6fbf
000001d0: 4a96 b0bf 3884 0dbd e8b8 733f eb80 47bf
000001e0: 329b 2240 004c 053e 89f1 263f 57de aebf
000001f0: 6b58 b73f a2c8 9cbf dc65 383f 17f3 503f
00000200: c859 c03e b8b3 1abf 3eb3 1cbf e835 883e
00000210: 2c99 04bf a69a 3abf 0116 8a3f 7a79 89be
00000220: 16a0 adbf a376 95bf 34f7 8bbd 9736 05c0
00000230: 2e62 04bf 53f5 fb3e 8c7e 23bd 3cc4 423f
00000240: a4b6 a13c 3d38 cb3f d7ae f33f 1163 6d3f
00000250: d7f3 483d 6605 19bd d6f7 febc 4988 523f
00000260: 0b55 193e eb8b 903f a655 38bd 7791 cd3e
00000270: 4c4d 123f 6f64 37bf 3fcd bfbe 4a03 083f
00000280: 38d6 713e 2fb6 4dbf 2407 cabe 15c9 0abf
00000290: 6051 ccbe 490d 3bbf 12fc b6bf d108 c7bf
000002a0: c335 72be 6dd6 803e dec6 19bd 3f74 64bf
000002b0: bf49 1fbf eb13 553d 7f57 aebf f8da e5be
000002c0: cf80 abbc e46a fb3c 5364 1b3e adaf cfbd
000002d0: fb56 983e 0fa0 4c3f ab51 503f baa2 883f
000002e0: 2406 c8be 9c61 633f 6a7e babf 82ea 32be
000002f0: 73d0 cfbe 01c3 88bf 0300 c43f 5674 a9bf
00000300: 8732 e53e b301 0840 264b 953f bb73 b5be
00000310: ea2d 6c3e 0659 2e3f 0301 6e3f 4bc0 d03f
00000320: 50a8 a33f f9dc 873f 91a9 48bf b2e7 02c0
00000330: 1c9a b0bf d76b c23f 287e 95be 14e0 fb3e
00000340: 33c7 8cbe 10ae c0be 5fbf 8cbe a006 413f
00000350: e6f7 dbbf cdc8 95bf a300 0fbf fc27 25bb
00000360: 5ad6 5b3f b538 0c3f bd7e 663f 9b28 31bf
00000370: d349 ce3f 5d5a 9dbf a96f 043d 57cd 173f
00000380: 5f0f 63bd 6400 debe f075 a33f bd8c 603f
00000390: f593 3abe 2c77 c9bd 5182 62be ef19 013f
000003a0: 5522 b53e e491 2fbf 8453 d0be ab28 94bf
000003b0: b343 023e 357a 97bf d94b ffbe 9e51 04bc
000003c0: bfb5 a43f e349 90be 20fe ab3f 1432 913e
000003d0: 4012 60be 0264 803f 0aa9 9e3f 201e 69be
000003e0: 5a67 33be 822f 693f 78e5 5ebf d73b 41c0
000003f0: b6ee 89be 7460 90bf a44b 4dbe b985 75be

net.0.weight f4 [128, 64]
0.025006622 0.04215936 0.25547773 0.16083452 -0.14040686 -0.03502036 -0.085309185 -0.46843702
0.17562887 -0.019559175 -0.16272153 -0.12763974 0.17631383 -0.2156917 0.23617202 0.17908898
0.10578442 0.01178916 -0.050437316 -0.16510779 -0.0102066975 0.24516033 -0.015172011 -0.11299884
0.27989364 -0.26867583 0.028667891 -0.18445803 0.32088238 0.22051458 -0.108698554 -0.07095399
0.41708836 0.076772325 -0.043054845 0.29007027 -0.18325832 -0.029125208 -0.2668619 0.122637354
-0.32177043 0.04329459 -0.15462762 -0.067544736 -0.29584262 -0.41837505 -0.017253917 -0.1577078
0.29889235 0.14256266 -0.10442901 0.059180394 -0.043961294 -0.20320301 -0.19430222 -0.14892712
0.026330201 -0.20065272 0.07105386 -0.17650491 -0.029922558 0.27131552 -0.2170639 0.06306536
0.041519374 0.040598366 0.42649108 -0.03325436 0.04335518 -0.10966838 0.2854138 -0.06330744
0.15890582 0.11836508 0.60539496 0.14894885 -0.043800075 -0.23676796 -0.2017646 -0.22645742
-0.4215934 -0.043631118 0.21974096 0.04070505 -0.17943342 0.095328726 -0.37376875 0.37211624
0.53291196 -0.32497868 -0.32413608 0.39803186 0.029000191 -0.14154279 0.08747678 -0.11751642
0.3983437 0.18129586 0.1493681 -0.7083609 -0.41454524 -0.07312823 -0.067318104 -0.44606853
0.3338772 0.47968322 0.13289401 -0.21939838 -0.17977598 0.4400052 0.057714704 0.11351636
-0.18181336 0.23068154 -0.041318946 -0.3238557 0.020673173 0.06765353 0.051716592 0.45066017
0.40388975 0.10434944 -0.13716915 -0.15527704 0.21801515 -0.14600515 0.4645615 -0.12300596
0.4162954 0.20531264 0.2111007 0.22527137 0.020546224 0.17518999 -0.059946373 -0.27721834
0.30892065 -0.053699188 0.21346681 -0.057237685 -0.08156051 -0.5972288 0.08142128 0.18944384
0.51530933 -0.21456002 0.24133301 -0.13529955 0.1143278 -0.4904726 -0.14771807 -0.06750327
0.28002173 -0.029901229 -0.24548025 -0.00067414204 -0.24065167 -0.05118964 0.051614024 -0.001148726
0.32333922 0.2020524 0.16402444 0.117931135 0.31684363 -0.033526156 -0.13938046 0.13190416
-0.45351562 0.35303283 -0.14304768 -0.080299236 -0.03437621 0.13506468 0.13880177 -0.21784693
0.41785604 0.040304657 -0.054562178 -0.031876516 0.23437244 -0.10463357 -0.1461625 -0.04166525
-0.21345766 -0.16192126 -0.2540489 0.2568015 -0.08029433 -0.32194468 0.0035504415 0.4614629
0.17514673 -0.13929585 0.1692243 0.3026871 0.005202968 -0.13265225 -0.39120975 -0.12370777
0.16931935 -0.27321553 -0.26636723 -0.27045476 -0.3548159 0.32004812 0.3503012 0.010485531
0.1359044 -0.23436563 0.040193163 -0.14733171 -0.20093517 -0.7339037 -0.31213576 -0.31035843
-0.52491057 -0.024232244 0.41585776 -0.32207274 -0.030361844 -0.027765146 0.25150743 0.42778423
0.14495425 0.22183408 -0.31348723 0.13869601 0.057207476 0.19268182 -0.17561933 0.4114702
-0.1426536 -0.07966597 -0.34517595 -0.51217073 -0.07717383 -0.33258888 0.115109146 0.17764048
0.05728078 -0.49990487 -0.1680492 -0.10767329 0.422283 -0.2891776 0.4735717 0.054077193
-0.19114012 -0.2491863 -0.020025441 0.31571296 0.48685378 0.1945525 0.049185835 0.53005534
00000000: b0da cc3c 4baf 2c3d facd 823e ceb1 243e
00000010: d1c6 0fbe 8271 0fbd 95b6 aebd fad6 efbe
00000020: 0ed8 333e 903a a0bc 79a0 26be feb3 02be
00000030: 9d8b 343e 49de 5cbe 14d7 713e 1a63 373e
00000040: 81a5 d83d 5227 413c 5c97 4ebd 0412 29be
00000050: fe39 27bc 4f0b 7b3e 0794 78bc f06b e7bd
00000060: 384e 8f3e e18f 89be edd8 ea3c 91e2 3cbe
00000070: b24a a43e 93ce 613e 599d debd 5350 91bd
00000080: 9b8c d53e cf3a 9d3d 475a 30bd 1784 943e
00000090: 12a8 3bbe fd97 eebc 1fa2 88be 4b29 fb3d
000000a0: 18bf a4be ab55 313d b456 1ebe e554 8abd
000000b0: af78 97be 4135 d6be 1658 8dbc 277e 21be
000000c0: 6b08 993e f2fb 113e e0de d5bd 2467 723d
000000d0: c210 34bd 7314 50be 29f7 46be 5a80 18be
000000e0: 6fb2 d73c e877 4dbe b084 913d b4bd 34be
000000f0: 2720 f5bc dee9 8a3e 0046 5ebe 6928 813d
00000100: 3810 2a3d 794a 263d 0a5d da3e b935 08bd
00000110: 3495 313d d199 e0bd c221 923e 55a7 81bd
00000120: 35b8 223e 6469 f23d 2afb 1a3f 0c86 183e
00000130: b567 33bd 4d73 72be 619b 4ebe 74e4 67be
00000140: 17db d7be 8bb6 32bd c603 613e 57ba 263d
00000150: 65bd 37be b53b c33d 9e5e bfbe 0586 be3e
00000160: eb6c 083f 9b63 a6be 2af5 a5be d5ca cb3e
00000170: cf91 ed3c 98f0 10be 0727 b33d 73ac f0bd
00000180: b5f3 cb3e 9fa5 393e f4f3 183e 2457 35bf
00000190: 463f d4be 41c4 95bd 13de 89bd 1863 e4be
000001a0: f4f1 aa3e 0a99 f53e 5e15 083e f8a9 60be
000001b0: 3217 38be 5d48 e13e 4166 6c3d 447b e83d
000001c0: 482d 3abe c837 6c3e 0e3e 29bd 6ad0 a5be
000001d0: c95a a93c ef8d 8a3d c7d4 533d eebc e63e
000001e0: a3ca ce3e 29b5 d53d 1276 0cbe f200 1fbe
000001f0: 5d3f 5f3e 6082 15be 01db ed3e 8cea fbbd
00000200: ac24 d53e 7a3d 523e c82a 583e 8aad 663e
00000210: 8e50 a83c 0165 333e 548a 75bd 90ef 8dbe
00000220: d92a 9e3e aef3 5bbd 0b97 5a3e 1072 6abd
00000230: 3209 a7bd fde3 18bf 33c0 a63d 91fd 413e
00000240: 50eb 033f 9fb5 5bbe 0020 773e f78b 0abe
00000250: b224 ea3d 3a1f fbbe 6843 17be 283f 8abd
00000260: 025f 8f3e 6cf3 f4bc 2d5f 7bbe e8b8 30ba
00000270: 646d 76be 3aac 51bd 3a69 533d d990 96ba
00000280: b88c a53e d3e6 4e3e 06f6 273e e185 f13d
00000290: 5439 a23e b952 09bd c0b9 0ebe e211 073e
000002a0: 3333 e8be b8c0 b43e 177b 12be ed73 a4bd
000002b0: 12ce 0cbd 654e 0a3e 0d22 0e3e 4413 5fbe
000002c0: 3af1 d53e 7f16 253d 977c 5fbd f390 02bd
000002d0: 54ff 6f3e 204a d6bd 9fab 15be 2ea9 2abd
000002e0: a594 5abe b0ce 25be b312 82be 7c7b 833e
000002f0: 5b71 a4bd efd5 a4be 86ae 683b dd44 ec3e
00000300: aa59 333e 92a3 0ebe 2349 2d3e cef9 9a3e
00000310: a97d aa3b fed5 07be a54c c8be 805a fdbd
00000320: 0d62 2d3e e8e2 8bbe 4961 88be 0c79 8abe
00000330: 6eaa b5be 59dd a33e ae5a b33e 81cb 2b3c
00000340: 862a 0b3e 8bfd 6fbe 96a1 243d 20de 16be
00000350: f3c1 4dbe 1de1 3bbf 42d0 9fbe 4de7 9ebe
00000360: 8a60 06bf b382 c6bc 4feb d43e b8e6 a4be
00000370: 67b9 f8bc bb73 e3bc 95c5 803e 8906 db3e
00000380: e36e 143e 7928 633e 6681 a0be 5406 0e3e
00000390: 6352 6a3d 624e 453e 8ed5 33be 39ac d23e
000003a0: c913 12be e927 a3bd e7ba b0be 9f1d 03bf
000003b0: 500d 9ebd 1749 aabe 58be eb3d 63e7 353e
000003c0: 409f 6a3d 88f3 ffbe 1715 2cbe d083 dcbd
000003d0: 7a35 d83e 160f 94be fd77 f23e 0c80 5d3d
000003e0: 3cba 43be b22a 7fbe 650c a4bc 21a5 a13e
000003f0: e644 f93e c538 473e 1677 493d b5b1 073f

net.0.bias f4 [128]
-0.30306867 -0.2777962 -0.41281122 -0.13797875 -0.5176511 -0.28417632 -0.34554636 -0.28819034
0.10131445 -0.52115005 0.23450968 -0.19833124 0.012739669 0.059360117 -0.1832243 -0.5595626
-0.45435262 -0.40178442 0.2086671 -0.057513807 -0.27706993 -0.07250986 -0.20271622 -0.14701031
-0.21004358 -0.36839685 -0.07379557 -0.059555303 -0.07251943 -0.4320485 0.11650294 0.03332448
-0.008369685 -0.4566843 -0.30348828 -0.039332934 -0.41654286 -0.22362463 -0.547699 -0.1089398
-0.103704646 -0.28226906 -0.17647058 -0.44415036 -0.7267272 -0.47297665 -0.65470874 -0.013943536
-0.3364047 -0.4851301 -0.5886723 -0.32085794 -0.09910812 -0.018604916 -0.23546538 -0.11055862
-0.2086225 0.19210081 -0.32113078 -0.045797016 -0.13134281 -0.04996889 -0.03506665 -0.4199003
-0.6104725 0.013047147 -0.28504914 0.026909651 -0.74516046 -0.51432055 -0.42333862 -0.33607703
-0.18545151 -0.48480797 -0.24309848 -0.66116667 0.11302839 -0.15054962 -0.44981894 -0.47082925
-0.317 0.0017433097 -0.11491142 -0.31754124 -0.047342807 -0.09098869 -0.034914136 -0.42717054
0.1621617 -0.016314534 -0.38003963 -0.26003692 -0.18768816 -0.2980266 -0.21567467 -0.08516566
-0.09274319 -0.5709989 -0.2534179 -0.10282946 -0.23566958 -0.88558435 0.0067544845 -0.70820755
-0.25044313 0.0001498567 -0.3966997 -0.50319624 -0.22991303 -0.28119463 -0.47832105 -0.4506225
-0.4460446 -0.06469977 -0.089414 -0.19773903 0.13104434 -0.14091353 -0.45814154 -0.3707785
-0.26491815 -0.47383898 -0.33351856 -0.41632926 0.038687125 -0.36058038 -0.7146224 -0.0062816935
00000000: d12b 9bbe 4e3b 8ebe fe5b d3be 4d4a 0dbe
00000010: c884 04bf 8f7f 91be 74eb b0be af8d 93be
00000020: f37d cf3d 176a 05bf 4e23 703e 5817 4bbe
00000030: 0bba 503c 9823 733d 279f 3bbe 7f3f 0fbf
00000040: e8a0 e8be b0b6 cdbe d4ac 553e 9993 6bbd
00000050: 1cdc 8dbe 0d80 94bd d794 4fbe df89 16be
00000060: aa15 57be 839e bcbe 2222 97bd 43f0 73bd
00000070: 1185 94bd 7635 ddbe 1899 ee3d 407f 083d
00000080: 0121 09bc 86d2 e9be d162 9bbe 921b 21bd
00000090: 1b45 d5be dbfd 64be 0036 0cbf d41b dfbd
000000a0: 1a63 d4bd 9285 90be b4b4 34be ad67 e3be
000000b0: cb0a 3abf ff29 f2be fe9a 27bf 6e73 64bc
000000c0: 3d3d acbe f962 f8be 3ab3 16bf 7e47 a4be
000000d0: 33f9 cabd 5669 98bc d61d 71be 8f6c e2bd
000000e0: 23a1 55be 13b6 443e 416b a4be a795 3bbd
000000f0: bb7e 06be 2eac 4cbd 0ca2 0fbd 2cfd d6be
00000100: ed47 1cbf b3c3 553c f6f1 91be a171 dc3c
00000110: d6c2 3ebf 83aa 03bf d7bf d8be 4a12 acbe
00000120: 00e7 3dbe c038 f8be cfee 78be 3842 29bf
00000130: 6e7b e73d ae29 1abe ab4e e6be 8810 f1be
00000140: d34d a2be c47f e43a ae56 ebbd c494 a2be
00000150: 88ea 41bd 4758 babd 2002 0fbd 19b6 dabe
00000160: b70d 263e 0fa6 85bc 8e94 c2be 8f23 85be
00000170: 5331 40be f196 98be d2d9 5cbe 556b aebd
00000180: 24f0 bdbd fc2c 12bf febf 81be 4098 d2bd
00000190: 5e53 71be a8b5 62bf b954 dd3b 174d 35bf
000001a0: 153a 80be da22 1d39 391c cbbe 78d1 00bf
000001b0: 526e 6bbe bef8 8fbe 7fe6 f4be feb7 e6be
000001c0: f55f e4be 5081 84bd b01e b7bd 1a7c 4abe
000001d0: 7d30 063e a34b 10be 8791 eabe aed6 bdbe
000001e0: 5aa3 87be 069b f2be f2c2 aabe 1c29 d5be
000001f0: 6476 1e3d fe9d b8be 7ef1 36bf aad6 cdbb

net.2.weight f4 [128, 128]
-0.026978394 -0.63698035 0.02742902 -0.5384117 -0.1054709 -0.39578277 0.009744336 -0.05091922
-0.08891409 -0.14413044 -0.3912561 -0.11422841 -0.012155786 -0.23136385 -0.26981008 -0.07302068
-0.23726824 0.054233372 0.025952943 -0.048111483 -0.26769453 0.10431793 -0.2566607 -0.037087515
-0.18512572 -0.10935405 -0.12512293 -0.41466072 -0.27994144 -0.5858574 0.2285612 -0.35177577
-0.42558843 0.20976515 0.14948933 -0.14706615 -0.28099978 -0.33320647 0.11457599 -0.20459232
0.09866369 -0.111722425 -0.30164257 -0.42090237 -0.19407701 -0.23770253 -0.21260656 -0.47128835
-0.17936103 -0.028033355 -0.30996034 -0.17495829 -0.73934597 -0.17062888 0.08553626 0.019108407
0.054220103 -0.30605188 -0.13641655 -0.40140074 0.05887386 0.040130857 -0.13979727 0.11590367
-0.08759742 -0.32350057 0.02917789 0.044737164 -0.0050406912 -0.2282844 -0.32969886 -0.3794106
-0.12474337 0.10087327 -0.05295272 -0.088722385 -0.2660543 -0.49460828 0.25238445 -0.0036264453
-0.05651869 -0.17282055 0.029633662 -0.44593492 -0.26005203 0.098313145 0.15749767 -0.2018771
-0.57918406 -0.2508725 -1.0426906 -0.076351315 -0.2043501 0.03392446 -0.05260134 0.03202702
-0.016046796 0.07136099 0.17870124 -0.30248183 -0.039972104 -0.13721755 -0.17998706 -0.12164896
-0.033884335 -0.011311498 -0.2055627 -0.012909653 -0.13198765 -0.14498894 -0.27382937 -0.48680267
-0.107057326 -0.1664227 -0.16204113 -0.035445843 -0.15086693 -0.41894314 -0.085851096 -0.03177547
-0.17587112 -0.20769398 -0.009301064 -0.33422577 -0.09693177 -0.3709326 -0.0062527554 -0.08394747
-0.18937637 -0.026151443 -0.19115007 -0.057265736 0.07400306 -0.09513594 -0.0027908045 -0.10071285
-0.030485082 -0.15019737 -0.004449497 -0.047068972 -0.04128731 -0.05248997 0.022594322 -0.115935035
0.025851082 -0.1688317 -0.16741733 -0.025289267 0.020785406 -0.08214458 -0.10024439 -0.15146823
-0.18020387 -0.06187336 -0.14690974 -0.14461267 0.012235023 -0.029659605 0.05044695 -0.033657808
-0.16301785 -0.011316154 -0.063029505 -0.06462721 -0.14012194 -0.030791972 -0.1891869 -0.1856101
-0.0055689444 -0.014974689 0.013237298 -0.04027983 -0.21014169 0.04155239 0.008054416 -0.099190935
-0.13110696 -0.10993554 0.045405533 -0.16613111 -0.13713728 -0.1998368 -0.14704405 -0.09269418
-0.051708743 -0.019848181 -0.016374892 -0.05659867 -0.0033752923 -0.0917654 -0.0354446 0.022502178
-0.12672909 -0.05018235 -0.251882 -0.0683983 0.04722088 -0.24194804 -0.04143433 0.11164447
-0.08991626 -0.10131166 -0.09724734 -0.052211985 -0.11527597 0.030213326 -0.031992707 -0.035678297
0.014244718 0.054966234 -0.055543736 -0.068148896 -0.019613827 -0.0995869 -0.082994014 -0.08426938
-0.13570806 -0.07012417 -0.03253591 -0.056540877 -0.11915386 0.025652321 -0.18444398 0.0005149758
-0.1416657 -0.044231754 -0.009381376 -0.09711459 -0.127095 -0.15132868 -0.012636733 -0.09998759
-0.08014873 -0.08842262 0.04459075 -0.008695237 -0.014979675 0.116672836 0.05375897 0.012571214
-0.015976906 -0.07168763 -0.009492766 -0.20724823 -0.09982594 -0.077372015 -0.004874664 -0.06676625
-0.102847874 -0.177146 -0.10606256 -0.13065423 -0.12156777 -0.07085276 -0.0051063383 -0.06527495
00000000: cb01 ddbc 2511 23bf d3b2 e03c 59d5 09bf
00000010: 2101 d8bd 0aa4 cabe b5a6 1f3c ac90 50bd
00000020: 9718 b6bd ee96 13be b852 c8be 96f0 e9bd
00000030: 1029 47bc a5ea 6cbe 8c24 8abe de8b 95bd
00000040: 72f6 72be d023 5e3d 449b d43c 8c10 45bd
00000050: 420f 89be a4a4 d53d 0869 83be 14e9 17bd
00000060: 9991 3dbe 04f5 dfbd 3a20 00be 694e d4be
00000070: 7c54 8fbe c0fa 15bf f20b 6a3e f41b b4be
00000080: bae6 d9be adcc 563e bb13 193e 8298 16be
00000090: 34df 8fbe 0a9a aabe d1a6 ea3d a680 51be
000000a0: 3010 ca3d bace e4bd e570 9abe 8480 d7be
000000b0: 20bc 46be 4b68 73be 89b5 59be b54c f1be
000000c0: 6baa 37be 35a6 e5bc 1fb3 9ebe 4428 33be
000000d0: c745 3dbf 56b9 2ebe a22d af3d 3c89 9c3c
000000e0: e615 5e3d d5b2 9cbe c8b0 0bbe 6684 cdbe
000000f0: b725 713d 4160 243d 0427 0fbe e75e ed3d
00000100: 4766 b3bd dea1 a5be 7806 ef3c 513e 373d
00000110: 622c a5bb 63c3 69be 4ace a8be 1b42 c2be
00000120: 7479 ffbd a596 ce3d f4e4 58bd 15b4 b5bd
00000130: 4538 88be 4c3d fdbe 8938 813e a8a9 6dbb
00000140: 2480 67bd dff7 30be 4bc2 f23c 9551 e4be
00000150: 8a25 85be 6758 c93d 1247 213e dfb8 4ebe
00000160: 6845 14bf 5c72 80be e376 85bf 145e 9cbd
00000170: 2741 51be 60f4 0a3d 8174 57bd c42e 033d
00000180: 9274 83bc b625 923d 75fd 363e e6de 9abe
00000190: cab9 23bd c282 0cbe 874e 38be 1723 f9bd
000001a0: 4dca 0abd dc53 39bc 077f 52be 0283 53bc
000001b0: c527 07be fb77 14be 5d33 8cbe 333e f9be
000001c0: df40 dbbd b66a 2abe 1cee 25be a92f 11bd
000001d0: dc7c 1abe b77f d6be b3d2 afbd ff26 02bd
000001e0: 8f17 34be bbad 54be 7d63 18bc a41f abbe
000001f0: 2a84 c6bd e1ea bdbe eae3 ccbb a7ec abbd
00000200: e1eb 41be 8d3b d6bc d8bc 43be 7a8f 6abd
00000210: eb8e 973d a2d6 c2bd eee5 36bb 8a42 cebd
00000220: dabb f9bc 57cd 19be 16cd 91bb 65cb 40bd
00000230: e21c 29bd b9ff 56bd ba17 b93c 596f edbd
00000240: a6c5 d33c 38e2 2cbe 736f 2bbe 702b cfbc
00000250: 2846 aa3c 6b3b a8bd ee4c cdbd 7d1a 1bbe
00000260: 5d87 38be ec6e 7dbd 826f 16be 5815 14be
00000270: 6875 483c b3f8 f2bc 76a1 4e3d c5dc 09bd
00000280: 27ee 26be 6467 39bc 9d15 81bd 455b 84bd
00000290: 207c 0fbe 723f fcbc 36ba 41be 9310 3ebe
000002a0: b17b b6bb 6658 75bc 40e1 583c 77fc 24bd
000002b0: 622f 57be d732 2a3d abf6 033c 9e24 cbbd
000002c0: e740 06be e225 e1bd 27fb 393d 461e 2abe
000002d0: b76d 0cbe 05a2 4cbe b792 16be 72d6 bdbd
000002e0: 8ccc 53bd a798 a2bc a324 86bc 02d4 67bd
000002f0: 0234 5dbb 7fef bbbd 5b2e 11bd 7d56 b83c
00000300: 45c5 01be 028c 4dbd adf6 80be 6814 8cbd
00000310: ae6a 413d 3ac1 77be 0bb7 29bd dba5 e43d
00000320: 0426 b8bd 7d7c cfbd 9d29 c7bd 3cdc 55bd
00000330: cf15 ecbd f081 f73c c90a 03bd 6823 12bd
00000340: ad62 693c 4624 613d d481 63bd a691 8bbd
00000350: 2dad a0bc 37f4 cbbd c4f8 a9bd 6d95 acbd
00000360: 0ef7 0abe 439d 8fbd 6044 05bd 6897 67bd
00000370: f006 f4bd d124 d23c e2de 3cbe 71ff 063a
00000380: d010 11be 5b2c 35bd 58b4 19bc 04e4 c6bd
00000390: 3125 02be e8f5 1abe 4d0a 4fbc 4bc6 ccbd
000003a0: 0425 a4bd eb16 b5bd caa4 363d 7876 0ebc
000003b0: 506d 75bc 2bf2 ee3d 5e32 5c3d 7ef7 4d3c
000003c0: 00e2 82bc f7d0 92bd 8c87 1bbc e138 54be
000003d0: 8b71 ccbd 3875 9ebd a5bb 9fbb bebc 88bd
000003e0: e8a1 d2bd c365 35be 5437 d9bd 39ca 05be
000003f0: 86f8 f8bd 401b 91bd 1253 a7bb dfae 85bd

net.2.bias f4 [128]
0.13496958 0.029944187 -0.054744966 0.17860553 -0.19031745 -0.10697375 -0.10709433 0.2049769
-0.0531849 0.018596217 0.3238651 0.8766333 -0.11150824 0.6889517 -0.17386495 0.21080105
0.24337676 -0.047168687 0.03572128 -0.05728191 0.04681229 0.03412423 0.04370375 0.034332763
0.30940843 -0.15435283 -0.05023593 0.005834117 -0.1690017 -0.24739021 -0.03215204 0.00048785273
0.16163544 -0.09474431 -0.06824714 -0.31808972 0.0060348 0.29950964 0.15886845 0.2121168
-0.18900578 -0.09564561 0.11107203 -0.016504565 0.8759117 -0.120527156 -0.0399042 0.730275
0.21479285 -0.07446595 0.3493879 0.18991713 0.28816748 -0.13670294 0.24095616 -0.12084168
0.944389 -0.012342236 0.052518036 -0.011428643 -0.1494843 -0.15460946 -0.23990415 0.11969262
-0.09831753 0.19575252 0.13947152 0.32158992 -0.068350635 0.0627787 -0.058578454 -0.016663456
0.20301262 0.020444393 0.20846096 -0.017525252 0.5258552 -0.25622547 -0.20721628 0.2531426
-0.08969695 -0.043715887 0.37131044 0.4586773 -0.32127994 -0.15441202 0.074946895 -0.04263965
-0.07492468 -0.07271433 -0.10451227 -0.0756288 0.0037874226 -0.0375023 -0.19612326 0.3216938
-0.10272958 -0.04961451 0.72404325 0.03824861 0.44106007 -0.037413042 0.01439871 0.3995364
-0.020284247 0.12479747 -0.14831749 0.020301353 -0.021606361 -0.07971391 -0.34403163 -0.1099467
-0.2853141 0.5066361 -0.015484076 0.38417634 0.7525443 -0.08214033 -0.042750042 -0.006986522
-0.0065205013 -0.100161314 0.21503833 0.0985168 -0.12108043 -0.077433 -0.1661408 0.30735913
00000000: 7735 0a3e 834d f53c 423c 60bd 5ee4 363e
00000010: 94e2 42be 0e15 dbbd 4654 dbbd 77e5 513e
00000020: 69d8 59bd 1857 983c a5d1 a53e 0a6b 603f
00000030: 6f5e e4bd 235f 303f a709 32be 3bdc 573e
00000040: c237 793e f433 41bd 7a50 123d 70a0 6abd
00000050: 3ebe 3f3d d9c5 0b3d b402 333d 83a0 0c3d
00000060: c86a 9e3e ab0e 1ebe 31c4 4dbd 1f2c bf3b
00000070: c80e 2dbe dc53 7dbe dcb1 03bd 7cc6 ff39
00000080: c383 253e 4e09 c2bd 28c5 8bbd a8dc a2be
00000090: 92bf c53b 5459 993e 69ae 223e 2535 593e
000000a0: bb8a 41be d8e1 c3bd bc79 e33d 9534 87bc
000000b0: c03b 603f f1d6 f6bd 9672 23bd 4df3 3a3f
000000c0: a8f2 5b3e 9b81 98bd f9e2 b23e a379 423e
000000d0: b08a 933e dbfb 0bbe 36bd 763e d87b f7bd
000000e0: 7ac3 713f 1737 4abc 271d 573d 343f 3bbc
000000f0: 6a12 19be f151 1ebe 6fa9 75be 6821 f53d
00000100: b35a c9bd 5973 483e 9fd1 0e3e 6fa7 a43e
00000110: 6bfb 8bbd 1e92 803d f6ef 6fbd cd81 88bc
00000120: 8ae2 4f3e 007b a73c ca76 553e 1e91 8fbc
00000130: 729e 063f fc2f 83be 8130 54be e89b 813e
00000140: 09b3 b7bd 6e0f 33bd 671c be3e c0d7 ea3e
00000150: ce7e a4be 2f1e 1ebe c27d 993d eaa6 2ebd
00000160: 1c72 99bd 40eb 94bd 870a d6bd 46e3 9abd
00000170: 6836 783b 039c 19bd 89d4 48be 0db5 a43e
00000180: e363 d2bd 9638 4bbd e65a 393f 93aa 1c3d
00000190: a0d2 e13e 6b3e 19bd 91e8 6b3c 0990 cc3e
000001a0: 262b a6bc d195 ff3d 8ae0 17be 064f a63c
000001b0: d3ff b0bc 0c41 a3bd ea24 b0be bc2b e1bd
000001c0: b114 92be e7b2 013f ecb0 7dbc c3b2 c43e
000001d0: bea6 403f 3039 a8bd ab1a 2fbd 32ef e4bb
000001e0: eea9 d5bb 6021 cdbd 0233 5c3e 2dc3 c93d
000001f0: 04f9 f7bd 3195 9ebd d020 2abe 2d5e 9d3e

net.4.weight f4 [6, 128]
-0.010404791 0.0794815 -0.06597199 0.11669677 -0.031680442 -0.045777448 0.0041898945 -0.0088763805
0.04965135 -0.07398935 0.0022135621 0.22493313 0.041700087 -0.07180413 0.18655963 0.067703485
0.0064974404 0.093544215 0.038119864 0.004492598 -0.35972628 -0.011776617 0.06061675 -0.045791466
-0.008299406 0.021640137 -0.036641557 -0.2390244 0.03786471 0.1222805 -0.073536485 0.17998339
0.16415726 0.11102051 -0.0010386028 -0.1679975 0.0097476505 -0.04199988 0.038487576 0.073798716
0.12442161 0.050698128 -0.010486415 -0.037128888 -0.0075136176 -0.007647755 -0.04257464 0.03152566
-0.0502924 -0.18167184 0.12739019 0.017127171 -0.06567305 0.120933294 0.031708572 0.01770953
-0.14756152 -0.12034359 0.06629099 -0.16910253 -0.22254346 -0.054863498 0.07150986 -0.09574444
-0.22364147 0.16203016 0.053251203 0.01219996 0.05941156 0.12210816 0.0563893 0.1635112
0.03701247 -0.04875737 0.06658497 0.1912315 0.15588216 -0.05194528 -0.065434374 0.01143105
0.047587946 0.011314482 0.068140216 0.16588408 0.010698004 -0.24615061 0.075680636 0.052088864
0.012704813 -0.07548118 -0.028653545 0.0666575 0.1411871 0.35305905 0.07658827 0.07546389
0.06556614 -0.14700554 0.1818193 -0.033405144 0.17861925 0.13734862 0.19040166 0.073111296
-0.051526994 0.13900957 -0.10068771 0.21412772 0.19038898 0.31162477 0.064134926 -0.19285901
-0.11610282 0.10205877 -0.09590038 -0.00026922554 0.100689985 -0.06990647 0.027753519 -0.068206295
0.026980514 0.033030063 0.14220336 0.38181484 0.036857467 0.027018894 0.15603465 -0.061043374
0.0048969095 -0.028225696 0.016568007 0.119801775 -0.00022459675 0.020448746 0.09326362 0.0007181356
0.030610627 0.082581565 0.11637503 0.3093159 -0.021379258 -0.04749891 -0.09086452 -0.06617711
0.2439795 -0.056425348 -0.13653354 -0.021990845 0.09161999 -0.004671151 0.06143595 0.1424481
0.0636348 -0.011275049 0.06418413 -0.1604941 0.24159788 -0.043858495 0.124772 0.124464065
0.01514335 -0.05831909 0.23108785 0.09275395 -0.049676873 0.13377906 0.104445726 0.11061051
0.16151872 -0.081794344 -0.11488791 -0.0056701787 0.028782379 0.043988965 0.005345919 -0.16102073
0.09005825 -0.18078806 0.10706285 0.026226398 -0.12188577 0.017770812 -0.19429697 -0.038788352
0.035321616 0.10579934 0.03471642 0.039020985 0.19966573 -0.19807325 -0.10678811 -0.01761443
0.36119223 -0.019903269 0.0003217452 0.04722373 0.05543402 -0.15546426 0.048621148 -0.11884394
0.002470611 0.08112023 0.10670073 -0.016747931 0.16481079 0.18317477 0.11836685 -0.063972205
-0.16782585 -0.059946686 -0.1395691 0.16037096 0.31401664 -0.016572105 0.0766805 0.061248574
0.021590786 0.124073826 -0.03124256 -0.038331304 0.10527037 0.15839852 0.08962898 0.00013174447
-0.07296984 0.012664677 0.090799205 -0.13908467 0.04804416 0.04960298 0.0517789 0.109660335
0.107271165 0.3065071 -0.19750735 -0.1241144 -0.2368425 0.033237223 -0.1064334 0.26918
0.15536213 -0.04314522 0.20090738 -0.12420233 0.011114874 0.1598363 0.021535315 0.003688884
-0.10724399 -0.015498129 -0.06583893 0.057039108 0.12929973 -0.108707316 0.0021128803 0.08482085
00000000: db78 2abc 32c7 a23d 531c 87bd b7fe ee3d
00000010: 5ac3 01bd 2281 3bbd 624b 893b 3d6e 11bc
00000020: 375f 4b3d ba87 97bd 6911 113b df54 663e
00000030: b6cd 2a3d 0b0e 93bd 7d09 3f3e 20a8 8a3d
00000040: 7be8 d43b 1c94 bf3d 9323 1c3d a536 933b
00000050: 0b2e b8be b6f2 40bc 4549 783d d58f 3bbd
00000060: 3bfa 07bc a846 b13c 7515 16bd d0c2 74be
00000070: 0718 1b3d 336e fa3d 4c9a 96bd 914d 383e
00000080: d718 283e b95e e33d ba21 88ba 8907 2cbe
00000090: 9cb4 1f3c 1108 2cbd 26a5 1d3d c823 973d
000000a0: c2d0 fe3d d7a8 4f3d 36cf 2bbc 7614 18bd
000000b0: cb34 f6bb 059a fabb bf62 2ebd 0d21 013d
000000c0: 67ff 4dbd 2f08 3abe 9372 023e 484e 8c3c
000000d0: 987f 86bd e0ab f73d d9e0 013d 9413 913c
000000e0: 5e1a 17be b376 f6bd 92c3 873d 3729 2dbe
000000f0: 6fe2 63be 8cb8 60bd c373 923d a915 c4bd
00000100: 4502 65be 3ceb 253e ef1d 5a3d 57e2 473c
00000110: 8959 733d d813 fa3d 77f8 663d 7b6f 273e
00000120: 639a 173d cfb5 47bd b35d 883d 31d2 433e
00000130: 939f 1f3e 93c4 54bd 7502 86bd 4c49 3b3c
00000140: 94eb 423d 6160 393c 198d 8b3d 84dd 293e
00000150: ae46 2f3c e80e 7cbe 73fe 9a3d 225b 553d
00000160: d927 503c e095 9abd d7ba eabc ba83 883d
00000170: 5a93 103e 28c4 b43e 50da 9c3d d08c 9a3d
00000180: 8a47 863d 9f88 16be d72e 3a3e d5d3 08bd
00000190: f7e7 363e 1ea5 0c3e a7f8 423e 60bb 953d
000001a0: f80d 53bd 8658 0e3e 5c35 cebd 4c44 5b3e
000001b0: 54f5 423e 488d 9f3e 2c59 833d d57c 45be
000001c0: 51c7 edbd 3004 d13d 6b67 c4bd d726 8db9
000001d0: 8d36 ce3d 202b 8fbd 595b e33c beaf 8bbd
000001e0: 3d06 dd3c 884a 073d c29d 113e 3c7d c33e
000001f0: dbf7 163d ba56 dd3c 8cc7 1f3e 9e08 7abd
00000200: 4176 a03b 9339 e7bc a1b9 873c a25a f53d
00000210: bb81 6bb9 2184 a73c ff00 bf3d 4441 3c3a
00000220: 23c3 fa3c 8620 a93d 0856 ee3d a75e 9e3e
00000230: 8e23 afbc 388e 42bd 2d17 babd dd87 87bd
00000240: c3d5 793e 441e 67bd 73cf 0bbe 2526 b4bc
00000250: 43a3 bb3d 7410 99bb 43a4 7b3d eadd 113e
00000260: f652 823d fcba 38bc f872 833d 9158 24be
00000270: 6f65 773e f7a4 33bd 7688 ff3d 04e7 fe3d
00000280: d01b 783c 00e0 6ebd 4ba2 6c3e c8f5 bd3d
00000290: fa79 4bbd 61fd 083e a4e7 d53d c387 e23d
000002a0: 2a65 253e cb83 a7bd 5a4a ebbd e8cc b9bb
000002b0: 06c9 eb3c c62d 343d d22c af3b 9ee2 24be
000002c0: 7670 b83d 8120 39be c443 db3d bed8 d63c
000002d0: 3f9f f9bd 1894 913c c9f5 46be 89e0 1ebd
000002e0: 66ad 103d 53ad d83d ce32 0e3d 78d4 1f3d
000002f0: 2c75 4c3e b7d3 4abe bab3 dabd 234c 90bc
00000300: 30ee b83e 2e0c a3bc e9af a839 ab6d 413d
00000310: c80e 633d 0632 1fbe f826 473d 7464 f3bd
00000320: f9e9 213b 5d22 a63d ea85 da3d f532 89bc
00000330: 29c4 283e 2b92 3b3e 526a f23d dc03 83bd
00000340: 8ada 2bbe a88a 75bd 34eb 0ebe 4938 243e
00000350: cac6 a03e 39c2 87bc aa0a 9d3d c9df 7a3d
00000360: 29df b03c 6b1a fe3d 66f0 ffbc 4901 1dbd
00000370: fe97 d73d 3933 223e 668f b73d e324 0a39
00000380: 3671 95bd 817f 4f3c eff4 b93d 366c 0ebe
00000390: f4c9 443d 7f2c 4b3d 1d16 543d 9995 e03d
000003a0: fcb0 db3d 80ee 9c3e 5e3f 4abe b12f febd
000003b0: d786 72be c123 083d c1f9 d9bd f6d1 893e
000003c0: 4017 1f3e 0bb9 30bd aaba 4d3e cb5d febd
000003d0: 291b 363c 21ac 233e d46a b03c 34c1 713b
000003e0: bda2 dbbd ddeb 7dbc 90d6 86bd d7a1 693d
000003f0: 2667 043e f1a1 debd 4078 0a3b 8eb6 ad3d

net.4.bias f4 [6]
0.14686874 0.2530612 0.1952203 0.13688418 -1.1099688 -0.96720815
00000000: c264 163e 3d91 813e d5e7 473e 5e2b 0c3e
00000010: 7513 8ebf f49a 77bf
