results/double_dqn/seed_22/double_dqn.pt (torch, 233784 bytes, 7 tensors)

embed.weight f4 [500, 64]
0	0x3ec8b626	0.39201468
1	0x3d963b35	0.073355116
2	0xbb9296e3	-0.0044735535
3	0xbd5b2c88	-0.053509265
4	0xbd7160dc	-0.058930263
5	0x3f19a449	0.60016304
6	0x4002b275	2.0421422
7	0x3fa9e3a9	1.3272601
8	0xbf5ecbab	-0.8702952
9	0xbfc71947	-1.5554589
10	0xbf5caf20	-0.8620472
11	0xbe041079	-0.12896909
12	0x3fbb493c	1.4631724
13	0x3e8a232f	0.26979968
14	0xbfaddc0d	-1.3582779
15	0xbf41bb8f	-0.75676817
16	0xbed208b0	-0.41022253
17	0x3e967fe9	0.29394463
18	0xbd5c7f42	-0.0538323
19	0xbf746865	-0.95471793
20	0xbfa82a7e	-1.3137968
21	0x3edc73a6	0.43056983
22	0xbfaaf62c	-1.3356376
23	0x3f959427	1.1685838
24	0x3f775681	0.9661637
25	0xbfe1bc9c	-1.7635684
26	0xbffd77f1	-1.9802228
27	0xbbb843f4	-0.005623335
28	0x3f4e1503	0.8050081
29	0x3f4af213	0.79275626
30	0xbf26571d	-0.64976674
31	0x3d1030d4	0.035202816
32	0xbf90662e	-1.1281183
33	0x3f503e2b	0.8134486
34	0x3e8bf73f	0.2733707
35	0xbec43b5b	-0.38326535
36	0x3f90e211	1.131899
37	0xbdfe00ee	-0.12402521
38	0xbf2120ac	-0.6294048
39	0xbf132bd8	-0.57488775
40	0xbf635933	-0.8880798
41	0x3f3c6622	0.7359334
42	0x3f1eacca	0.61982405
43	0x3ec81ab6	0.3908288
44	0x3f864da6	1.0492446
45	0x3eb56a8b	0.35432848
46	0x3cece836	0.02891932
47	0xbf800aa1	-1.0003244
48	0xbf2f9301	-0.68583685
49	0x40060d03	2.0945442
50	0x3f3d41a5	0.7392829
51	0xbd3a8d93	-0.045545172
52	0xbfe2547e	-1.7682035
53	0xbe3cb0a9	-0.18426766
54	0xbfaa5f2e	-1.3310297
55	0x3f172244	0.5903666
56	0x3f5c47fd	0.86047345
57	0x3f4cdb66	0.80022275
58	0x3f8b061d	1.0861241
59	0xbd804317	-0.06262796
60	0x3f81be15	1.0136133
61	0xbf4a752c	-0.7908504
62	0xbf0c58a4	-0.54822755
63	0x3f92fcf9	1.1483451
64	0x3f7331c1	0.94997793
65	0x3f947d5b	1.1600755
66	0x3f18e4d9	0.59724194
67	0xbf10e138	-0.56593657
68	0x401afd74	2.4217196
69	0x3faed849	1.3659755
70	0x3fd93c9e	1.6971624
71	0xbc0d5daa	-0.008628288
72	0x3f113d71	0.5673438
73	0xbfdc06c0	-1.718956
74	0xbf8c3700	-1.0954285
75	0xbdb9146e	-0.090371
76	0xbe9c682e	-0.30548233
77	0x3d217f62	0.039428122
78	0x3dc57168	0.09640771
79	0xbf5efc53	-0.87103766
80	0xbf13d947	-0.57753414
81	0x3d5cbff9	0.053894017
82	0xbc4cb270	-0.012493715
83	0xbe671963	-0.22568278
84	0xbe229631	-0.15877606
85	0x3e73eae1	0.23820068
86	0x3fc1c9ab	1.5139669
87	0xbeb12f74	-0.34606516
88	0xbe3cee51	-0.18450285
89	0xbf8f40f2	-1.1191695
90	0x3f70b26a	0.9402224
91	0x3f4920d0	0.7856569
92	0x3e39f4b2	0.1815975
93	0xbf57f885	-0.84363586
94	0x3f0bbd15	0.5458539
95	0x3dc4a2b9	0.096013494
96	0xbebd344d	-0.36953965
97	0xbf3e02c7	-0.7422299
98	0x3d713770	0.05889076
99	0xbf83329a	-1.0249817
100	0xbf52ba43	-0.8231546
101	0xbe30eca0	-0.17277765
102	0xbe8c07d0	-0.2734971
103	0x3ef84d3e	0.4849643
104	0x3dcf982a	0.10136445
105	0xbf8226f5	-1.0168139
106	0x3e322bd6	0.17399535
107	0xbe9baa47	-0.3040335
108	0x3ddf6807	0.109085135
109	0xbedea4b7	-0.43485042
110	0x3eca3426	0.3949291
111	0xbedf2189	-0.43580273
112	0xbfce8299	-1.6133605
113	0x3eb8682c	0.36016977
114	0x3ff7f711	1.9372274
115	0xbf6c88fa	-0.9239651
116	0xbfb182dc	-1.386806
117	0xbd0812de	-0.03322112
118	0x3f764be8	0.96209574
119	0xbf4ae0ea	-0.7924944
120	0x4022b299	2.5421507
121	0x3e0a2f26	0.13494548
122	0x3f290ace	0.6603211
123	0xbfaf69d8	-1.3704176
124	0x3fb809e5	1.437802
125	0xbf9ba885	-1.2160803
126	0x3f368487	0.7129597
127	0x3f4f4b5b	0.8097436
128	0x3ebe0c52	0.37118775
129	0xbf1a95dd	-0.60384923
130	0xbf1ba1ab	-0.6079356
131	0x3e859890	0.26092958
132	0xbf04a2d5	-0.5181096
133	0xbf397de3	-0.7245771
134	0x3f896c81	1.0736238
135	0xbe8ac809	-0.2710574
136	0xbfad2847	-1.3527917
137	0xbf93e2a2	-1.1553538
138	0xbda671b0	-0.08127153
139	0xc004d3d6	-2.0754294
140	0xbf04c25e	-0.5185908
141	0x3efb1c79	0.4904516
142	0xbd1ec733	-0.03876419
143	0x3f41a85e	0.7564753
144	0x3c9c6d09	0.01909496
145	0x3fca5852	1.5808203
146	0x3ff2b382	1.8961031
147	0x3f6b637a	0.91948664
148	0x3d379cd5	0.0448273
149	0xbd0e8f55	-0.03480466
150	0xbca7811d	-0.020447308
151	0x3f5155df	0.81771654
152	0x3e1569d5	0.14591153
153	0x3f90729c	1.1284976
154	0xbd3717f6	-0.044700585
155	0x3ecadeec	0.396232
156	0x3f11646a	0.56793845
157	0xbf3624b9	-0.71149784
158	0xbebb6ae5	-0.36604992
159	0x3f09bd3e	0.53804386
160	0x3e651d53	0.22374468
161	0xbf4c40ab	-0.79786175
162	0xbec709e1	-0.38874725
163	0xbf09ebbe	-0.5387534
164	0xbec9e17c	-0.39429843
165	0xbf39d54b	-0.72591084
166	0xbfb62f98	-1.4233274
167	0xbfc67c4f	-1.5506686
168	0xbe7553a1	-0.23957683
169	0x3e7a9637	0.24471365
170	0xbd07f1f9	-0.033189747
171	0xbf63d248	-0.8899274
172	0xbf1f73f4	-0.62286305
173	0x3d5dd4df	0.054158088
174	0xbfadc9bd	-1.3577191
175	0xbee34e85	-0.44395843
176	0xbc5253da	-0.012837375
177	0x3cf0f440	0.029413342
178	0x3e24c3d6	0.1609033
179	0xbdca1a6e	-0.09868322
180	0x3e98942c	0.29800546
181	0x3f4ce096	0.8003019
182	0x3f4f2518	0.80915976
183	0x3f87e54e	1.0616853
184	0xbecfa1e7	-0.4055321
185	0x3f620200	0.882843
186	0xbfb9907c	-1.4497218
187	0xbe2f6429	-0.17128052
188	0xbecdd0e2	-0.40198427
189	0xbf89d49b	-1.0768007
190	0x3fc2a635	1.5206972
191	0xbfa8e2b7	-1.3194188
192	0x3ee5abcf	0.44857642
193	0x4007d8b1	2.1226008
194	0x3f9338ab	1.1501669
195	0xbeb700a2	-0.3574267
196	0x3e6c75e3	0.23091845
197	0x3f2dd8d3	0.6790897
198	0x3f6f6cbd	0.93525296
199	0x3fcdf2c8	1.6089716
200	0x3fa542b5	1.2910982
201	0x3f88e3c2	1.0694506
202	0xbf4464f0	-0.7671652
203	0xc0028e38	-2.0399303
204	0xbfb0f2c7	-1.382409
205	0x3fc30c58	1.5238142
206	0xbe9ed450	-0.31021357
207	0x3efc1330	0.4923339
208	0xbe8e5602	-0.27799994
209	0xbec57f52	-0.385737
210	0xbe8e6999	-0.2781494
211	0x3f435fdd	0.7631815
212	0xbfdca969	-1.72392
213	0xbf95183a	-1.1648018
214	0xbf121523	-0.570635
215	0xba269929	-0.000635522
216	0x3f5cbe75	0.86228114
217	0x3f0d9753	0.5530903
218	0x3f64a155	0.89308673
219	0xbf2cbd95	-0.6747678
220	0x3fce5da9	1.6122333
221	0xbf9cfe55	-1.2265116
222	0x3ca882ca	0.020570178
223	0x3f15a733	0.5845825
224	0xbd87025f	-0.06592249
225	0xbedf57ef	-0.43621776
226	0x3fa413ef	1.2818583
227	0x3f5f9e95	0.8735135
228	0xbe3485b2	-0.17629126
229	0xbdc970a8	-0.098359406
230	0xbe60e343	-0.21961693
231	0x3f0137dd	0.50475866
232	0x3eb920e7	0.36157915
233	0xbf308421	-0.6895161
234	0xbecd8908	-0.4014361
235	0xbf932b8f	-1.1497668
236	0x3df1667a	0.11787124
237	0xbf97579e	-1.1823614
238	0xbefcc412	-0.4936834
239	0xbc514161	-0.012771935
240	0x3fa1b51c	1.2633395
241	0xbe8bc140	-0.27295876
242	0x3fabdc43	1.3426594
243	0x3e8ebf7b	0.27880463
244	0xbe5fd9bb	-0.21860401
245	0x3f7f4058	0.99707556
246	0x3f9d7324	1.2300763
247	0xbe59b22c	-0.21259373
248	0xbe2d32f1	-0.16913964
249	0x3f693692	0.9109889
250	0xbf6187fc	-0.8809812
251	0xc0414058	-3.0195522
252	0xbe894747	-0.26812193
253	0xbf91b4ac	-1.1383262
254	0xbe475dd2	-0.19469383
255	0xbe77b8ac	-0.2419154

net.0.weight f4 [128, 64]
0	0x3cbf14f3	0.023325419
1	0x3d636d2e	0.055524044
2	0x3e75610a	0.23962799
3	0x3e033dda	0.12816563
4	0xbe0aa3b8	-0.13539016
5	0xbd97a360	-0.07404208
6	0xbdae8ba7	-0.0852273
7	0xbeec27b5	-0.46124044
8	0x3e290eff	0.16509627
9	0xbc10448a	-0.0088054035
10	0xbdda0664	-0.1064575
11	0xbdf78dad	-0.120875694
12	0x3e2d68ab	0.16934459
13	0xbe61d9c4	-0.22055727
14	0x3e6a5165	0.22882612
15	0x3e3ac3e1	0.18238784
16	0x3e026e73	0.12737446
17	0x3d023c58	0.03179583
18	0xbd19a78a	-0.037513293
19	0xbe1af339	-0.15131845
20	0xbd050e60	-0.032484412
21	0x3e6fb11e	0.23407409
22	0xbc354f44	-0.011066262
23	0xbdef0d24	-0.11672428
24	0x3e88cc6f	0.2671847
25	0xbe8eb53a	-0.2787264
26	0x3b51674c	0.003195244
27	0xbe46bfd5	-0.19409116
28	0x3e974b68	0.29549718
29	0x3e48e607	0.19618998
30	0xbded1368	-0.11575967
31	0xbd83a83f	-0.06428575
32	0x3ec71995	0.38886705
33	0x3dd172d6	0.10226981
34	0xbd349330	-0.04408568
35	0x3e925249	0.28578404
36	0xbe37e8fa	-0.17959967
37	0xb9e2c620	-0.00043253694
38	0xbe8e9304	-0.2784654
39	0x3de6ea98	0.11275214
40	0xbe970462	-0.2949553
41	0x3cc2482e	0.023716059
42	0xbe26e4d3	-0.16298227
43	0xbd790b4c	-0.06080179
44	0xbe8ad092	-0.27112252
45	0xbedb9bf4	-0.4289242
46	0xbc1d6b7e	-0.009608148
47	0xbe1b8989	-0.15189184
48	0x3ea2980c	0.31756628
49	0x3e33a6b3	0.1754406
50	0xbde0d9a0	-0.10979009
51	0x3d731099	0.059342
52	0xbd53162e	-0.051534824
53	0xbe49a4ac	-0.19691724
54	0xbe4d027b	-0.20020477
55	0xbe17dfa2	-0.14831403
56	0xbcb3b809	-0.02193834
57	0xbe59b33a	-0.21259776
58	0x3d6a87a2	0.057258256
59	0xbe1f0a7f	-0.15531348
60	0xbd32212b	-0.043488663
61	0x3e905382	0.2818871
62	0xbe6b647e	-0.22987553
63	0x3da3812b	0.07983621
64	0x3d8aa33f	0.06769418
65	0x3d358c5d	0.044323314
66	0x3ecbe19e	0.3982057
67	0xbccf1edf	-0.025283275
68	0x3d621a9b	0.055201154
69	0xbdbf764d	-0.09348736
70	0x3e8a45b4	0.27006304
71	0xbd655c2d	-0.05599611
72	0x3e1d3c07	0.1535493
73	0x3de1c0a2	0.1102307
74	0x3f1841ee	0.594756
75	0x3e190b41	0.149457
76	0xbceae181	-0.028671982
77	0xbe75b785	-0.23995788
78	0xbe491c3c	-0.19639677
79	0xbe73ce90	-0.23809266
80	0xbecb2ee9	-0.39684227
81	0xbd282c42	-0.041057833
82	0x3e6d562b	0.23177402
83	0x3d026b4c	0.031840608
84	0xbe43997a	-0.19101515
85	0x3df6e842	0.120560184
86	0xbeb770e7	-0.35828325
87	0x3ec04798	0.37554622
88	0x3f097810	0.53698826
89	0xbe99be5a	-0.3002804
90	0xbea5e44f	-0.32400748
91	0x3ecafe8b	0.39647326
92	0xbb625a9d	-0.0034538873
93	0xbe0439a1	-0.12912609
94	0x3db124eb	0.0864962
95	0xbdedcc28	-0.11611205
96	0x3ecfe1c4	0.40601933
97	0x3e3cefef	0.18450902
98	0x3e21ea7e	0.15812108
99	0xbf37d2f6	-0.71806276
100	0xbec79441	-0.38980296
101	0xbdc172f6	-0.09445755
102	0xbd96c51c	-0.073618144
103	0xbed6ca84	-0.41951382
104	0x3ea4f667	0.3221924
105	0x3ef06e1d	0.4695901
106	0x3e08985c	0.1333937
107	0xbe630c80	-0.22172737
108	0xbe2fd48c	-0.17170924
109	0x3edfec72	0.4373508
110	0x3d4d58a9	0.05013338
111	0x3dd63d43	0.104609035
112	0xbe3f32b3	-0.18671684
113	0x3e67fc24	0.22654778
114	0xbd1d4520	-0.038396
115	0xbea5214e	-0.32251972
116	0x3d2b22e1	0.04178131
117	0x3d682274	0.056673482
118	0x3d6368d9	0.055519912
119	0x3ef092c5	0.46986976
120	0x3ec92578	0.392864
121	0x3dd98923	0.1062186
122	0xbe12d585	-0.14339264
123	0xbe2ae4fb	-0.16688912
124	0x3e685003	0.22686772
125	0xbe20ff7c	-0.1572246
126	0x3ef597a2	0.4796725
127	0xbdf33aa7	-0.118764214
128	0x3ee227ed	0.44171086
129	0x3e4cb1cb	0.19989698
130	0x3e570243	0.20996957
131	0x3e4bfc43	0.19920449
132	0x3c890256	0.016724747
133	0x3e0c8a53	0.13724642
134	0xbd68a26b	-0.05679552
135	0xbe8bb9d9	-0.27290228
136	0x3ea4dc13	0.32199153
137	0xbd6e6c94	-0.058209017
138	0x3e4b6141	0.19861318
139	0xbd1e4838	-0.038643092
140	0xbdbf9a7e	-0.09355639
141	0xbf1ac7ff	-0.6046142
142	0x3da1b5c1	0.07895995
143	0x3e50c663	0.20388179
144	0x3efd3864	0.49457085
145	0xbe522427	-0.20521604
146	0x3e872c4a	0.26400977
147	0xbdd31270	-0.10306251
148	0x3dbe315c	0.09286758
149	0xbef565d8	-0.47929263
150	0xbe07589f	-0.132174
151	0xbd9faca0	-0.077965975
152	0x3e932297	0.28737327
153	0xbd7bcfda	-0.06147752
154	0xbe6988e1	-0.22806121
155	0x3bae6a68	0.005322743
156	0xbe5ac7cd	-0.2136528
157	0xbd4d5fd6	-0.050140224
158	0x3db22a42	0.08699466
159	0xbaf28853	-0.0018503763
160	0x3e9a0beb	0.30087218
161	0x3e540543	0.20705132
162	0x3e230515	0.15919907
163	0x3e059953	0.1304677
164	0x3eaacd59	0.33359793
165	0x3c84686a	0.01616307
166	0xbe341a5a	-0.17588177
167	0x3dcf521a	0.101230815
168	0xbee3030a	-0.44338256
169	0x3ebf34e6	0.37345046
170	0xbe1e736b	-0.15473716
171	0xbdd4e8d5	-0.10395972
172	0xbc1baf25	-0.009502207
173	0x3e11e2af	0.14246629
174	0x3e08db1c	0.13364834
175	0xbe59d939	-0.2127427
176	0x3ed1337c	0.40859592
177	0x3cec4ebe	0.028846141
178	0xbd9bc07a	-0.07605071
179	0xbc94330e	-0.018090751
180	0x3e88b245	0.2669851
181	0xbe0054ce	-0.1253235
182	0xbe312190	-0.1729796
183	0xbd82d1d2	-0.06387676
184	0xbe818fd3	-0.25305042
185	0xbe3256b9	-0.17415895
186	0xbe9b8b1c	-0.3037957
187	0x3e814aad	0.25252286
188	0xbdc4d66d	-0.09611211
189	0xbea01742	-0.31267744
190	0xbc45ddfb	-0.01207685
191	0x3ee9cc37	0.45663616
192	0x3e361944	0.17783076
193	0xbe16a55f	-0.14711522
194	0x3e346533	0.1761673
195	0x3e9cd502	0.30631262
196	0x3ccedbb0	0.02525124
197	0xbdeac229	-0.11462814
198	0xbebf76a5	-0.37395206
199	0xbe08dac4	-0.13364702
200	0x3e292d8f	0.16521285
201	0xbe91d7da	-0.28484994
202	0xbe85eae0	-0.26155758
203	0xbe81d30b	-0.25356326
204	0xbeb5c96c	-0.35505235
205	0x3ea0cb0f	0.3140492
206	0x3eb07870	0.34466887
207	0xbc4cdd5e	-0.01250395
208	0x3e26603b	0.16247647
209	0xbe6a57d8	-0.22885072
210	0x3d3eec4d	0.046612073
211	0xbe1c0a11	-0.15238215
212	0xbe4bb33b	-0.1989259
213	0xbf3a43fe	-0.7276
214	0xbea568d1	-0.3230653
215	0xbe9b4fd7	-0.3033435
216	0xbf0830e6	-0.53199613
217	0xbceaa76b	-0.028644284
218	0x3ecca60d	0.39970437
219	0xbea72829	-0.32647827
220	0xbcb659ac	-0.022259556
221	0xbd0853e7	-0.03328314
222	0x3e838ea8	0.25694776
223	0x3ed54171	0.4165149
224	0x3e18b349	0.14912142
225	0x3e592f27	0.21209393
226	0xbe9a80dc	-0.30176437
227	0x3df0690d	0.11738787
228	0x3cfaf222	0.030633036
229	0x3e396ac6	0.18107137
230	0xbe4c9f17	-0.19982563
231	0x3ed37bb3	0.41305313
232	0xbe14b84c	-0.14523429
233	0xbdba7526	-0.091043755
234	0xbeb6501e	-0.35608
235	0xbf06155e	-0.52376354
236	0xbd800a97	-0.0625202
237	0xbea56d1d	-0.3230981
238	0x3dd1dcfc	0.102472275
239	0x3e2ce060	0.16882467
240	0x3cb41ed2	0.021987353
241	0xbf02a42e	-0.5103177
242	0xbe1a89fc	-0.150917
243	0xbdea49c4	-0.11439851
244	0x3ed3f34d	0.4139656
245	0xbea3ab72	-0.3196674
246	0x3ef421e3	0.47682104
247	0x3d4b73c5	0.049670953
248	0xbe414018	-0.18872106
249	0xbe809ae3	-0.2511817
250	0x3c1f9632	0.009740399
251	0x3e9f595f	0.31122872
252	0x3f00f1f3	0.50369185
253	0x3e552fec	0.20819062
254	0x3d833595	0.06406704
255	0x3f07c98b	0.53041905

net.0.bias f4 [128]
0	0xbea16e97	-0.31529686
1	0xbe8c0b35	-0.273523
2	0xbed1b0f1	-0.40955308
3	0xbe0d1e34	-0.13781053
4	0xbf03a111	-0.5141764
5	0xbe956e02	-0.29185492
6	0xbeb57cd2	-0.35446793
7	0xbe975ccb	-0.29562983
8	0x3df27573	0.11838808
9	0xbf004121	-0.5009938
10	0x3e74965d	0.23885484
11	0xbe45646e	-0.19276592
12	0x3c77724b	0.015102933
13	0x3d753e8a	0.059874095
14	0xbe3ac584	-0.18239409
15	0xbf10e1d1	-0.5659457
16	0xbee90f3b	-0.45519432
17	0xbecbc3dd	-0.3979787
18	0x3e5ccfda	0.21563664
19	0xbd50a5e9	-0.050939474
20	0xbe90723b	-0.2821215
21	0xbd938db6	-0.072047636
22	0xbe4c0288	-0.1992284
23	0xbe0ebf9c	-0.1394028
24	0xbe3f84e8	-0.18703043
25	0xbec023c4	-0.37527287
26	0xbd98b12e	-0.07455669
27	0xbd6c5601	-0.057699207
28	0xbd9ae51d	-0.07563231
29	0xbee11d78	-0.43967795
30	0x3df72820	0.120682
31	0x3d041575	0.032247026
32	0x3c234bec	0.009966832
33	0xbee8ce3d	-0.45469847
34	0xbea0bd23	-0.313943
35	0xbd69bad0	-0.057062924
36	0xbed1c0bb	-0.40967354
37	0xbe64cfe8	-0.22344935
38	0xbf0a9bd4	-0.54144025
39	0xbde54f41	-0.11196757
40	0xbdcdba09	-0.10045249
41	0xbe8bcc4c	-0.27304304
42	0xbe338aba	-0.17533389
43	0xbee38474	-0.4443699
44	0xbf36dcd6	-0.7143072
45	0xbeedb8a6	-0.46429938
46	0xbf2bc8e5	-0.67103416
47	0xbbf13337	-0.0073608416
48	0xbeb43d4e	-0.35203022
49	0xbf00ea24	-0.5035727
50	0xbf15833a	-0.5840336
51	0xbea14cc0	-0.31503868
52	0xbdc47252	-0.09592117
53	0xbd12b7e4	-0.035819903
54	0xbe7d01b1	-0.24707676
55	0xbde6bfb0	-0.1126703
56	0xbe6757ae	-0.22592041
57	0x3e3e2607	0.18569194
58	0xbea630d4	-0.32459128
59	0xbd31b521	-0.04338563
60	0xbe0b2b41	-0.13590719
61	0xbd4a49d6	-0.04938682
62	0xbd148696	-0.036261164
63	0xbed75338	-0.42055678
64	0xbf1c7a93	-0.61124533
65	0x3c9055f3	0.017619109
66	0xbe90d99b	-0.2829102
67	0x3c6f32e9	0.01459954
68	0xbf3d91b0	-0.74050426
69	0xbf060dc5	-0.5236476
70	0xbed551de	-0.41664022
71	0xbea97d6c	-0.33103502
72	0xbe3a9662	-0.18221429
73	0xbef3c84a	-0.47613746
74	0xbe81ccc4	-0.25351536
75	0xbf2d2a87	-0.67643017
76	0x3de9fa95	0.11424748
77	0xbe0c6762	-0.13711312
78	0xbed9f953	-0.42573032
79	0xbefd40e9	-0.49463585
80	0xbe99aae8	-0.30013204
81	0xbbac6f91	-0.005262323
82	0xbde54c80	-0.11196232
83	0xbea641d0	-0.32472086
84	0xbd81380c	-0.06309518
85	0xbdb5416d	-0.088503696
86	0xbd022012	-0.031768866
87	0xbed88c91	-0.42294744
88	0x3e2d762f	0.16939615
89	0xbba038b0	-0.00488957
90	0xbebee172	-0.37281376
91	0xbe83161a	-0.256028
92	0xbe4e9f7a	-0.20178023
93	0xbe954f87	-0.29162237
94	0xbe57d3d1	-0.21076895
95	0xbda7b40b	-0.08188637
96	0xbdc65439	-0.09684033
97	0xbf18a896	-0.5963224
98	0xbe845dfd	-0.25852957
99	0xbdf716ab	-0.120648704
100	0xbe6fe668	-0.23427737
101	0xbf5f7043	-0.8728067
102	0x3b2a846b	0.0026018869
103	0xbf3c792a	-0.7362238
104	0xbe7f2802	-0.24917606
105	0x3b580520	0.003296204
106	0xbed817ff	-0.42205808
107	0xbefeb033	-0.49743804
108	0xbe5dc0d0	-0.21655583
109	0xbe8f69d8	-0.2801044
110	0xbeefb63c	-0.4681872
111	0xbee9a928	-0.45636868
112	0xbeed2c63	-0.46322927
113	0xbd869db0	-0.06573045
114	0xbdd5d51f	-0.1044104
115	0xbe615afc	-0.22007364
116	0x3e0b26c2	0.13589004
117	0xbe11e5b4	-0.14247781
118	0xbefaec35	-0.49008337
119	0xbece9b71	-0.40352967
120	0xbe89788c	-0.26849782
121	0xbef3d7c4	-0.47625554
122	0xbeabbebd	-0.3354396
123	0xbed5c476	-0.4175145
124	0x3d16ce81	0.03681803
125	0xbeb864c7	-0.36014387
126	0xbf38b0ce	-0.7214478
127	0xbb9bc0ff	-0.0047532315

net.2.weight f4 [128, 128]
0	0xbcdd01cb	-0.026978394
1	0xbf231125	-0.63698035
2	0x3ce0b2d3	0.02742902
3	0xbf09d559	-0.5384117
4	0xbdd80121	-0.1054709
5	0xbecaa40a	-0.39578277
6	0x3c1fa6b5	0.009744336
7	0xbd5090ac	-0.05091922
8	0xbdb61897	-0.08891409
9	0xbe1396ee	-0.14413044
10	0xbec852b8	-0.3912561
11	0xbde9f096	-0.11422841
12	0xbc472910	-0.012155786
13	0xbe6ceaa5	-0.23136385
14	0xbe8a248c	-0.26981008
15	0xbd958bde	-0.07302068
16	0xbe72f672	-0.23726824
17	0x3d5e23d0	0.054233372
18	0x3cd49b44	0.025952943
19	0xbd45108c	-0.048111483
20	0xbe890f42	-0.26769453
21	0x3dd5a4a4	0.10431793
22	0xbe836908	-0.2566607
23	0xbd17e914	-0.037087515
24	0xbe3d9199	-0.18512572
25	0xbddff504	-0.10935405
26	0xbe00203a	-0.12512293
27	0xbed44e69	-0.41466072
28	0xbe8f547c	-0.27994144
29	0xbf15fac0	-0.5858574
30	0x3e6a0bf2	0.2285612
31	0xbeb41bf4	-0.35177577
32	0xbed9e6ba	-0.42558843
33	0x3e56ccad	0.20976515
34	0x3e1913bb	0.14948933
35	0xbe169882	-0.14706615
36	0xbe8fdf34	-0.28099978
37	0xbeaa9a0a	-0.33320647
38	0x3deaa6d1	0.11457599
39	0xbe5180a6	-0.20459232
40	0x3dca1030	0.09866369
41	0xbde4ceba	-0.111722425
42	0xbe9a70e5	-0.30164257
43	0xbed78084	-0.42090237
44	0xbe46bc20	-0.19407701
45	0xbe73684b	-0.23770253
46	0xbe59b589	-0.21260656
47	0xbef14cb5	-0.47128835
48	0xbe37aa6b	-0.17936103
49	0xbce5a635	-0.028033355
50	0xbe9eb31f	-0.30996034
51	0xbe332844	-0.17495829
52	0xbf3d45c7	-0.73934597
53	0xbe2eb956	-0.17062888
54	0x3daf2da2	0.08553626
55	0x3c9c893c	0.019108407
56	0x3d5e15e6	0.054220103
57	0xbe9cb2d5	-0.30605188
58	0xbe0bb0c8	-0.13641655
59	0xbecd8466	-0.40140074
60	0x3d7125b7	0.05887386
61	0x3d246041	0.040130857
62	0xbe0f2704	-0.13979727
63	0x3ded5ee7	0.11590367
64	0xbdb36647	-0.08759742
65	0xbea5a1de	-0.32350057
66	0x3cef0678	0.02917789
67	0x3d373e51	0.044737164
68	0xbba52c62	-0.0050406912
69	0xbe69c363	-0.2282844
70	0xbea8ce4a	-0.32969886
71	0xbec2421b	-0.3794106
72	0xbdff7974	-0.12474337
73	0x3dce96a5	0.10087327
74	0xbd58e4f4	-0.05295272
75	0xbdb5b415	-0.088722385
76	0xbe883845	-0.2660543
77	0xbefd3d4c	-0.49460828
78	0x3e813889	0.25238445
79	0xbb6da9a8	-0.0036264453
80	0xbd678024	-0.05651869
81	0xbe30f7df	-0.17282055
82	0x3cf2c24b	0.029633662
83	0xbee45195	-0.44593492
84	0xbe85258a	-0.26005203
85	0x3dc95867	0.098313145
86	0x3e214712	0.15749767
87	0xbe4eb8df	-0.2018771
88	0xbf144568	-0.57918406
89	0xbe80725c	-0.2508725
90	0xbf8576e3	-1.0426906
91	0xbd9c5e14	-0.076351315
92	0xbe514127	-0.2043501
93	0x3d0af460	0.03392446
94	0xbd577481	-0.05260134
95	0x3d032ec4	0.03202702
96	0xbc837492	-0.016046796
97	0x3d9225b6	0.07136099
98	0x3e36fd75	0.17870124
99	0xbe9adee6	-0.30248183
100	0xbd23b9ca	-0.039972104
101	0xbe0c82c2	-0.13721755
102	0xbe384e87	-0.17998706
103	0xbdf92317	-0.12164896
104	0xbd0aca4d	-0.033884335
105	0xbc3953dc	-0.011311498
106	0xbe527f07	-0.2055627
107	0xbc538302	-0.012909653
108	0xbe0727c5	-0.13198765
109	0xbe1477fb	-0.14498894
110	0xbe8c335d	-0.27382937
111	0xbef93e33	-0.48680267
112	0xbddb40df	-0.107057326
113	0xbe2a6ab6	-0.1664227
114	0xbe25ee1c	-0.16204113
115	0xbd112fa9	-0.035445843
116	0xbe1a7cdc	-0.15086693
117	0xbed67fb7	-0.41894314
118	0xbdafd2b3	-0.085851096
119	0xbd0226ff	-0.03177547
120	0xbe34178f	-0.17587112
121	0xbe54adbb	-0.20769398
122	0xbc18637d	-0.009301064
123	0xbeab1fa4	-0.33422577
124	0xbdc6842a	-0.09693177
125	0xbebdeae1	-0.3709326
126	0xbbcce3ea	-0.0062527554
127	0xbdabeca7	-0.08394747
128	0xbe41ebe1	-0.18937637
129	0xbcd63b8d	-0.026151443
130	0xbe43bcd8	-0.19115007
131	0xbd6a8f7a	-0.057265736
132	0x3d978eeb	0.07400306
133	0xbdc2d6a2	-0.09513594
134	0xbb36e5ee	-0.0027908045
135	0xbdce428a	-0.10071285
136	0xbcf9bbda	-0.030485082
137	0xbe19cd57	-0.15019737
138	0xbb91cd16	-0.004449497
139	0xbd40cb65	-0.047068972
140	0xbd291ce2	-0.04128731
141	0xbd56ffb9	-0.05248997
142	0x3cb917ba	0.022594322
143	0xbded6f59	-0.115935035
144	0x3cd3c5a6	0.025851082
145	0xbe2ce238	-0.1688317
146	0xbe2b6f73	-0.16741733
147	0xbccf2b70	-0.025289267
148	0x3caa4628	0.020785406
149	0xbda83b6b	-0.08214458
150	0xbdcd4cee	-0.10024439
151	0xbe1b1a7d	-0.15146823
152	0xbe38875d	-0.18020387
153	0xbd7d6eec	-0.06187336
154	0xbe166f82	-0.14690974
155	0xbe141558	-0.14461267
156	0x3c487568	0.012235023
157	0xbcf2f8b3	-0.029659605
158	0x3d4ea176	0.05044695
159	0xbd09dcc5	-0.033657808
160	0xbe26ee27	-0.16301785
161	0xbc396764	-0.011316154
162	0xbd81159d	-0.063029505
163	0xbd845b45	-0.06462721
164	0xbe0f7c20	-0.14012194
165	0xbcfc3f72	-0.030791972
166	0xbe41ba36	-0.1891869
167	0xbe3e1093	-0.1856101
168	0xbbb67bb1	-0.0055689444
169	0xbc755866	-0.014974689
170	0x3c58e140	0.013237298
171	0xbd24fc77	-0.04027983
172	0xbe572f62	-0.21014169
173	0x3d2a32d7	0.04155239
174	0x3c03f6ab	0.008054416
175	0xbdcb249e	-0.099190935
176	0xbe0640e7	-0.13110696
177	0xbde125e2	-0.10993554
178	0x3d39fb27	0.045405533
179	0xbe2a1e46	-0.16613111
180	0xbe0c6db7	-0.13713728
181	0xbe4ca205	-0.1998368
182	0xbe1692b7	-0.14704405
183	0xbdbdd672	-0.09269418
184	0xbd53cc8c	-0.051708743
185	0xbca298a7	-0.019848181
186	0xbc8624a3	-0.016374892
187	0xbd67d402	-0.05659867
188	0xbb5d3402	-0.0033752923
189	0xbdbbef7f	-0.0917654
190	0xbd112e5b	-0.0354446
191	0x3cb8567d	0.022502178
192	0xbe01c545	-0.12672909
193	0xbd4d8c02	-0.05018235
194	0xbe80f6ad	-0.251882
195	0xbd8c1468	-0.0683983
196	0x3d416aae	0.04722088
197	0xbe77c13a	-0.24194804
198	0xbd29b70b	-0.04143433
199	0x3de4a5db	0.11164447
200	0xbdb82604	-0.08991626
201	0xbdcf7c7d	-0.10131166
202	0xbdc7299d	-0.09724734
203	0xbd55dc3c	-0.052211985
204	0xbdec15cf	-0.11527597
205	0x3cf781f0	0.030213326
206	0xbd030ac9	-0.031992707
207	0xbd122368	-0.035678297
208	0x3c6962ad	0.014244718
209	0x3d612446	0.054966234
210	0xbd6381d4	-0.055543736
211	0xbd8b91a6	-0.068148896
212	0xbca0ad2d	-0.019613827
213	0xbdcbf437	-0.0995869
214	0xbda9f8c4	-0.082994014
215	0xbdac956d	-0.08426938
216	0xbe0af70e	-0.13570806
217	0xbd8f9d43	-0.07012417
218	0xbd054460	-0.03253591
219	0xbd679768	-0.056540877
220	0xbdf406f0	-0.11915386
221	0x3cd224d1	0.025652321
222	0xbe3cdee2	-0.18444398
223	0x3a06ff71	0.0005149758
224	0xbe1110d0	-0.1416657
225	0xbd352c5b	-0.044231754
226	0xbc19b458	-0.009381376
227	0xbdc6e404	-0.09711459
228	0xbe022531	-0.127095
229	0xbe1af5e8	-0.15132868
230	0xbc4f0a4d	-0.012636733
231	0xbdccc64b	-0.09998759
232	0xbda42504	-0.08014873
233	0xbdb516eb	-0.08842262
234	0x3d36a4ca	0.04459075
235	0xbc0e7678	-0.008695237
236	0xbc756d50	-0.014979675
237	0x3deef22b	0.116672836
238	0x3d5c325e	0.05375897
239	0x3c4df77e	0.012571214
240	0xbc82e200	-0.015976906
241	0xbd92d0f7	-0.07168763
242	0xbc1b878c	-0.009492766
243	0xbe5438e1	-0.20724823
244	0xbdcc718b	-0.09982594
245	0xbd9e7538	-0.077372015
246	0xbb9fbba5	-0.004874664
247	0xbd88bcbe	-0.06676625
248	0xbdd2a1e8	-0.102847874
249	0xbe3565c3	-0.177146
250	0xbdd93754	-0.10606256
251	0xbe05ca39	-0.13065423
252	0xbdf8f886	-0.12156777
253	0xbd911b40	-0.07085276
254	0xbba75312	-0.0051063383
255	0xbd85aedf	-0.06527495

net.2.bias f4 [128]
0	0x3e0a3577	0.13496958
1	0x3cf54d83	0.029944187
2	0xbd603c42	-0.054744966
3	0x3e3699e1	0.17832138
4	0xbe42e294	-0.19031745
5	0xbddb1f99	-0.10699386
6	0xbddb5446	-0.10709433
7	0x3e388ec8	0.18023217
8	0xbd59d869	-0.0531849
9	0x3c985718	0.018596217
10	0x3ea7bee6	0.3276283
11	0x3f61368a	0.87973845
12	0xbde45e6f	-0.11150824
13	0x3f32107b	0.695564
14	0xbe3209a7	-0.17386495
15	0x3e554a57	0.2082914
16	0x3e571a27	0.2100607
17	0xbd9ee007	-0.077575736
18	0x3d12507a	0.03572128
19	0xbd6aa070	-0.05728191
20	0x3d47ceaa	0.048781075
21	0x3d0bc5d9	0.03412423
22	0x3d3302b4	0.04370375
23	0x3d0a5537	0.033772673
24	0x3ea12350	0.31472254
25	0xbe1e0eab	-0.15435283
26	0xbd4dc431	-0.05023593
27	0x3bbf2c1f	0.005834117
28	0xbe2d0ec8	-0.1690017
29	0xbe7524f7	-0.23939882
30	0xbd03b1dc	-0.03215204
31	0xb98a4f92	-0.00026380696
32	0x3e2583c3	0.16163544
33	0xbdce12bb	-0.10062166
34	0xbd97c654	-0.07410875
35	0xbea2dca8	-0.31808972
36	0x3bc5bf92	0.0060348
37	0x3e9a2cf8	0.30112433
38	0x3e2888b2	0.16458395
39	0x3e593525	0.2121168
40	0xbe3af8dd	-0.18258996
41	0xbdc3e1d8	-0.09564561
42	0x3df10bf8	0.11769861
43	0xbd0bd452	-0.03413803
44	0x3f629d58	0.8852134
45	0xbdf6d6f1	-0.120527156
46	0xbd237296	-0.0399042
47	0x3f3b553a	0.7317692
48	0x3e5bf2a8	0.21479285
49	0xbd98819b	-0.07446595
50	0x3eb7bd84	0.35886776
51	0x3e4279a3	0.18991713
52	0x3e942583	0.2893487
53	0xbe0bfbdb	-0.13670294
54	0x3e605372	0.21906832
55	0xbdf77bd8	-0.12084168
56	0x3f72fc85	0.94916564
57	0xbc4a3717	-0.012342236
58	0x3d571d27	0.052518036
59	0xbc3b3f34	-0.011428643
60	0xbe19126a	-0.1494843
61	0xbe1e51f1	-0.15460946
62	0xbe75a96f	-0.23990415
63	0x3df52168	0.11969262
64	0xbdc95ab3	-0.09831753
65	0x3e487359	0.19575252
66	0x3e0ed19f	0.13947152
67	0x3e9eb63c	0.3099841
68	0xbd8221ef	-0.063541286
69	0x3d80921e	0.0627787
70	0xbd6feff6	-0.058578454
71	0xbc8881cd	-0.016663456
72	0x3e509346	0.2036868
73	0x3ca77b00	0.020444393
74	0x3e5576ca	0.20846096
75	0xbc93d8dd	-0.018047744
76	0x3f070317	0.5273909
77	0xbe832ffc	-0.25622547
78	0xbe543081	-0.20721628
79	0x3e819be8	0.2531426
80	0xbdb7b309	-0.08969695
81	0xbd330f6e	-0.043715887
82	0x3ebe1c67	0.37131044
83	0x3eedd667	0.46452639
84	0xbea47ece	-0.32127994
85	0xbe272353	-0.16322069
86	0x3d9dbb74	0.077017695
87	0xbd1c869f	-0.038214322
88	0xbd9af891	-0.075669415
89	0xbd94eb40	-0.07271433
90	0xbdd60a87	-0.10451227
91	0xbd9ae346	-0.0756288
92	0x3b783668	0.0037874226
93	0xbcf331e9	-0.029686885
94	0xbe41e14e	-0.18933603
95	0x3ea5905b	0.32336697
96	0xbdd263e3	-0.10272958
97	0xbd4b3896	-0.04961451
98	0x3f3a4bf2	0.72772133
99	0x3d1caa93	0.03824861
100	0x3ee7abf1	0.45248368
101	0xbcb0fba0	-0.02160436
102	0x3c361c08	0.011115082
103	0x3ece27ba	0.40264684
104	0xbca62b26	-0.020284247
105	0x3e010b8d	0.12602063
106	0xbe17e08a	-0.14831749
107	0x3ca64f06	0.020301353
108	0xbd21d0c2	-0.039505728
109	0xbda54995	-0.08070675
110	0xbeb024ea	-0.34403163
111	0xbde12bbc	-0.1099467
112	0xbe9214b1	-0.2853141
113	0x3f01a84f	0.50647444
114	0xbc7db0ec	-0.015484076
115	0x3ec4b2c3	0.38417634
116	0x3f4093a4	0.7522528
117	0xbda83930	-0.08214033
118	0xbd2f1aab	-0.042750042
119	0xbbd8b712	-0.0066136206
120	0xbbd5a9ee	-0.0065205013
121	0xbdcd2160	-0.100161314
122	0x3e5c3302	0.21503833
123	0x3dc29c0a	0.09502418
124	0xbe00e413	-0.12587003
125	0xbd9e9531	-0.077433
126	0xbe2a20d0	-0.1661408
127	0x3e99c49e	0.3003282

net.4.weight f4 [6, 128]
0	0xbc2a78db	-0.010404791
1	0x3da2c732	0.0794815
2	0xbd871c53	-0.06597199
3	0x3dec1193	0.115267895
4	0xbd01c35a	-0.031680442
5	0xbcccc341	-0.024995448
6	0x3b894b62	0.0041898945
7	0xbc977dcd	-0.018492604
8	0x3d4b5f37	0.04965135
9	0xbd9787ba	-0.07398935
10	0x3bc584dd	0.0060278014
11	0x3e689b71	0.22715546
12	0x3d2acdb6	0.041700087
13	0xbd969d2a	-0.073541954
14	0x3e3f097d	0.18655963
15	0x3d84bef7	0.06481736
16	0xbbe4d909	-0.0069838804
17	0x3d8e8a53	0.06959977
18	0x3d1c2393	0.038119864
19	0x3b9336a5	0.004492598
20	0xbeb5184d	-0.35370103
21	0xbc40f2b6	-0.011776617
22	0x3d784945	0.06061675
23	0xbd04c95d	-0.032418597
24	0xbc8c520e	-0.01712897
25	0x3cb146a8	0.021640137
26	0xbd161575	-0.036641557
27	0xbe74c2d0	-0.2390244
28	0x3d1b1807	0.03786471
29	0x3dfa6e33	0.1222805
30	0xbd969a4c	-0.073536485
31	0x3e36cc2d	0.17851324
32	0x3e2818d7	0.16415726
33	0x3dc14eb1	0.09438837
34	0x3b88810c	0.004165774
35	0xbe2c0789	-0.1679975
36	0x3c1fb49c	0.0097476505
37	0xbd18cfbd	-0.03730749
38	0x3d1bc569	0.038030062
39	0x3d9723c8	0.073798716
40	0x3e00f1f1	0.12592293
41	0x3d4fa8d7	0.050698128
42	0xbc39f53f	-0.011349975
43	0xbd1c8a26	-0.038217686
44	0x3b310265	0.0027009484
45	0xbbfa9a05	-0.007647755
46	0xbd2e62bf	-0.04257464
47	0x3c843953	0.016140616
48	0xbd4dff67	-0.0502924
49	0xbe3a082f	-0.18167184
50	0x3e028b57	0.12748466
51	0x3c8c4e48	0.017127171
52	0xbcfe572b	-0.031047424
53	0x3df7abe0	0.120933294
54	0x3c2ce2e4	0.010552142
55	0x3c911394	0.01770953
56	0xbe0924c0	-0.13392925
57	0xbdf676b3	-0.12034359
58	0x3d87c392	0.06629099
59	0xbe2d2937	-0.16910253
60	0xbe63e26f	-0.22254346
61	0xbd60b88c	-0.054863498
62	0x3d9273c3	0.07150986
63	0xbdc415a9	-0.09574444
64	0xbe650245	-0.22364147
65	0x3e25eb3c	0.16203016
66	0x3d5a1def	0.053251203
67	0x3bce12ec	0.0062888768
68	0x3d767b8a	0.06017641
69	0x3dfa13d8	0.12210816
70	0x3d66f877	0.0563893
71	0x3e276f7b	0.1635112
72	0x3d11c277	0.035585847
73	0xbd47b5cf	-0.04875737
74	0x3d885db3	0.06658497
75	0x3e451bb7	0.19248854
76	0x3e18b0bd	0.1491117
77	0xbd54c493	-0.05194528
78	0xbd860275	-0.065434374
79	0x3c3b494c	0.01143105
80	0x3d42eb94	0.047587946
81	0x3c396061	0.011314482
82	0x3d8b8d19	0.068140216
83	0x3e2adc24	0.1668554
84	0x3c2f46ae	0.010698004
85	0xbe5c841b	-0.21534769
86	0x3db7d0ad	0.089753486
87	0x3d4a98e8	0.04946223
88	0x3c18c503	0.009324315
89	0xbd9a95e0	-0.07548118
90	0xbceabad7	-0.028653545
91	0x3d8883ba	0.0666575
92	0x3e10935a	0.1411871
93	0x3ec4583d	0.3834857
94	0x3d8517d0	0.064986825
95	0x3d940806	0.07228093
96	0x3d86478a	0.06556614
97	0xbe16889f	-0.14700554
98	0x3e35e584	0.17763335
99	0xbd08d3d5	-0.033405144
100	0x3e350a8c	0.17679805
101	0x3e07ed27	0.1327406
102	0x3e45297b	0.19254105
103	0x3d9e5a6b	0.077320896
104	0xbd530df8	-0.051526994
105	0x3e09e4df	0.13466214
106	0xbdce355c	-0.10068771
107	0x3e5b444c	0.21412772
108	0x3e45910b	0.19293611
109	0x3e9ba991	0.30402806
110	0x3d83592c	0.064134926
111	0xbe457cd5	-0.19285901
112	0xbdedc751	-0.11610282
113	0x3dd478b5	0.103745855
114	0xbdc4676b	-0.09590038
115	0xb98d26d7	-0.00026922554
116	0x3dcb502b	0.099274
117	0xbd8f2b20	-0.06990647
118	0x3ce35b59	0.027753519
119	0xbd8a8acc	-0.06764755
120	0x3cdd063d	0.026980514
121	0x3d074a88	0.033030063
122	0x3e119dc2	0.14220336
123	0x3eba2bfd	0.36361685
124	0x3d0eef83	0.034896385
125	0x3cdd56ba	0.027018894
126	0x3e1fc78c	0.15603465
127	0xbd7a089e	-0.061043374
128	0x3ba07641	0.0048969095
129	0xbce73993	-0.028225696
130	0x3c87b9a1	0.016568007
131	0x3e140121	0.14453556
132	0xb96b81bb	-0.00022459675
133	0x3cefd8b9	0.029278146
134	0x3dbf00ff	0.09326362
135	0x3bf952a3	0.007608728
136	0x3cfac323	0.030610627
137	0x3da92086	0.082581565
138	0x3de67278	0.11252302
139	0x3e9e22fd	0.3088607
140	0xbcaf238e	-0.021379258
141	0xbd135bf3	-0.03597636
142	0xbdba172d	-0.09086452
143	0xbd5e1547	-0.05421951
144	0x3e7d5b39	0.2474183
145	0xbc9d91a6	-0.01923449
146	0xbe0bcf73	-0.13653354
147	0xbcb42625	-0.021990845
148	0x3dbba343	0.09161999
149	0xbb991074	-0.004671151
150	0x3d7ba443	0.06143595
151	0x3e1a7a6f	0.15085767
152	0x3d8b9686	0.068158194
153	0xbc38bafc	-0.011275049
154	0x3d8372f8	0.06418413
155	0xbe245891	-0.1604941
156	0x3e77656f	0.24159788
157	0xbd091799	-0.03346977
158	0x3dff8876	0.124772
159	0x3e071633	0.13192062
160	0x3c781bd0	0.01514335
161	0xbd255f8e	-0.04037433
162	0x3e610719	0.21975364
163	0x3dbdf5c8	0.09275395
164	0xbd4b79fa	-0.049676873
165	0x3e06d8a4	0.1316858
166	0x3dc8956c	0.09794125
167	0x3de287c3	0.11061051
168	0x3e17b3c3	0.14814667
169	0xbda783cb	-0.081794344
170	0xbdf1ad2b	-0.11800607
171	0x3cf42bc3	0.029806023
172	0x3c8d6764	0.017261215
173	0x3d342dc6	0.043988965
174	0x3baf2cd2	0.005345919
175	0xbe2f4961	-0.17117836
176	0x3db87076	0.09005825
177	0xbe392081	-0.18078806
178	0x3dd960e2	0.10614182
179	0x3cd6d8be	0.026226398
180	0xbe0af3f7	-0.13569628
181	0x3c919418	0.017770812
182	0xbe1c9ece	-0.15294954
183	0xbd1ee089	-0.038788352
184	0x3d10aa14	0.03531845
185	0x3dd8ad53	0.10579934
186	0x3d0e32ce	0.03471642
187	0x3d1fd478	0.039020985
188	0x3e4c752c	0.19966573
189	0xbe4ad3b7	-0.19807325
190	0xbddab3ba	-0.10678811
191	0xbc904c23	-0.01761443
192	0x3eb8ee30	0.36119223
193	0xbca30c2e	-0.019903269
194	0x39a8afe9	0.0003217452
195	0x3d73343d	0.05937599
196	0x3d4ee169	0.050507937
197	0xbe1f3206	-0.15546426
198	0x3d4726f8	0.048621148
199	0xbdf36474	-0.11884394
200	0xbb3d0405	-0.0028841507
201	0x3da6225d	0.08112023
202	0x3dda85ea	0.10670073
203	0xbc8e9abf	-0.017407773
204	0x3e24abc2	0.16081145
205	0x3e3b922b	0.18317477
206	0x3df26a52	0.11836685
207	0xbd8303dc	-0.063972205
208	0xbe2bda8a	-0.16782585
209	0xbd758aa8	-0.059946686
210	0xbe0eeb34	-0.1395691
211	0x3e22d302	0.15900806
212	0x3ea0c6ca	0.31401664
213	0x3bd08634	0.0063636545
214	0x3d806cd8	0.0627076
215	0x3d480d52	0.04884083
216	0x3ccf2635	0.025286773
217	0x3dfe1a6b	0.124073826
218	0xbcfff066	-0.03124256
219	0xbd1d0149	-0.038331304
220	0x3dd797fe	0.10527037
221	0x3e194416	0.14967379
222	0x3db5dd74	0.088801295
223	0x3b6ecf14	0.0036439346
224	0xbd957136	-0.07296984
225	0x3c4f7f81	0.012664677
226	0x3dbc4274	0.091923624
227	0xbe0e6c36	-0.13908467
228	0x3d4c2373	0.049838495
229	0x3d0cf54c	0.03441362
230	0x3d948a47	0.07252937
231	0x3ddb1817	0.10697954
232	0x3ddbb0fc	0.107271165
233	0x3ea21e12	0.31663567
234	0xbe4a3f5e	-0.19750735
235	0xbdfe2fb1	-0.1241144
236	0xbe54f44a	-0.20796314
237	0x3d24ce8e	0.04023605
238	0xbdd9f9c1	-0.1064334
239	0x3e89d1f6	0.26918
240	0x3e1f1740	0.15536213
241	0xbd15d2f3	-0.03657813
242	0x3e4dbaaa	0.20090738
243	0xbdfe5dcb	-0.12420233
244	0x3c001102	0.007816555
245	0x3e23ac21	0.1598363
246	0x3cb06ad4	0.021535315
247	0x3d09decd	0.033659745
248	0xbddba2bd	-0.10724399
249	0xbc7debdd	-0.015498129
250	0xbd86d690	-0.06583893
251	0x3d0022c4	0.031283155
252	0x3e19d38f	0.1502211
253	0xbddea1f1	-0.108707316
254	0x3b0a7840	0.0021128803
255	0x3dadb68e	0.08482085

net.4.bias f4 [6]
0	0x3e1dd850	0.15414548
1	0x3e84ead2	0.25960404
2	0x3e4aecb1	0.19816853
3	0x3e0afd08	0.13573086
4	0xbf8ddea7	-1.1083573
5	0xbf78277c	-0.9693525
