results/double_dqn/seed_11/double_dqn_target.pt (torch, 233875 bytes, 7 tensors)

embed.weight f4 [500, 64]
0	0xbf02c3a1	-0.51079756
1	0x3f839e69	1.0282718
2	0xbeb4d049	-0.3531516
3	0x3dfbe2df	0.122991316
4	0xbe39e96a	-0.18155447
5	0xbfbfa52c	-1.4972281
6	0x3e1183da	0.14210454
7	0xbf063760	-0.52428246
8	0xbe7eb4f1	-0.24873711
9	0xbf0675f9	-0.5252376
10	0x40391a07	2.8922136
11	0xbf183f23	-0.5947134
12	0x3fa7ea26	1.3118331
13	0x3eb450db	0.35217938
14	0xbfa855fe	-1.3151243
15	0xbc02f1bd	-0.007992205
16	0x3e7dd443	0.24788003
17	0x3fc94e59	1.5727035
18	0xbfd1d9f9	-1.6394645
19	0xbfcbd819	-1.5925323
20	0xbe1e560c	-0.15462512
21	0xbf8c581b	-1.0964388
22	0x3faeecac	1.3665977
23	0x3f3074c8	0.68928194
24	0xbec9797a	-0.39350492
25	0x3f1dfa46	0.6171001
26	0x3f40ba23	0.7528402
27	0x3f1a2d33	0.6022522
28	0x40011f6a	2.0175424
29	0xbf9595a6	-1.1686294
30	0xbfa97f32	-1.3241942
31	0x3f903922	1.1267436
32	0xbe66f41f	-0.22554062
33	0x3f059217	0.5217604
34	0xc003d358	-2.0597744
35	0x3e0da870	0.13833785
36	0x3efe0aa2	0.49617487
37	0xbf1af399	-0.6052795
38	0xbf4cfa48	-0.800694
39	0x3e22759e	0.1586518
40	0x3f367822	0.7127706
41	0xbf3e6b1d	-0.7438219
42	0x3e8f6655	0.2800776
43	0x3ebf3a2d	0.37349072
44	0x403faef7	2.995054
45	0xbe838e11	-0.25694326
46	0xbf2f0d58	-0.68379736
47	0x3f87f381	1.0621186
48	0xbca81505	-0.020517835
49	0xbf2168f2	-0.6305076
50	0x3f0c6b03	0.54850787
51	0xbfcb5426	-1.5885055
52	0x3f072f33	0.52806395
53	0x3f657a54	0.8963978
54	0x3f7f5abf	0.9974784
55	0xbe5cbeec	-0.21557206
56	0x3fa9cde0	1.3265953
57	0xbdde7f1b	-0.10864087
58	0xbf83647c	-1.026504
59	0x3d327df3	0.043577146
60	0xbf78ee48	-0.9723859
61	0x3e8f8248	0.28029084
62	0x3f11ea8e	0.5699853
63	0x3fbdf787	1.4841164
64	0xbf98e8bf	-1.1946028
65	0xbe410d95	-0.18852837
66	0xbf0e4324	-0.555712
67	0x3e8b3fef	0.27197215
68	0xbf841a05	-1.032044
69	0xbf675eb2	-0.9037887
70	0x3fc44840	1.5334549
71	0x3e6495ea	0.22322813
72	0xbf343f74	-0.7040932
73	0xbfadb5c8	-1.35711
74	0xbd5e71d9	-0.054307792
75	0x3f65567c	0.8958509
76	0x3f42036c	0.7578647
77	0x3f791a9d	0.97306234
78	0xbf998098	-1.1992369
79	0x3e003b1b	0.12522547
80	0x3f4858fb	0.78260773
81	0x3d902522	0.070383325
82	0xbebed926	-0.37275046
83	0xbf577e9d	-0.8417757
84	0xbeee7763	-0.4657546
85	0xc00a49f4	-2.1607637
86	0x3f417361	0.7556668
87	0x3f7af8ec	0.98036075
88	0x3e97ddf5	0.29661527
89	0xbd1787ee	-0.036994867
90	0x3f2300b4	0.6367295
91	0xbdf40ea7	-0.11916857
92	0x3fe28213	1.7695946
93	0x3f2d5b7c	0.6771772
94	0xbfaa9910	-1.3327961
95	0x3e584712	0.21120861
96	0x3f115218	0.5676589
97	0xbe8ce3cc	-0.27517545
98	0xbef201f3	-0.47267112
99	0x3f83dff6	1.0302722
100	0xbec2e9ab	-0.380689
101	0xbfcbbcc1	-1.5916978
102	0x3e3e2970	0.18570495
103	0xbf197d7d	-0.59957105
104	0x3fccf41f	1.6012
105	0x3f1f654e	0.62263954
106	0xbf832205	-1.0244757
107	0x3f9b0805	1.2111822
108	0xbf41eefa	-0.75755274
109	0x3f90930d	1.1294876
110	0x3eb50e94	0.35362685
111	0x3efd7dbc	0.4950999
112	0x3f676203	0.9038393
113	0xbf3882b4	-0.7207444
114	0x3e8f613e	0.28003877
115	0xc00ae030	-2.1699333
116	0xbf735e64	-0.95065904
117	0xc00b185a	-2.1733613
118	0x3d616f1e	0.05503761
119	0xbcd53e12	-0.026030574
120	0x3f35ff90	0.7109308
121	0xbff53229	-1.9155933
122	0xbf235b9c	-0.6381166
123	0x3f85bd6c	1.0448432
124	0x3c1b1508	0.009465463
125	0x3f3e1eb2	0.7426559
126	0xbf2c3977	-0.67275184
127	0x3f196b65	0.59929496
128	0xbf10c9d8	-0.5655799
129	0xbf8cb756	-1.099345
130	0x3f8a84ee	1.0821817
131	0x401bd032	2.4345822
132	0xbf47b695	-0.78012973
133	0x3e99cea4	0.30040467
134	0x3f58927a	0.84598505
135	0xbf0e58c0	-0.5560417
136	0x3f2de055	0.6792043
137	0x3ed7a0ff	0.42115018
138	0x3f405c9a	0.751413
139	0x3f9ac3b9	1.209098
140	0xbede81c9	-0.43458393
141	0xbfa8bc3b	-1.3182443
142	0xbe31c0d6	-0.17358717
143	0xbf339b3d	-0.7015875
144	0x3f55cc64	0.83515
145	0xbf53ab45	-0.8268321
146	0x3e575b8d	0.21031018
147	0xbf685d5b	-0.9076745
148	0x3fc021e0	1.5010338
149	0xbdb38d43	-0.08767178
150	0xbf375d91	-0.71627146
151	0xbfefb544	-1.8727193
152	0x3f7cbd50	0.9872637
153	0x3f9197e1	1.1374475
154	0x3f7a0f2c	0.976794
155	0x3f41c0e0	0.7568493
156	0xbe97962a	-0.29606754
157	0x3d7f973f	0.0624001
158	0x3ee70629	0.45121887
159	0x3f41c036	0.75683916
160	0x4006be17	2.1053522
161	0x3ebabc26	0.3647167
162	0x3ec36c39	0.38168505
163	0xbfcf2f08	-1.6186228
164	0x3ef5f049	0.48034886
165	0xbfa486ed	-1.2853676
166	0xbd5c2aa6	-0.05375161
167	0xbf2ccb32	-0.6749755
168	0x3f676b89	0.9039846
169	0xbfb9ef22	-1.4526103
170	0x3ed9587e	0.42450327
171	0xbf562bf9	-0.83660847
172	0x3f26aaaa	0.6510416
173	0xbf4f633c	-0.81010795
174	0x3f38f4dc	0.72248626
175	0xbf443c3b	-0.76654404
176	0xbfe5eaf8	-1.7962332
177	0x3e2ae363	0.16688304
178	0xbe568090	-0.2094748
179	0xbf60d3e5	-0.87823325
180	0xbffae2fd	-1.9600521
181	0xc02311fa	-2.5479722
182	0x3f8424f3	1.0323776
183	0x3fa7d74f	1.3112582
184	0x3f7bb991	0.98330027
185	0x3f1222d4	0.57084394
186	0xbe64056c	-0.22267693
187	0x3e27a62f	0.16371988
188	0xbe7a61ed	-0.24451418
189	0x3f141308	0.5784154
190	0x3f6673b9	0.9002033
191	0x3fc3c60c	1.5294814
192	0xbfb99530	-1.4498653
193	0xbf8a0a5b	-1.078441
194	0xbdcef03f	-0.10104417
195	0xbeddf1fd	-0.43348685
196	0xbee78ef6	-0.45226258
197	0x3d76d0cb	0.060257714
198	0xbec4e63c	-0.38456905
199	0xbf9d1b78	-1.2274008
200	0x3ee007be	0.43755907
201	0x3bb3d152	0.0054875994
202	0xbfce8812	-1.6135275
203	0xbf0b5ba6	-0.5443672
204	0x3fb72255	1.4307352
205	0xbed65889	-0.41864422
206	0x3f897589	1.0738994
207	0x3f429a96	0.7601713
208	0x3ecfa6ae	0.40556854
209	0x3ef67cdc	0.48142135
210	0xbfa3bd2c	-1.2792106
211	0xbeb88d7b	-0.3604544
212	0xbf60a951	-0.87758356
213	0x3f234308	0.63774157
214	0x40158f2a	2.336863
215	0x3fb68187	1.4258279
216	0x3f29015c	0.660177
217	0xbfbd44f4	-1.4786668
218	0xbe865d8f	-0.26243255
219	0xc014db62	-2.32589
220	0x3e80f702	0.25188452
221	0xbfe7c915	-1.810824
222	0x3f14024b	0.57816
223	0x3f22241a	0.63336337
224	0xbfd449af	-1.6584986
225	0xbe1198ca	-0.1421844
226	0xbe70cbbe	-0.23515221
227	0x3f8e750c	1.112947
228	0xbceeb0ef	-0.029137103
229	0xbf9cc745	-1.2248312
230	0x3d2e5c72	0.04256863
231	0xbff98e4d	-1.9496552
232	0xbf83b18a	-1.0288556
233	0xbecbb355	-0.39785257
234	0x3ece0926	0.40241355
235	0x3f1a0227	0.60159534
236	0x3f6ed2cf	0.9329042
237	0xbe1f5943	-0.15561394
238	0x3f831d7d	1.0243374
239	0x3eac59f2	0.33662373
240	0xbf761df7	-0.9613947
241	0xbff3c7bd	-1.904533
242	0x3f142938	0.57875395
243	0xbf983e15	-1.1893946
244	0x3d50841c	0.05090724
245	0x3eb675e5	0.3563682
246	0x3f3362ff	0.7007293
247	0x3f693f48	0.91112185
248	0x4000f335	2.0148442
249	0x3ea342d0	0.3188691
250	0xbe1814e6	-0.14851722
251	0xbef89d22	-0.48557383
252	0xbf0a148b	-0.53937596
253	0xbe28e1d4	-0.16492397
254	0xbe6314d0	-0.22175908
255	0xbe821321	-0.2540522

net.0.weight f4 [128, 64]
0	0xbe1075a6	-0.1410738
1	0xbe2e055c	-0.16994232
2	0xbee2d25e	-0.44301122
3	0xbd38897f	-0.045053
4	0xbed75a60	-0.42061138
5	0x3ea60d0f	0.32431838
6	0x3e3e8e0e	0.18608877
7	0xbd86ee66	-0.0658844
8	0xbe8247a2	-0.25445276
9	0xbdc8b697	-0.09800451
10	0x3e0195d4	0.12654811
11	0x3b3e296c	0.0029016389
12	0xbeab8aed	-0.3350443
13	0xbe413c4f	-0.18870662
14	0xbe88625e	-0.26637548
15	0x3ea80f8a	0.32824355
16	0xbec2373e	-0.3793277
17	0xbe440363	-0.19141917
18	0xbe111605	-0.14168556
19	0xbe722df0	-0.23650336
20	0x3ed6b499	0.4193466
21	0xbbf3a160	-0.007435009
22	0xbd440029	-0.047851715
23	0x3d5da5c2	0.054113157
24	0xbd7cf462	-0.0617565
25	0x3ce9b375	0.028527955
26	0xbdeef86e	-0.11668478
27	0xbbfa0831	-0.007630371
28	0xbdf302e8	-0.11865789
29	0x3dad68f8	0.08467287
30	0xbe9a01ea	-0.30079585
31	0x3d9ae5c6	0.07563357
32	0x3e35540c	0.17707843
33	0x3d348cc5	0.04407956
34	0x3ebd0a54	0.36921942
35	0x3d2639cd	0.040582467
36	0xbe9491e1	-0.29017547
37	0xbdf1a5a9	-0.11799175
38	0x3eb82294	0.3596388
39	0xbd647475	-0.055775125
40	0xbea2e6d6	-0.3181674
41	0xbddaa690	-0.106763005
42	0xbe42be95	-0.19018014
43	0x3e557c85	0.20848282
44	0x3e53f588	0.20699131
45	0x3e5e0089	0.21679892
46	0x3e65bf19	0.22436179
47	0xbe9c0e4b	-0.30479655
48	0xbe393f85	-0.18090637
49	0x3e4587b9	0.19290055
50	0x3eb7b739	0.35881975
51	0x3e1a2ff5	0.15057357
52	0x3d95c65f	0.07313227
53	0xbdb8d0ab	-0.09024175
54	0xbbe689d7	-0.0070354748
55	0x3e9073a6	0.28213233
56	0xbe03aeaa	-0.12859598
57	0xbe4da482	-0.20082286
58	0xbdaff665	-0.08591918
59	0xbd172b89	-0.036906753
60	0x3e140d4f	0.14458202
61	0x3e15b1b1	0.14618565
62	0x3e9beff7	0.30456516
63	0x3da914a0	0.08255887
64	0x3d0c1a93	0.03420503
65	0xbe873e7c	-0.2641486
66	0xbd68162b	-0.056661766
67	0xbe208763	-0.15676646
68	0xbe73f2e3	-0.23823123
69	0xbda67e0f	-0.081295125
70	0xbe09daf4	-0.1346243
71	0x3d644b9f	0.05573618
72	0xbe96ae66	-0.2942993
73	0xbe316a69	-0.17325749
74	0x3e21bb44	0.15794092
75	0xbe7f67fa	-0.24942008
76	0xbc6e1503	-0.014531377
77	0xbd1809f5	-0.03711887
78	0x3e2d992e	0.16952965
79	0x3e90c5b6	0.2827584
80	0xbe8b63e3	-0.27224645
81	0x3d9dc9e1	0.07704521
82	0x3df053c0	0.11734724
83	0xbca55c01	-0.020185472
84	0x3e82918e	0.25501674
85	0xbe58b10f	-0.21161292
86	0x3ea8bd36	0.32956856
87	0x3e9d3861	0.30707076
88	0xbe8bf53a	-0.2733553
89	0xbdfa63be	-0.122260556
90	0xbe4cfb1c	-0.20017666
91	0x3db06d68	0.086146176
92	0x3e7a21de	0.24426982
93	0xbeeb0dfe	-0.45909113
94	0xbe9085f5	-0.282272
95	0xbe91eca6	-0.2850086
96	0xbebfc150	-0.37452173
97	0x3e18a5d3	0.14907007
98	0xbd5266a8	-0.051367432
99	0x3ce42bb0	0.027852863
100	0x3e2ab107	0.16669093
101	0xbf444f64	-0.7668364
102	0x3b105299	0.0022021888
103	0x3e44ab47	0.19205962
104	0x3dd3cb3c	0.10341498
105	0x3ec8d809	0.39227322
106	0x3edfc0fa	0.43701917
107	0x3e3abbb9	0.18235673
108	0x3f0e9c74	0.5570748
109	0xbc6c2cba	-0.0144149605
110	0x3d44155d	0.047871936
111	0x3d7e395d	0.062066425
112	0xbe4739c6	-0.19455633
113	0x3eccf4d3	0.40030536
114	0x3e398e22	0.18120626
115	0x3e5a22a1	0.21302272
116	0x3e500819	0.20315589
117	0xbdff8102	-0.12475778
118	0xbea4f9d2	-0.32221848
119	0x3e51858f	0.20461105
120	0x3ea692c9	0.32533863
121	0xbe686b2d	-0.22697134
122	0xbd6f25ae	-0.058385544
123	0x3f1d8f2d	0.61546594
124	0xbd7e0eed	-0.062025953
125	0x3d756c6d	0.059917856
126	0xbf03f1ed	-0.51541024
127	0xbe13a4a0	-0.14418268
128	0xbebd7e88	-0.37010598
129	0x3ee0d0a8	0.43909192
130	0xbede5757	-0.4342601
131	0xbde6ccf9	-0.11269564
132	0xbb966052	-0.004589119
133	0x3e72e376	0.23719582
134	0x3d4c84a7	0.049931195
135	0x3e8432bd	0.2581996
136	0xbeb5a965	-0.354808
137	0x3de6577d	0.11247156
138	0xbe4d5631	-0.2005241
139	0xbd90f29d	-0.07077525
140	0xbe6aaf88	-0.22918522
141	0xbe5d8b60	-0.21635199
142	0x3d65b9ea	0.056085505
143	0xbe5569e4	-0.20841175
144	0xbec3ba7d	-0.38228217
145	0xbea08893	-0.31354198
146	0xbdad675d	-0.084669806
147	0xbec7658a	-0.38944656
148	0xbea80b87	-0.32821295
149	0xbe30a107	-0.17248927
150	0xbe3b0e1b	-0.182671
151	0x3c6e053c	0.014527615
152	0xbe3030c5	-0.17206104
153	0xbdbdb9c8	-0.092639506
154	0xbe708fce	-0.23492357
155	0x3eeafd9d	0.45896617
156	0x3e1ca1d8	0.15296113
157	0x3e84aa2b	0.25911078
158	0x3f1c8d23	0.6115286
159	0x3f11f542	0.5701486
160	0xbed7f2e6	-0.42177504
161	0x3d827921	0.0637076
162	0x3e67e8a0	0.22647333
163	0xbd05a040	-0.03262353
164	0xbdd5a62d	-0.10432086
165	0xbddb7c85	-0.107171096
166	0x3e0378ae	0.12839004
167	0x3ede7af6	0.43453187
168	0x3e5d1e69	0.21593632
169	0xbd1fb09e	-0.038986795
170	0x3c5a6af3	0.013331163
171	0xbf46f5fe	-0.77719104
172	0x3e4572a0	0.19282007
173	0x3e925f58	0.28588367
174	0x3d84d394	0.06485668
175	0x3d104810	0.035224974
176	0x3f13af36	0.57689226
177	0x3f02d80d	0.5111092
178	0x3e97aec0	0.2962551
179	0x3e6fc23b	0.23413937
180	0x3dafc554	0.08582559
181	0x3e5f6474	0.21815664
182	0x3e1967c5	0.14980991
183	0xbdcbd31a	-0.09952374
184	0xbf0822bc	-0.53178
185	0xbd8cada5	-0.068690576
186	0xbee224a8	-0.44168591
187	0xbf0a7e19	-0.5409866
188	0x3f07a96d	0.529929
189	0xbeb6426a	-0.35597545
190	0x3e71fc5a	0.2363142
191	0xbe59b7d9	-0.21261539
192	0xbf099788	-0.53746843
193	0xbe2df296	-0.1698707
194	0x3e069f94	0.13146812
195	0xbe2faa0a	-0.17154709
196	0x3e475d79	0.1946925
197	0x3eacba2a	0.33735782
198	0xbe9f2f47	-0.31090757
199	0xbea91349	-0.33022526
200	0xbe948ca0	-0.29013538
201	0x3e1e1809	0.15438856
202	0xbe800ab0	-0.25008154
203	0xbe6bd0c8	-0.23028862
204	0xbe92dabb	-0.28682503
205	0xbef61c91	-0.4806867
206	0xbd2e92f1	-0.042620603
207	0x3c1c9869	0.009557822
208	0x3dd57135	0.10421983
209	0x3e964d8f	0.29356048
210	0xbd13a67e	-0.03604745
211	0x3e9e0f85	0.30871215
212	0x3e2771e8	0.16352046
213	0x3dabc062	0.083863035
214	0x3c320961	0.010866494
215	0xbe69e30a	-0.22840515
216	0x3ebe36d3	0.37151203
217	0x3f0fab1b	0.5612046
218	0x3e7c7c67	0.2465683
219	0x3da46dbf	0.08028745
220	0x3daf405b	0.08557197
221	0x3e7b72e9	0.24555553
222	0xbd8b9d7c	-0.06817147
223	0xbe00c1e0	-0.12573957
224	0x3e805959	0.25068167
225	0x3ed94061	0.4243193
226	0x3ecf63d7	0.4050586
227	0x3d729c8a	0.05923132
228	0xbf10bc20	-0.56537056
229	0x3c9ce1fa	0.019150723
230	0x3e0fd377	0.14045511
231	0xbd979c0b	-0.0740281
232	0x3ea5d69c	0.32390296
233	0x3eaccaae	0.33748382
234	0x3ea562b4	0.32301867
235	0xbe8ba31a	-0.27272874
236	0xbe56339b	-0.20918123
237	0x3e0a5fe7	0.13513146
238	0x3e7a295d	0.24429841
239	0x3e89a8e0	0.26886654
240	0xbe61c01b	-0.22045939
241	0xbe036791	-0.12832476
242	0xbe0480d2	-0.12939766
243	0x3dbc0d78	0.091822565
244	0x3e778d8d	0.24175091
245	0x3f2cd815	0.67517215
246	0xbf0ea020	-0.5571308
247	0x3ed196fe	0.4093551
248	0x3ed5ae54	0.41734564
249	0x3b4829ec	0.0030542566
250	0x3ea50f40	0.32238197
251	0x3e4f53bc	0.20246786
252	0x3cbe8b43	0.023259765
253	0x3e8a3034	0.269899
254	0xbe210de0	-0.15727949
255	0xbdde2888	-0.108475745

net.0.bias f4 [128]
0	0x3e995b5f	0.29952523
1	0xbe969a12	-0.2941442
2	0x3e552b86	0.20817384
3	0xbeb43d05	-0.35202804
4	0xbe454b59	-0.19267024
5	0xbee59bc6	-0.44845408
6	0xbed178e5	-0.40912548
7	0xbe83c19d	-0.25733653
8	0xbe7aa76d	-0.2447793
9	0xbe54fade	-0.20798823
10	0xbd901fea	-0.07037337
11	0xbe618b3c	-0.2202577
12	0xbd464142	-0.04840208
13	0xbea1db15	-0.3161246
14	0xbdb99a4d	-0.09062634
15	0xbed55446	-0.41665858
16	0xbd6d5be3	-0.057948958
17	0xbe36b3a8	-0.17841971
18	0xbe89ae2f	-0.26890704
19	0x3dd7b355	0.10532252
20	0xbe540005	-0.20703132
21	0xbe99fffd	-0.30078116
22	0xbde6a711	-0.11262334
23	0xbdcd7552	-0.10032143
24	0xbe821d33	-0.25412902
25	0xbe98c736	-0.29839486
26	0x3e775cba	0.24156466
27	0x3e932bb1	0.2874427
28	0x3e97316b	0.2952989
29	0xbe62596e	-0.22104427
30	0xbd32d87d	-0.04366349
31	0xbf249990	-0.6429682
32	0x3e58794d	0.21140023
33	0xbd06f581	-0.032948975
34	0xbf1a3fc2	-0.60253537
35	0xbf0c5b22	-0.5482656
36	0x3db7a0bc	0.089662045
37	0x3cf3fb2d	0.029782856
38	0xbded5e3a	-0.11590238
39	0x3d926cd3	0.07149663
40	0xbd931926	-0.07182531
41	0xbdcad158	-0.099032104
42	0xbd83cd3c	-0.0643563
43	0x3cd7caef	0.026341883
44	0xbda2d14f	-0.07950079
45	0xbec7646d	-0.38943806
46	0x3d37d95d	0.04488503
47	0x3ef58f03	0.47960672
48	0xbef40409	-0.4765933
49	0x3dbddf77	0.09271138
50	0xbef814d7	-0.484534
51	0xbebb8f37	-0.36632702
52	0xbe93698b	-0.2879146
53	0xbf0aa1e7	-0.54153293
54	0x3cd893c3	0.026437646
55	0x3d83be15	0.0643274
56	0xbe5dc89b	-0.21658556
57	0x3d9849a4	0.07435921
58	0xbf235ee4	-0.63816667
59	0xbe48e678	-0.19619167
60	0xbe89fb3d	-0.26949492
61	0xbc21346a	-0.009839157
62	0x3f2a47cf	0.6651582
63	0xbf0ec30e	-0.5576638
64	0xbe9dcb4d	-0.3081917
65	0xbe8f6886	-0.28009433
66	0xbdb5b1be	-0.08871792
67	0xbecb1ebd	-0.3967189
68	0xbe64bacf	-0.22336887
69	0xbe16e211	-0.14734675
70	0xbddbdf51	-0.107359536
71	0xbe73c775	-0.23806556
72	0x3bcd01f5	0.006256337
73	0xbef3bc18	-0.47604442
74	0xbe0147ad	-0.12624998
75	0x3e16dc18	0.14732397
76	0xbd30515e	-0.043046348
77	0xbee27b1e	-0.44234556
78	0xbe54a9f1	-0.20767953
79	0x3e500904	0.20315939
80	0xbe4c032d	-0.19923086
81	0xbf4a6ad3	-0.7906925
82	0xbef5ac19	-0.47982863
83	0xbd93bbfe	-0.07213591
84	0x3e633898	0.22189558
85	0x3ee248c8	0.44196153
86	0xbd757818	-0.059928983
87	0xbe94bcde	-0.29050344
88	0xbee839e9	-0.45356682
89	0xbf18ac5d	-0.59638005
90	0xbe5d828b	-0.2163183
91	0xbed9151f	-0.42398927
92	0x3dcd1121	0.10013033
93	0xbea33f82	-0.3188439
94	0xbe27a561	-0.16371681
95	0xbf4ecb23	-0.8077871
96	0xbf00369f	-0.50083345
97	0xbf0e0293	-0.5547268
98	0xbe935f5b	-0.28783688
99	0x3e929e14	0.2863623
100	0x3e2ff4fc	0.17183298
101	0x3cf500d4	0.029907621
102	0x3e58e292	0.2118018
103	0xbed984b4	-0.42484057
104	0xbebc1b3e	-0.36739534
105	0xbe9d63f5	-0.30740324
106	0xbe4dca9b	-0.20096819
107	0xbe1a0ba3	-0.15043502
108	0xbe7fe16c	-0.24988335
109	0xbf167d72	-0.58785164
110	0xbf18e93b	-0.5973088
111	0x3ea11394	0.3146025
112	0xbf131a06	-0.57461584
113	0xbeb1fa8d	-0.34761468
114	0xbec3972a	-0.38201267
115	0x3e926fcb	0.28600916
116	0xbe5850b2	-0.21124533
117	0xbe752673	-0.23940448
118	0xbcb234bb	-0.02175366
119	0x3d72f1db	0.059312683
120	0xbf0be126	-0.54640424
121	0xbda723d4	-0.081611305
122	0xbebd2c36	-0.36947793
123	0xbe27d1c5	-0.16388614
124	0xbeaa996f	-0.33320186
125	0xbf06ecc2	-0.52705014
126	0xbf13923e	-0.5764502
127	0xbd18c1c1	-0.037294153

net.2.weight f4 [128, 128]
0	0xbd607154	-0.054795578
1	0xbeb2ee6e	-0.34947532
2	0x3b2c542c	0.0026295288
3	0x3dd025e0	0.10163474
4	0xbde883fe	-0.113533005
5	0x3d6aaaed	0.057291914
6	0x3d01b685	0.031668205
7	0x3d9d54ce	0.07682191
8	0xbec14372	-0.3774677
9	0xbe14084b	-0.14456289
10	0xbe426741	-0.189847
11	0xbd1892b8	-0.037249297
12	0xbe3c6d1c	-0.18400997
13	0x3e06f84d	0.13180657
14	0xbd862b13	-0.065511845
15	0x3e03590f	0.12826942
16	0xbe92db68	-0.2868302
17	0xbdc6cf78	-0.0970754
18	0xbe98ea50	-0.29866266
19	0xbddd47d9	-0.108047195
20	0xbdd9b2d1	-0.1062981
21	0xbe77f746	-0.24215421
22	0xbea790b5	-0.3272759
23	0xbd3c9ea8	-0.046049744
24	0x3e71d6db	0.23617117
25	0x3d92faa6	0.07176714
26	0xbdc1d05a	-0.09463568
27	0xbe333ef5	-0.17504485
28	0x3df22117	0.11822718
29	0xbd8f4798	-0.06996077
30	0xbe01fe06	-0.12694559
31	0x3d815b64	0.063162595
32	0xbe58b442	-0.21162513
33	0xbd9f6e15	-0.07784668
34	0xbe0e2812	-0.13882473
35	0xbe84fc06	-0.2597353
36	0xbe15570d	-0.14583988
37	0x3dadb0cd	0.08480988
38	0xbe9749cb	-0.29548487
39	0xbe85f161	-0.2616072
40	0xbead6b84	-0.3387109
41	0xbeeac7cb	-0.45855555
42	0xbe8d0748	-0.27544618
43	0xbef51d8d	-0.47874108
44	0xbd4268ba	-0.047463156
45	0xbd91c650	-0.07117903
46	0xbe3adf75	-0.18249305
47	0xbddef1c6	-0.108859584
48	0xbf18b4f1	-0.59651095
49	0xbd6c7f4b	-0.057738584
50	0xbde21ba1	-0.11040426
51	0xbe859bfd	-0.26095572
52	0xbe5504b2	-0.20802572
53	0xbe348d75	-0.17632087
54	0xbe9f79bd	-0.31147566
55	0xbd38520f	-0.045000132
56	0xbb4a628d	-0.0030881495
57	0xbe8a044c	-0.26956403
58	0x3e5a3a33	0.21311264
59	0x3e2624a3	0.16224913
60	0xbe6c9e2e	-0.23107216
61	0xbdcc8c37	-0.09987681
62	0x3e515605	0.2044297
63	0xbe9c4422	-0.3052073
64	0xbe9e0cd0	-0.3086915
65	0xbe716742	-0.23574546
66	0xbe134e50	-0.14385343
67	0xbdcf2013	-0.101135395
68	0xbcd6f14a	-0.026238102
69	0xbd567050	-0.052353203
70	0xbd9b7f16	-0.07592599
71	0xbe01ca1c	-0.12674755
72	0xbe0f2f85	-0.13982971
73	0xbebc968c	-0.36833608
74	0xbd86e094	-0.06585804
75	0xbeb4f0bf	-0.35339925
76	0x3cc19bf7	0.02363394
77	0xbeadac96	-0.33920735
78	0x3cc9b3fc	0.024621956
79	0xbe794c7c	-0.24345583
80	0x3e62b5e1	0.22139694
81	0xbeaf9d5f	-0.34299752
82	0xbe7b6dfb	-0.24553673
83	0xbe5e52fa	-0.2171134
84	0x3db9f895	0.090806164
85	0x3e7a48f9	0.244419
86	0xbe402c3a	-0.18766871
87	0xbe2c5e50	-0.16832852
88	0xbd5b3287	-0.053514984
89	0xbe6cdc86	-0.23130998
90	0x3e28b75d	0.16476198
91	0xbc812d34	-0.015768625
92	0x3ddc0675	0.10743419
93	0xbeb33185	-0.34998718
94	0xbe07d7be	-0.13265893
95	0xbe1e98ec	-0.15488023
96	0x3cc28328	0.02374418
97	0xbc89012a	-0.016724188
98	0xbd97666a	-0.07392581
99	0xbd77fa4c	-0.060541436
100	0xbd63f535	-0.05565377
101	0xbddbb992	-0.10728754
102	0xbe65f0ff	-0.22455214
103	0xbc8e1a10	-0.017346412
104	0x3dc77901	0.097398765
105	0xbe1f5910	-0.15561318
106	0xbecbaac4	-0.3977872
107	0xbe444bf9	-0.19169606
108	0xbab6aa4a	-0.0013936248
109	0xbe16c436	-0.14723286
110	0xbe069443	-0.13142495
111	0x3b8f8b6b	0.0043806336
112	0xbc766ae8	-0.015040137
113	0xbc334b67	-0.01094327
114	0xbde7b157	-0.11313122
115	0xbe1608ab	-0.14651744
116	0xbdb15d8c	-0.08660421
117	0xbe8f33a4	-0.27969086
118	0xbe48eb7a	-0.19621077
119	0xbe5c66ba	-0.21523562
120	0xbde8c4bd	-0.1136565
121	0xbe83e150	-0.25757837
122	0xbdb63ed6	-0.08898704
123	0xbd4fecf0	-0.05076307
124	0x3d50d6ef	0.050986227
125	0xbe81703c	-0.2528094
126	0xbe8af367	-0.27138826
127	0xbdd75e21	-0.105160005
128	0xbea48553	-0.32132968
129	0xbdbed4a4	-0.09317902
130	0xbc887cbc	-0.01666104
131	0x3e26cf5c	0.16290039
132	0xbdcf6578	-0.101267755
133	0x3e71ac29	0.2360083
134	0x3dde542d	0.10855899
135	0x3c193aa6	0.009352362
136	0xbd84c40c	-0.064827055
137	0x3ea5c9d2	0.3238054
138	0x3e736854	0.23770267
139	0xbdfbf932	-0.123033896
140	0xbdcbfb8c	-0.09960088
141	0xbcd1ade9	-0.025595622
142	0xbe791e79	-0.2432803
143	0xbd9b4d57	-0.07583111
144	0xbdeaa87f	-0.11457919
145	0x3e753ce5	0.2394901
146	0x3c3f3444	0.011670176
147	0x3e293305	0.16523369
148	0x3dda6396	0.10663526
149	0x3eca4a3a	0.39509755
150	0xbd8fdda2	-0.07024695
151	0x3ecb17e8	0.39666677
152	0xbdb7f357	-0.0898196
153	0x3dca9079	0.09890837
154	0x3e8b00d0	0.27149057
155	0x3dba9f08	0.09112364
156	0x3d11a5e9	0.035558615
157	0xbcddd51b	-0.027079156
158	0xbe93524a	-0.2877372
159	0x3db6832d	0.089117385
160	0xbe403a57	-0.18772255
161	0xbe93a97b	-0.2884024
162	0xbdacc21b	-0.0843546
163	0x3eba8816	0.3643195
164	0xbe1a7fe9	-0.15087856
165	0xbe87d442	-0.26529127
166	0xbe0a98f6	-0.13534912
167	0x3dbe8146	0.09302001
168	0xbdc6e199	-0.09710998
169	0x3dc961bd	0.09833095
170	0xbec38189	-0.38184765
171	0x3efd41fb	0.49464402
172	0x3d2ff0dc	0.04295431
173	0x3d5f8ba7	0.054576542
174	0x3e896905	0.26837936
175	0xbdc49f8d	-0.096007444
176	0x3ebcbb83	0.3686181
177	0x3d8c6983	0.06856062
178	0x3d87c7d0	0.06629908
179	0x3c840a8d	0.016118312
180	0x3c29f38c	0.0103730075
181	0xbdb514cf	-0.088418595
182	0x3d1cb6c3	0.038260233
183	0x3e9689c6	0.29401988
184	0x3d93cd20	0.07216859
185	0x3e99f0e6	0.30066603
186	0xbecfeeea	-0.40611964
187	0x3d000e9a	0.031263925
188	0xbe1e6cb4	-0.15471154
189	0x3c731587	0.0148366755
190	0xbe046dd6	-0.12932524
191	0x3e47cb26	0.19511089
192	0xbe41f2c1	-0.1894026
193	0xbead6cea	-0.33872157
194	0xbe393154	-0.18085223
195	0xbe6addf2	-0.22936228
196	0xbce2f21e	-0.027703341
197	0x3d615248	0.05501011
198	0xbeec4106	-0.4614336
199	0x3d02e2fa	0.031954743
200	0xbd12561d	-0.035726655
201	0xbe1b5b00	-0.15171432
202	0x3e895596	0.2682311
203	0xbcbaed2c	-0.02281817
204	0xbc0ef933	-0.008726406
205	0xbe8402f1	-0.25783494
206	0x3d98c5e0	0.07459617
207	0xbdbdd150	-0.09268439
208	0x3c1a6f7b	0.009425993
209	0x3e871695	0.26384416
210	0x3d7fbbd2	0.06243498
211	0x3e75d2fa	0.24006262
212	0x3e237df3	0.15966015
213	0xbdc5e67e	-0.096631035
214	0x3e842a65	0.25813594
215	0x3e5f8875	0.21829398
216	0xbdf2018d	-0.11816702
217	0xbe4cace7	-0.19987832
218	0xbdef3a14	-0.116809994
219	0x3ebf5930	0.37372732
220	0xbdf1299d	-0.11775515
221	0x3e1753a7	0.14778005
222	0xbdda220b	-0.106510244
223	0x3e083a88	0.13303578
224	0x3e6cad2a	0.23112932
225	0x3d97a9d4	0.07405439
226	0x3e89eedb	0.26940045
227	0x3dc936a4	0.09824875
228	0x3def2aa0	0.11678052
229	0xbe2a340f	-0.16621421
230	0x3da776d9	0.08176965
231	0xbdba7711	-0.09104741
232	0xbeb034ef	-0.34415385
233	0xbe04a4f6	-0.12953553
234	0xbdb200a5	-0.08691529
235	0x3df25981	0.11833478
236	0x3e871056	0.2637965
237	0xbe870662	-0.26372057
238	0xbdbd3b54	-0.092398316
239	0x3edc79e2	0.4306174
240	0xbd72b1c4	-0.05925156
241	0x3e619816	0.22030672
242	0x3d37f959	0.04491553
243	0x3eabff39	0.33593157
244	0x3e3d79a3	0.18503432
245	0xbd5017df	-0.050804015
246	0x3e89bf5b	0.26903805
247	0xbc705a6c	-0.014669996
248	0x3eb00199	0.3437622
249	0x3e9e953e	0.30973238
250	0x3e2821fb	0.16419213
251	0xbe817913	-0.25287685
252	0x3e9c0545	0.3047277
253	0x3d1800f9	0.037110303
254	0xbe9e02cb	-0.30861506
255	0xbd90dbcb	-0.07073172

net.2.bias f4 [128]
0	0x3e2765ab	0.16347377
1	0x3f6cfdbf	0.92574686
2	0x3e730361	0.23731758
3	0x3e9c9e43	0.30589494
4	0x3f052e88	0.52024126
5	0x3eb9bd1a	0.36277086
6	0xbdad26b3	-0.08454647
7	0xbe025c8f	-0.12730621
8	0x3f136a9e	0.5758456
9	0xbde5c050	-0.11218321
10	0x3ec189d1	0.37800458
11	0xbde116fe	-0.109907135
12	0x3f619318	0.8811507
13	0x3ed6151e	0.41812986
14	0x3f869cee	1.0516641
15	0x3f0e19a7	0.5550789
16	0xbe526ace	-0.20548555
17	0x3e3c0c84	0.1836415
18	0xbdbbf526	-0.09177618
19	0xbe82dbd0	-0.2555833
20	0xbe02b54d	-0.12764473
21	0xbdf379b2	-0.11888446
22	0x3ecc9ac3	0.39961824
23	0x3f8b3ee0	1.0878563
24	0xbdba497a	-0.09096046
25	0x3ed409b2	0.41413647
26	0xbe2a29e7	-0.16617547
27	0x3b628e74	0.0034569772
28	0x3de938ea	0.113878086
29	0x3e301540	0.17195606
30	0xbd96e70f	-0.0736829
31	0x3f0064ed	0.50154
32	0x3f629ee3	0.8852369
33	0x3ea26c0a	0.31723052
34	0x3d06d371	0.03291649
35	0x3f0c1801	0.5472413
36	0xbe1a8b76	-0.15092263
37	0x3f75d721	0.96031386
38	0xbd8aad97	-0.06771391
39	0x3e127238	0.14301383
40	0x3f16cb0a	0.58903563
41	0xbe060da7	-0.13091145
42	0x3f800936	1.0002811
43	0x3e61d02e	0.2205207
44	0xbd89ffd5	-0.06738249
45	0x3e17a0b3	0.14807396
46	0xbd9e744f	-0.07737028
47	0xbe23a8e7	-0.159824
48	0xbdcc369e	-0.09971355
49	0x3eaebbe7	0.34127733
50	0x3f65b89b	0.8973481
51	0x3e89225b	0.26784024
52	0x3e3d7730	0.18502498
53	0x3e009ce6	0.12559852
54	0xbe26b84d	-0.16281243
55	0x3d42bb6b	0.047542017
56	0xbbf3dd0c	-0.0074421223
57	0x3edac21d	0.42726222
58	0x3e49ef4d	0.19720192
59	0xbcb7cd0e	-0.022436645
60	0x3ef546c9	0.47905567
61	0x3ec03cff	0.37546536
62	0xbe4459f5	-0.19174941
63	0x3d58a366	0.052890204
64	0x3f003530	0.5008116
65	0xbe29f5c8	-0.16597664
66	0x3f05dae2	0.52287114
67	0x3cef1404	0.029184349
68	0x3efc23df	0.49246117
69	0xbd834479	-0.064095445
70	0x3d1ed432	0.038776584
71	0xb9f8ce11	-0.00047455778
72	0x3d7ab640	0.061208963
73	0x3d78027c	0.060549244
74	0x3e5bef93	0.21478109
75	0xbd36ce4b	-0.04463033
76	0xbc66b0f9	-0.0140802795
77	0xbd9b6fcd	-0.07589684
78	0x3ec4a02a	0.38403445
79	0xbe3af9de	-0.1825938
80	0xbc44412a	-0.011978427
81	0xbdf9bd91	-0.1219436
82	0xbd6dded3	-0.05807383
83	0xbc58ac9e	-0.013224749
84	0xbddd07fa	-0.10792537
85	0x3f0ff3c6	0.56231344
86	0xbdfc9c89	-0.12334544
87	0x3e875635	0.26432958
88	0x3f3b89b5	0.73257
89	0x3ea8de69	0.32982185
90	0x3ee6dd9f	0.45090958
91	0x3ed9663a	0.42460805
92	0x3cdee921	0.027210774
93	0x3f045bfd	0.5170286
94	0xbe42f4fe	-0.1903877
95	0x3decfe70	0.115719676
96	0xbca7009b	-0.02038603
97	0xbe0c9486	-0.13728532
98	0xbd47f627	-0.048818734
99	0xbce09f0a	-0.027419586
100	0xbd96fba7	-0.073722176
101	0x3e56715e	0.20941684
102	0xbe71e2fb	-0.23621742
103	0x3ef7a5ec	0.48368776
104	0xbde35ba9	-0.11101467
105	0x3ec79685	0.38982025
106	0x3e14a7a6	0.14517078
107	0xbe304ec4	-0.17217547
108	0x3e59abdf	0.2125697
109	0xbde6961f	-0.11259102
110	0x3be3b229	0.0069487286
111	0x3e870d64	0.26377404
112	0x3c7591f4	0.014988411
113	0x3dbb7266	0.09152679
114	0x3f572a71	0.84049135
115	0xbd274c19	-0.040844057
116	0x3a36b9de	0.00069704454
117	0xbca4ad28	-0.020102099
118	0x3e383320	0.17988253
119	0x3e6d5797	0.23177944
120	0x3d37b948	0.044854432
121	0x3eeeaf3e	0.46618074
122	0xbe0f769d	-0.14010091
123	0xbe01386f	-0.12619184
124	0x3dfc7968	0.12327844
125	0x3edf61b7	0.43629238
126	0x3ed233ac	0.41055048
127	0x3e1a7a2b	0.15085666

net.4.weight f4 [6, 128]
0	0xbda8d408	-0.08243567
1	0x3dd23834	0.10264626
2	0x3e512f3e	0.20428178
3	0x3e1f9d3c	0.15587324
4	0xbe3ea873	-0.18618946
5	0x3e28c79f	0.164824
6	0x3d25d090	0.040482104
7	0xbd1e1d6b	-0.038602274
8	0x3ddc6430	0.10761297
9	0xbd600e3a	-0.054701068
10	0xbd6aef7f	-0.057357308
11	0x3d741417	0.05958947
12	0x3e48f6ef	0.19625448
13	0x3e01a64c	0.12661093
14	0x3e186284	0.1488133
15	0x3e825a47	0.254595
16	0x3d267913	0.04064281
17	0x3e06b786	0.13155946
18	0xbdf860ad	-0.121278144
19	0xbd6dee63	-0.05808867
20	0x3d57405b	0.05255161
21	0x3d9e248a	0.07721813
22	0x3c474da2	0.012164505
23	0xbcbbab9a	-0.022908974
24	0x3c9a897b	0.018864384
25	0x3d448e2e	0.047987156
26	0xbd9e53b6	-0.0773081
27	0xbd14e1b6	-0.036348067
28	0x3d266f42	0.040633447
29	0x3e447d74	0.19188482
30	0x3d7998cf	0.060936745
31	0x3dbe375c	0.09287903
32	0xbd86c15f	-0.06579851
33	0xbeb8b8c9	-0.3607848
34	0x3e13b570	0.14424682
35	0xbdf792eb	-0.12088569
36	0x3d8c42fe	0.06848715
37	0x3c057e6b	0.008147816
38	0x3d6e1603	0.05812646
39	0xbd3373ad	-0.04381149
40	0x3e129ea6	0.14318332
41	0x3d20e900	0.039284706
42	0x3d501064	0.05079688
43	0xbe385a5f	-0.18003224
44	0x3d1e0a1d	0.038583864
45	0xbddc5c03	-0.10759737
46	0x3d045eb4	0.03231688
47	0x3e31c8bb	0.17361729
48	0xbd941d40	-0.072321415
49	0xbe0cab4e	-0.13737223
50	0xbe0d363e	-0.13790223
51	0x3e373c89	0.17894186
52	0x3d48475c	0.04889618
53	0x3d3c3352	0.04594738
54	0xbe9a9419	-0.30191115
55	0x3d915036	0.07095377
56	0x3c1861bf	0.009300648
57	0xbe71608e	-0.23571989
58	0xbd9f536d	-0.07779584
59	0xbc30cd03	-0.010791066
60	0x3e6915eb	0.22762267
61	0xbd55160a	-0.05202297
62	0xbd1884c0	-0.037235975
63	0xbce35951	-0.02775255
64	0x3d4c7599	0.049916837
65	0x3dc782ae	0.09741722
66	0x3dc2c062	0.0950935
67	0xbe63b5ed	-0.22237368
68	0xbc62d30a	-0.013844261
69	0xbd57f99c	-0.05272828
70	0x3cf70d0d	0.03015759
71	0xbcc88bc3	-0.024480706
72	0xbc1b56cb	-0.009481142
73	0xbeaab2fa	-0.33339673
74	0x3d7debea	0.061992563
75	0x3e390fa5	0.18072374
76	0xbd7c717b	-0.06163166
77	0xbd123691	-0.03569657
78	0xbd152d6d	-0.036420275
79	0xbcd63127	-0.026146485
80	0xbd3c8ff5	-0.046035726
81	0xbbb95ae3	-0.0056565865
82	0xbd4dd707	-0.050253894
83	0xbd8252b7	-0.06363433
84	0x3e035ec4	0.12829119
85	0x3e374f8d	0.1790144
86	0xbdab72fa	-0.083715394
87	0xbea546df	-0.32280633
88	0xbdf1ad96	-0.11800687
89	0x3d0ea5ac	0.034825966
90	0xbd00c322	-0.031436093
91	0x3d87a327	0.06622916
92	0x3cda16b1	0.026622148
93	0xbcbd3f56	-0.02310149
94	0xbd49444d	-0.049137402
95	0x3e0e3aa9	0.13889565
96	0xbd5f87ab	-0.054572742
97	0x3be9ada3	0.007131295
98	0x3ef52497	0.47879478
99	0x3e1eccc4	0.155078
100	0x3da8f6b7	0.08250182
101	0xbdaf4d8b	-0.08559712
102	0x3cba50fe	0.022743698
103	0x3de2b820	0.11070275
104	0xbda8a591	-0.08234704
105	0x3e25c03f	0.16186617
106	0xbe948140	-0.2900486
107	0xbe27d738	-0.16390693
108	0x3e638156	0.22217306
109	0xbb7a4dc3	-0.0038193322
110	0x3da16eb7	0.07882445
111	0xbc605974	-0.013693202
112	0xbdbf8ce1	-0.093530424
113	0xbd0d2e19	-0.03446779
114	0x3a17de9d	0.0005793365
115	0xbd0bd589	-0.03413919
116	0x3e123af1	0.14280297
117	0x3e585d24	0.2112928
118	0xbda4cd02	-0.08046915
119	0xbbcd511f	-0.006265774
120	0xbce242f1	-0.02761981
121	0x3dc4d288	0.09610468
122	0xbca292bc	-0.019845359
123	0x3ababa3b	0.0014246175
124	0x3e51116f	0.20416807
125	0xbd82167d	-0.063519455
126	0xbd5cce0f	-0.05390745
127	0x3d310834	0.043220714
128	0x3df94737	0.12171786
129	0x3d7f1c19	0.062282655
130	0x3e7a40f0	0.24438834
131	0x3df2e600	0.11860275
132	0x3de79e3a	0.11309476
133	0x3de13d46	0.10998015
134	0x3bbdffea	0.0057983296
135	0x3e030563	0.12795024
136	0xbe3f7827	-0.18698178
137	0xbc231478	-0.009953611
138	0x3ec22acd	0.3792328
139	0x3d23df3b	0.04000781
140	0x3e9e7ef6	0.30956239
141	0x3e0bd306	0.13654718
142	0xbc85bb89	-0.016324775
143	0x3e07ce35	0.13262255
144	0x3e181755	0.1485265
145	0xbe5028f7	-0.20328127
146	0xbceb4559	-0.028719591
147	0xbd01549f	-0.03157484
148	0xbe56ffa1	-0.20995952
149	0x3dcd1663	0.100140356
150	0xbdd031ae	-0.10165726
151	0x3e0b0c95	0.13579018
152	0x3bc2a68e	0.005940265
153	0xbc7108b1	-0.014711545
154	0x3db2fdcb	0.087398134
155	0xbe22fbdb	-0.15916388
156	0x3d4fcb53	0.050731014
157	0xbd7f48d6	-0.06232532
158	0x3bb92d80	0.005651176
159	0x3d013695	0.031546194
160	0x3d1bbe16	0.038023077
161	0x3e4a28d7	0.19742142
162	0x3c931cc0	0.017958045
163	0x3b9f1310	0.0048545673
164	0xbd84bdb7	-0.06481498
165	0xbdfb94ea	-0.122842625
166	0xbe9ec818	-0.31012034
167	0xbe889563	-0.26676473
168	0x3dfc4e33	0.12319603
169	0xbaa35f00	-0.0012464225
170	0xbca90897	-0.020633979
171	0xbd05b8a9	-0.03264681
172	0x3e7ed901	0.24887468
173	0xbc46971e	-0.01212099
174	0x3df99814	0.1218721
175	0xbe3f7e00	-0.18700409
176	0x3d4d169c	0.05007039
177	0xbe880f69	-0.26574257
178	0xbd13d97c	-0.03609608
179	0x3c4c8091	0.0124818245
180	0x3c5a30c4	0.013317291
181	0xbc68455b	-0.014176692
182	0xbe089243	-0.13337044
183	0xbd00afd6	-0.03141769
184	0xbd52e9bf	-0.05149245
185	0xbd233ea2	-0.039854653
186	0x3e37f7bd	0.17965598
187	0x3dcd7f42	0.10034038
188	0x3d8492b5	0.06473295
189	0xbd51f021	-0.051254395
190	0xbe5cd3d3	-0.2156518
191	0xbd90f5a5	-0.07078103
192	0x3d72330a	0.059130706
193	0x3c8ab102	0.016930107
194	0x3dec1a28	0.115284264
195	0xbdd0afd0	-0.101897836
196	0x3d570cb3	0.052502345
197	0x3cc2dfd0	0.023788363
198	0xbd0803a6	-0.033206604
199	0x3d52ee6d	0.05149691
200	0xbe2c5ca2	-0.16832212
201	0xbd6a280b	-0.057167094
202	0x3e62e435	0.22157367
203	0xbd09efc0	-0.03367591
204	0x3b671df1	0.003526565
205	0xbb24fab2	-0.002517384
206	0xbe0e7ce2	-0.13914827
207	0x3dd351c3	0.10318329
208	0x3d2e72bf	0.0425899
209	0xbb4aa96a	-0.0030923733
210	0xbdf0e703	-0.11762812
211	0xbd58f5b5	-0.0529687
212	0x3d3a82df	0.045534965
213	0xbd3f261c	-0.046667203
214	0x3ea6cb61	0.3257704
215	0x3e56540c	0.20930499
216	0x3d8e67c2	0.06953384
217	0x3da53188	0.08066088
218	0xbe263b1a	-0.16233483
219	0x3e09dee7	0.13463937
220	0xbe3f3807	-0.18673716
221	0x3e3a3adf	0.1818652
222	0x3cce43c5	0.0251788
223	0x3ce6e1d3	0.028183853
224	0x3eba1c07	0.36349508
225	0xbd7111ab	-0.05885474
226	0xbe39e887	-0.18155108
227	0x3dae6795	0.085158505
228	0x3e02f129	0.12787308
229	0x3e2197a6	0.15780506
230	0x3c8c76ac	0.01714643
231	0xbdc27fcd	-0.09497032
232	0x3bbd8c84	0.005784573
233	0x3d7bcc99	0.061474416
234	0x3d1b43b8	0.03790638
235	0x3ec6d882	0.38837057
236	0xbd7267f6	-0.059181176
237	0xbdf7f916	-0.12108056
238	0x3ccb3dc5	0.024809727
239	0x3e04f210	0.12982965
240	0x3cf53478	0.029932246
241	0x3e99ea9f	0.30061814
242	0x3d840bea	0.06447585
243	0xbe40775a	-0.18795529
244	0xbeae17d9	-0.3400257
245	0x3d1c6993	0.03818662
246	0xbd301c01	-0.042995457
247	0x3c41ff96	0.011840722
248	0xbe82cd74	-0.25547373
249	0xbd88b65d	-0.06675408
250	0x3dc3b583	0.09556105
251	0x3cfa323c	0.030541532
252	0x3de6d097	0.11270254
253	0xbe2b4a7f	-0.16727637
254	0xbeaf8ed3	-0.34288654
255	0xbdb4b13d	-0.08822868

net.4.bias f4 [6]
0	0xbe0cd7ab	-0.13754146
1	0xbdeda698	-0.11604041
2	0xbe58b29e	-0.21161887
3	0xbea91c55	-0.33029428
4	0xbfd9538c	-1.6978621
5	0xbf8c2d5e	-1.0951345
