results/double_dqn/seed_11/double_dqn.pt (torch, 233784 bytes, 7 tensors)

embed.weight f4 [500, 64]
00000000: a1c3 02bf 699e 833f 49d0 b4be dfe2 fb3d
00000010: 6ae9 39be 2ca5 bfbf da83 113e 6037 06bf
00000020: f1b4 7ebe f975 06bf 071a 3940 233f 18bf
00000030: 26ea a73f db50 b43e fe55 a8bf bdf1 02bc
00000040: 43d4 7d3e 594e c93f f9d9 d1bf 19d8 cbbf
00000050: 0c56 1ebe 1b58 8cbf acec ae3f c874 303f
00000060: 7a79 c9be 46fa 1d3f 23ba 403f 332d 1a3f
00000070: 6a1f 0140 a695 95bf 327f a9bf 2239 903f
00000080: 1ff4 66be 1792 053f 58d3 03c0 70a8 0d3e
00000090: a20a fe3e 99f3 1abf 48fa 4cbf 9e75 223e
000000a0: 2278 363f 1d6b 3ebf 5566 8f3e 2d3a bf3e
000000b0: f7ae 3f40 118e 83be 580d 2fbf 81f3 873f
000000c0: 0515 a8bc f268 21bf 036b 0c3f 2654 cbbf
000000d0: 332f 073f 547a 653f bf5a 7f3f ecbe 5cbe
000000e0: e0cd a93f 1b7f debd 7c64 83bf f37d 323d
000000f0: 48ee 78bf 4882 8f3e 8eea 113f 87f7 bd3f
00000100: 2260 96bf eb46 12be 40c8 09bf e7ea 6f3e
00000110: c495 85bf ea49 64bf ce1c c03f c70b 803e
00000120: 17a5 30bf 3c7b b0bf b786 13bc 6331 713f
00000130: 01f4 3d3f 9a94 703f c8f7 99bf ccc8 e03d
00000140: c3a1 473f 48eb c63c 6f27 babe 2488 51bf
00000150: ec14 e2be 1ad7 09c0 5a41 453f 8450 7c3f
00000160: ba38 a23e 33c6 38bd cb88 243f 0c84 f7bd
00000170: 3e06 e33f 5764 2e3f 086c a9bf cdff 4c3e
00000180: 8aca 103f 383f 90be b5fd 00bf b2a2 813f
00000190: 302d d8be f2bd cebf 5693 223e 13c6 10bf
000001a0: ab6d c93f 7c77 1c3f 24b4 87bf 135b 983f
000001b0: cba2 38bf edfa 873f bd07 a23e 0d98 ee3e
000001c0: 36ed 593f e022 37bf ae74 9e3e 1c36 0ac0
000001d0: 4db7 73bf 2715 09c0 003a 5a3d 7a7f debc
000001e0: 2e26 3a3f ceef f5bf 837d 25bf d4bf 833f
000001f0: 90e3 a03c 74ff 3b3f 968e 2dbf 656d 1b3f
00000200: c4e7 14bf aed1 87bf d63f 8c3f c8d0 1b40
00000210: 25c4 46bf c65e a03e 846a 593f de01 10bf
00000220: c82a 2d3f a155 d13e c60f 3c3f 0e1d 9c3f
00000230: 53c4 cabe 4b82 a6bf fded 27be c439 35bf
00000240: 4363 5a3f 428c 51bf bc28 5f3e 1885 69bf
00000250: bfae bd3f 06cd 99bd c761 33bf 1a2d f0bf
00000260: fa06 7a3f 0f60 923f cc3e 813f f686 433f
00000270: 2129 9abe 6bac 913d 3ebe f13e adee 3f3f
00000280: 5eb9 0640 ad28 b13e 2da5 bc3e d57a d0bf
00000290: b954 f73e dd1f a6bf d575 24bd 6fdb 2dbf
000002a0: 806b 723f 02d4 b8bf 6c35 f13e e381 53bf
000002b0: e783 273f 0f40 56bf dc25 373f 0c20 44bf
000002c0: f4ba e6bf 6426 043e e920 63be 9c09 5cbf
000002d0: fff2 f7bf b301 23c0 fc6b 813f 846b a93f
000002e0: 7085 803f 6c7e 123f 6f2d 5abe 0f52 093e
000002f0: 3c25 8bbe 25a2 143f 8dcf 663f 8748 c53f
00000300: 9f0a b7bf f92d 88bf e58c e0bd 7df3 f2be
00000310: 4d13 f2be c9b6 333d 6129 cbbe 6d08 9bbf
00000320: dd15 de3e 24a3 853b 09c7 cdbf 6625 0abf
00000330: 3c30 b73f 5bcd dabe 7790 8a3f aecf 413f
00000340: 513b d13e 1fdc e53e 3e45 a4bf 407a b8be
00000350: a941 59bf 8e52 103f 0a64 1640 3d0f b83f
00000360: efa0 233f fd1a bfbf 7ac8 81be 7943 14c0
00000370: 0336 913e 8d08 e8bf e07e 113f 0f6e 163f
00000380: 7d73 d6bf 19a9 30be 0c3d 73be 25c0 8d3f
00000390: f581 3cbd a7a9 a1bf dae3 a63d 2d1c f7bf
000003a0: 8b3b 87bf 989d bfbe 53c1 c83e adc0 163f
000003b0: ef49 733f 4865 21be da24 7d3f f4f1 983e
000003c0: ee54 77bf cf88 f3bf 4754 173f db5c 95bf
000003d0: 3b97 cc3a aeff b23e 3fe0 2e3f f33e 753f
000003e0: ca1e 0140 f7a6 9b3e b549 08be 9a3a ecbe
000003f0: 73a0 0bbf 2dee 20be a66e 68be e87f 63be
-0.51079756 1.0282718 -0.3531516 0.122991316 -0.18155447 -1.4972281 0.14210454 -0.52428246
-0.24873711 -0.5252376 2.8922136 -0.5947134 1.3118331 0.35217938 -1.3151243 -0.007992205
0.24788003 1.5727035 -1.6394645 -1.5925323 -0.15462512 -1.0964388 1.3665977 0.68928194
-0.39350492 0.6171001 0.7528402 0.6022522 2.0175424 -1.1686294 -1.3241942 1.1267436
-0.22554062 0.5217604 -2.0597744 0.13833785 0.49617487 -0.6052795 -0.800694 0.1586518
0.7127706 -0.7438219 0.2800776 0.37349072 2.995054 -0.25694326 -0.68379736 1.0621186
-0.020517835 -0.6305076 0.54850787 -1.5885055 0.52806395 0.8963978 0.9974784 -0.21557206
1.3265953 -0.10864087 -1.026504 0.043577146 -0.9723859 0.28029084 0.5699853 1.4841164
-1.1748087 -0.14284866 -0.5382118 0.23429452 -1.043633 -0.89175284 1.500879 0.25008985
-0.6900191 -1.3787608 -0.0090042865 0.94215983 0.74200445 0.9397675 -1.2028742 0.10975799
0.77981204 0.024282113 -0.3635821 -0.8184836 -0.44156587 -2.1537538 0.77052844 0.9856036
0.31683904 -0.045110893 0.6427123 -0.12085733 1.773628 0.68121856 -1.3236094 0.20019455
0.5655905 -0.28173232 -0.50387126 1.0127776 -0.42221975 -1.6151717 0.15876517 -0.5655224
1.5736593 0.6111982 -1.060185 1.1902794 -0.721234 1.0623451 0.3164653 0.4660038
0.8512758 -0.7153759 0.30948395 -2.1595526 -0.9520157 -2.141916 0.05327797 -0.027160395
0.7271451 -1.9213808 -0.6464464 1.0292916 0.01963976 0.73436666 -0.67795694 0.607138
-0.58166146 -1.0610864 1.0956981 2.434618 -0.7764304 0.31322306 0.84928155 -0.5625285
0.67643404 0.40885642 0.7346157 1.2196367 -0.39602908 -1.3008512 -0.16399379 -0.7079127
0.8530771 -0.8185464 0.21792883 -0.9121871 1.4818953 -0.07509808 -0.7007107 -1.8763764
0.97666895 1.1435565 1.0097289 0.7637781 -0.30109504 0.07112964 0.47215456 0.74973565
2.105064 0.34601346 0.3684477 -1.6287485 0.48306826 -1.2978474 -0.040151436 -0.67912954
0.9469528 -1.44397 0.4711107 -0.82620066 0.6543564 -0.83691496 0.71542144 -0.766114
-1.8025804 0.1290527 -0.22180523 -0.8595216 -1.9371032 -2.5469787 1.0111079 1.3235936
1.0040722 0.57224154 -0.21306394 0.13410209 -0.27176845 0.5805991 0.9016045 1.5412759
-1.4300116 -1.063903 -0.109643735 -0.47451392 -0.4728035 0.04387549 -0.39680007 -1.2111946
0.43376055 0.004078286 -1.6076366 -0.53963315 1.4311595 -0.427348 1.0825337 0.7570752
0.40865567 0.44894502 -1.2833631 -0.3603077 -0.84865814 0.5637597 2.349856 1.437965
0.6391744 -1.4930111 -0.25348264 -2.3166182 0.2836152 -1.812761 0.5683422 0.58761686
-1.6753994 -0.17252006 -0.23753756 1.1074263 -0.046022374 -1.2629899 0.08148928 -1.9305474
-1.0565046 -0.37424922 0.39209995 0.5888775 0.9503469 -0.15761292 0.98884356 0.29872096
-0.9661397 -1.9026126 0.5911297 -1.1668962 0.0015609035 0.34960693 0.6831092 0.9579918
2.0175042 0.30400822 -0.13309367 -0.4613846 -0.545417 -0.15715857 -0.22698459 -0.22216761

net.0.weight f4 [128, 64]
00000000: a480 22be d693 3cbe 781b dcbe 0793 82bd
00000010: c528 debe 3997 a83e 98ac 5c3e 2c0a 5abd
00000020: 1d58 87be c000 ddbd e851 f53d 711e 9abc
00000030: ca35 a2be 3589 4dbe 9660 77be 97ab ab3e
00000040: 8d15 cdbe aece 39be 47f1 0fbe 115c 84be
00000050: d73a d43e 2d51 b9ba def4 87bd b28d 953d
00000060: 9017 6cbd 50ad a23c 5668 a8bd 4710 243c
00000070: 9be8 edbd 4cd1 693d 651c 8abe 24b4 983d
00000080: c575 473e 7855 103d 745a b33e 88ee 033d
00000090: 1e73 9cbe a227 c8bd fe05 be3e f07c 45bd
000000a0: 9e41 9cbe a98c b0bd 855a 54be 4e12 553e
000000b0: 0152 553e 22f0 6f3e f164 613e 19e3 a7be
000000c0: 833b 51be cef5 4e3e e43c ac3e b995 193e
000000d0: 9190 4d3d b648 96bd 1a9a e13c 5740 883e
000000e0: 611a 0fbe 5def 51be 7335 a8bd f6b3 6fbc
000000f0: 054b 063e 0124 303e 5f66 883e 5a46 c73d
00000100: 736f 223d 0d9c 9fbe 1d55 35bd 06f0 10be
00000110: 52d3 74be 37f7 7dbd 8534 10be 6f72 873d
00000120: acc5 9abe 86d5 2bbe 592d 163e bbd4 89be
00000130: 8294 87bd e6fd 91bd db45 183e 195c 943e
00000140: 11c4 93be db65 a83d ab01 083e 7073 efbc
00000150: a552 7f3e 058d 4abe 3e40 b53e 3b94 a73e
00000160: e6e3 86be dad6 01be ae2b 5fbe d706 993d
00000170: 209e 8c3e a24b f3be f2a7 8cbe 2fc3 a9be
00000180: af59 c9be 0a34 1e3e fad7 a0bd ba9b 053d
00000190: 77c5 353e 2d12 4bbf fb96 8f3c 06df 383e
000001a0: 0b25 a93d 1635 c23e a174 f33e f646 1f3e
000001b0: d929 093f ce84 f3bb 603a 183d 317f ae3d
000001c0: baba 36be 9276 bc3e 213a 3b3e 4a1a 513e
000001d0: d98a 6e3e 3e38 0ebe 4295 95be 3fc9 5e3e
000001e0: d4eb b33e 3add 70be 9560 d8bd e9f7 1d3f
000001f0: ebf5 efbc 1712 633d fe63 03bf ab4e 13be
00000200: f38b b9be b109 ec3e 9ee7 e6be 9c52 e6bd
00000210: 913b 90bc 239b 683e d3f2 4c3d d468 713e
00000220: f590 b1be 6e33 b03d 1e85 4fbe cb8d 89bd
00000230: 2608 76be a7bf 45be 2ab4 663d 7f78 48be
00000240: 90d0 bfbe 6876 96be 54bd d6bd 419c c8be
00000250: c648 aabe e91c 26be 3d6a 3bbe 659a dd3c
00000260: 4f2d 30be 98fa 00be 733f 68be ef15 e43e
00000270: e91b 2c3e 9b4c 863e 7142 1c3f 4817 123f
00000280: 2b4c dcbe da84 563d f93a 643e d3c5 6ebd
00000290: ee28 8bbd 30be ddbd 7f80 ee3d 6d8e e03e
000002a0: 8902 663e 4278 14bd 097d 1e3d 0143 44bf
000002b0: 950a 323e 3a47 8f3e 56f6 8c3d dc42 843c
000002c0: 1948 173f 3fd1 023f 2290 923e 89ff 753e
000002d0: e36b 893d 4fcd 713e a32d 1d3e f22c 9fbd
000002e0: 3147 09bf 2665 88bd 8dda e5be 5c43 0dbf
000002f0: a070 0c3f f3f2 b4be 83da 8f3e e33a 6bbe
00000300: 85ef 09bf 23be 3dbe d504 243e f902 27be
00000310: f256 473e 3520 af3e f4d1 a1be 16f8 a4be
00000320: dd13 97be b4be 103e fefa 79be 1fb8 61be
00000330: 10a2 8cbe afb1 f3be 7fd7 6bbd 68f4 ef3a
00000340: 1bb8 d33d 5ec6 963e d032 63bd 4319 983e
00000350: 9375 1b3e 97d9 ac3d 8971 423c e1ba 75be
00000360: 91f8 c03e a7b2 153f 1b65 813e ecac 923d
00000370: 089a ae3d 8b7f 7f3e 28ec 36bd d770 f9bd
00000380: 0cb4 873e 2cc2 d93e 8224 d43e 9112 5b3d
00000390: 62f1 0fbf 142d 7b3c 9878 133e df04 b4bd
000003a0: 9092 ad3e 1dd2 a63e cb8a a83e fd15 8fbe
000003b0: b91a 40be fd52 133e b356 7f3e 1d11 8e3e
000003c0: 19df 64be 3ed1 04be 26ec 07be 2bf8 ce3d
000003d0: f023 763e 1ce7 293f 19f2 11bf db57 ce3e
000003e0: 0228 d63e eb0e 933c f926 953e 0672 513e
000003f0: 6b9e e23c eb94 8c3e 62a3 1abe 2518 b3bd
-0.15869385 -0.1841577 -0.42989707 -0.063756995 -0.4339048 0.32927874 0.21550214 -0.053232357
-0.26434413 -0.10791159 0.11978513 -0.018813344 -0.31681663 -0.20071872 -0.24157938 0.3352935
-0.40055504 -0.18145248 -0.14056884 -0.2585149 0.4145114 -0.0014138572 -0.066385016 0.07302417
-0.05763966 0.019858032 -0.082230255 0.010013646 -0.116166316 0.057084367 -0.26974788 0.07456234
0.1947852 0.03523776 0.35029948 0.032209903 -0.30556577 -0.09773184 0.37113947 -0.048214853
-0.30518812 -0.08620579 -0.20737655 0.20807764 0.20832063 0.23431447 0.22011162 -0.3279045
-0.20432858 0.20210955 0.33640206 0.14998521 0.050186697 -0.07338087 0.027539302 0.26611587
-0.13974907 -0.20501466 -0.0821332 -0.014630308 0.13114555 0.17201234 0.26640603 0.09730215
0.039657068 -0.31173745 -0.044270623 -0.14154062 -0.23908737 -0.06200334 -0.14082535 0.06613623
-0.30228937 -0.16780671 0.14665736 -0.26920113 -0.066201225 -0.071285054 0.14870398 0.28976515
-0.28860524 0.082225524 0.13281886 -0.02922985 0.2493387 -0.19780357 0.35400575 0.32730278
-0.26345748 -0.12679616 -0.21794006 0.07472008 0.2746439 -0.4751864 -0.27471882 -0.33156726
-0.39326236 0.15449539 -0.07853694 0.032619216 0.17751108 -0.7932461 0.017528048 0.18053827
0.082590185 0.37931126 0.47549918 0.15554413 0.5357948 -0.007431603 0.037165046 0.085203536
-0.17844668 0.36809212 0.18283893 0.20420185 0.23295154 -0.13888642 -0.29215437 0.21756457
0.3514086 -0.23521891 -0.105652966 0.61706406 -0.029292068 0.055437174 -0.5132445 -0.14385478
-0.36239585 0.46101144 -0.45098585 -0.11246225 -0.017606528 0.2271543 0.050036263 0.23575145
-0.34680906 0.086035594 -0.20265624 -0.06716498 -0.24026546 -0.19311391 0.05632416 -0.19577216
-0.37463808 -0.29387212 -0.1048533 -0.39181712 -0.33258647 -0.16221966 -0.18302245 0.02705116
-0.17204784 -0.12595594 -0.22680454 0.44547984 0.16807522 0.2623032 0.6103888 0.57066774
-0.43026862 0.05237279 0.22288121 -0.05829413 -0.06794916 -0.10827291 0.116456024 0.43858662
0.22461905 -0.0362475 0.03869346 -0.7666474 0.17386849 0.2798403 0.06882922 0.016145162
0.5909439 0.51100534 0.2862559 0.2402326 0.06710031 0.23613475 0.1534944 -0.077722445
-0.53624254 -0.066599175 -0.44893304 -0.5518091 0.5485935 -0.35341606 0.280964 -0.22971682
-0.538811 -0.18529563 0.16017468 -0.16309728 0.19466761 0.3420426 -0.31605494 -0.32220525
-0.29507342 0.14135247 -0.24412152 -0.22042893 -0.27467394 -0.475965 -0.05757856 0.0018307092
0.1033785 0.29448217 -0.05546838 0.29706773 0.1518157 0.084399395 0.011867889 -0.2399707
0.3768964 0.58475727 0.2527245 0.071618885 0.08525473 0.24950998 -0.04465881 -0.121797256
0.26504552 0.42530954 0.41434103 0.053484503 -0.56227696 0.015330572 0.14401472 -0.087899916
0.3390088 0.3258218 0.3291839 -0.27946463 -0.18760194 0.14387126 0.24935417 0.2774743
-0.2235073 -0.12970445 -0.13273677 0.10105928 0.24037147 0.6636827 -0.57010037 0.40301403
0.418274 0.01795145 0.29131296 0.20453653 0.02766343 0.27457365 -0.15101388 -0.087448396

net.0.bias f4 [128]
00000000: 25a4 953e c704 89be 0f2a 4a3e 607f afbe
00000010: 8a1d 41be d73d eabe 9fbc d1be 5171 81be
00000020: cf26 7bbe 3569 57be 86ef 8ebd 15d1 80be
00000030: e75e 03bd 4092 a9be 2b82 c8bd 8d4b e5be
00000040: ecf4 87bd a4f3 60be 1e06 8dbe 41b6 c03d
00000050: a1c1 49be 318d 92be a2e1 e0bd 2031 0cbe
00000060: af15 84be fc66 a2be 10c5 5a3e 7057 933e
00000070: 50b1 983e 4a31 69be d45f e0bc 9ead 27bf
00000080: eee4 733e ca49 09bd 43a3 20bf 0a35 0fbf
00000090: d475 db3d 2db1 2f3c 0250 adbd e643 ac3d
000000a0: b0c4 85bd b176 c5bd e5a9 a2bd 8cc8 f03c
000000b0: e01e 99bd 527b c6be d248 2b3d daaf f73e
000000c0: 9557 edbe c9ee dc3d f3a2 f1be e576 bcbe
000000d0: 8e49 92be 99cf 0abf 1a30 a63c 7690 563d
000000e0: 922f 62be 643c a83d b221 1fbf 241a 3dbe
000000f0: d1ac 81be 431a ac3c a7fc 2c3f 07e0 18bf
00000100: 2aec a2be c51c 8dbe 4438 c1bd ac75 c6be
00000110: 7d83 76be 8af7 16be 02e7 e0bd ea92 80be
00000120: 3fc5 573c 6a1b f5be 1f4b 0abe 30c1 183e
00000130: afab 59bd 0ecf e8be 54a0 3ebe 8452 493e
00000140: 2a77 4bbe ef36 50bf f695 fabe 9fca 96bd
00000150: e817 663e 1c8c f23e 24fa 60bd 9a05 93be
00000160: f510 dcbe 9aa5 1dbf e1e5 69be ad04 d4be
00000170: 29aa f33d 87e3 96be b34d 23be 1187 54bf
00000180: c262 00bf 0f40 20bf 4a83 9bbe c69e 903e
00000190: 20a9 343e a0c0 153d 81a7 5c3e 1763 d5be
000001a0: d2ce d6be 63f2 a1be fb07 44be 3350 1bbe
000001b0: f8cc 93be 9989 16bf 1ebc 19bf c311 9e3e
000001c0: 5c24 11bf 4523 abbe fdc8 b6be 90fa 8e3e
000001d0: e07c 64be 5794 71be 5fc2 d3bc 6827 8a3d
000001e0: 5dae 13bf 7fa6 9abd 4de9 bcbe 9250 17be
000001f0: 1466 b0be b37d 02bf aa7d 18bf 28b8 1bbd
0.29226795 -0.26761457 0.19742607 -0.34276867 -0.18858925 -0.45750305 -0.4096422 -0.25281766
-0.24526523 -0.21036227 -0.06979279 -0.25159517 -0.032072928 -0.33119392 -0.097904526 -0.44784203
-0.06638512 -0.21967942 -0.2754373 0.09409762 -0.1970277 -0.28623345 -0.10980536 -0.13690615
-0.25797793 -0.31719196 0.21364236 0.28777647 0.2982278 -0.22772709 -0.027389444 -0.65499294
0.23817798 -0.033517636 -0.6274912 -0.55940306 0.10715833 0.010723394 -0.08462526 0.08411388
-0.06531656 -0.09641779 -0.07942561 0.029392503 -0.07476592 -0.3876596 0.041817494 0.48376352
-0.46355882 0.10787732 -0.47194633 -0.3680946 -0.28571743 -0.5422302 0.020286608 0.052383862
-0.22088459 0.082146436 -0.6216079 -0.18467003 -0.2532716 0.021008616 0.67573017 -0.5971684
-0.31820804 -0.27561012 -0.0943456 -0.38761652 -0.24073596 -0.14742866 -0.10981561 -0.25112087
0.013169586 -0.47872478 -0.13505219 0.14917445 -0.053142246 -0.4547047 -0.18615848 0.19660383
-0.19869676 -0.8133382 -0.48942536 -0.07362866 0.22470057 0.4737252 -0.054926053 -0.2871521
-0.42981687 -0.6158081 -0.22841598 -0.41409817 0.1189769 -0.29470465 -0.15947609 -0.83018595
-0.5015069 -0.62597746 -0.30373603 0.28246135 0.17642641 0.036560655 0.21548273 -0.41677162
-0.41954666 -0.3163024 -0.1914367 -0.15167312 -0.28867316 -0.5880371 -0.6005267 0.30872926
-0.56696105 -0.33425346 -0.35700217 0.2792554 -0.22313261 -0.23591743 -0.02584952 0.067457974
-0.5768793 -0.07551288 -0.36896744 -0.14776829 -0.3445288 -0.5097305 -0.5956675 -0.038017422

net.2.weight f4 [128, 128]
00000000: 5471 60bd 6eee b2be 2c54 2c3b e025 d03d
00000010: fe83 e8bd edaa 6a3d 85b6 013d ce54 9d3d
00000020: 7243 c1be 4b08 14be 4167 42be b892 18bd
00000030: 1c6d 3cbe 4df8 063e 132b 86bd 0f59 033e
00000040: 68db 92be 78cf c6bd 50ea 98be d947 ddbd
00000050: d1b2 d9bd 46f7 77be b590 a7be a89e 3cbd
00000060: dbd6 713e a6fa 923d 5ad0 c1bd f53e 33be
00000070: 1721 f23d 9847 8fbd 06fe 01be 645b 813d
00000080: 42b4 58be 156e 9fbd 1228 0ebe 06fc 84be
00000090: 0d57 15be cdb0 ad3d cb49 97be 61f1 85be
000000a0: 846b adbe cbc7 eabe 4807 8dbe 8d1d f5be
000000b0: ba68 42bd 50c6 91bd 75df 3abe c6f1 debd
000000c0: f1b4 18bf 4b7f 6cbd a11b e2bd fd9b 85be
000000d0: b204 55be 758d 34be bd79 9fbe 0f52 38bd
000000e0: 8d62 4abb 4c04 8abe 333a 5a3e a324 263e
000000f0: 2e9e 6cbe 378c ccbd 0556 513e 2244 9cbe
00000100: d00c 9ebe 4267 71be 504e 13be 1320 cfbd
00000110: 4af1 d6bc 5070 56bd 167f 9bbd 1cca 01be
00000120: 852f 0fbe 8c96 bcbe 94e0 86bd bff0 b4be
00000130: f79b c13c 96ac adbe fcb3 c93c 7c4c 79be
00000140: e1b5 623e 5f9d afbe fb6d 7bbe fa52 5ebe
00000150: 95f8 b93d f948 7a3e 3a2c 40be 505e 2cbe
00000160: 8732 5bbd 86dc 6cbe 5db7 283e 342d 81bc
00000170: 7506 dc3d 8531 b3be bed7 07be ec98 1ebe
00000180: 2883 c23c 2a01 89bc 6a66 97bd 4cfa 77bd
00000190: 35f5 63bd 92b9 dbbd fff0 65be 101a 8ebc
000001a0: 0179 c73d 1059 1fbe c4aa cbbe f94b 44be
000001b0: 4aaa b6ba 36c4 16be 4394 06be 6b8b 8f3b
000001c0: e86a 76bc 674b 33bc 57b1 e7bd ab08 16be
000001d0: 8c5d b1bd a433 8fbe 7aeb 48be ba66 5cbe
000001e0: bdc4 e8bd 50e1 83be d63e b6bd f0ec 4fbd
000001f0: efd6 503d 3c70 81be 67f3 8abe 215e d7bd
00000200: a51e abbe d262 84bd 1b20 e0bc f02d 303e
00000210: f259 ccbd 45d9 683e cda1 bb3d 9e68 393b
00000220: 599d 42bd a055 9c3e 13d9 833e 0338 ccbd
00000230: b18a dcbd 5567 22bd 6f42 91be aca1 a8bd
00000240: 2929 d8bd 501d 483e e5f9 05bc be56 0f3e
00000250: b38d a93d c664 d33e 64bd 7abd e300 c03e
00000260: 8177 edbd 743f 0d3d b637 8d3e 84fc b43d
00000270: d1b0 a73d eea8 8fbd a8e1 91be c420 293e
00000280: 712a 3bbe 66df 9abe 4a24 b0bd e511 b63e
00000290: 523b 0bbe 6f81 8fbe 4a63 07be 0ce2 bb3d
000002a0: 5c1d febd d65c 983d 5882 bbbe 8e0c 043f
000002b0: 2439 113d b9fa 353d bb28 863e 4e79 b0bd
000002c0: c95c c83e 436c c63d 7d4e 8a3d b57c 393c
000002d0: d23d 8fbc aab0 f7bd e93d 343d 9e2d 903e
000002e0: bdf2 da3c 203c 9f3e 6a1a d3be 34e6 3f3d
000002f0: 19ad 1bbe 1dc2 aa3c 4265 12be f5ba 263e
00000300: 8b02 42be ebfc b7be e9a1 1bbe ade4 72be
00000310: 886d 6bbd 0874 a53c 0391 e3be ce98 103b
00000320: 7df8 94bd 0fb2 15be 7b1c 8b3e 401d 0ebd
00000330: 30d2 c9bc 7f31 81be 2655 6b3d 31e4 c4bd
00000340: e21a 0abc af85 683e b3de 983d a793 513e
00000350: d4d0 333e 1c41 dcbd a22b 893e e6dd 493e
00000360: 5052 eebd b323 6ebe 969d 03be 1e31 b93e
00000370: a0d7 dfbd 026d fc3d 40f6 0cbe 4d9e 063e
00000380: e82f 7b3e c1ed 623c 4e86 883e dee6 bd3d
00000390: 1e4a f43d 6c37 2abe eb3a df3d 83bc bdbd
000003a0: 8b28 b1be a43e 11be cc0c febd 6728 153e
000003b0: dfd0 663e fbb2 8abe 19b3 94bd 643b d63e
000003c0: 24ae 8dbd 69b4 873e 8090 213d 4b27 ae3e
000003d0: 4fe5 463e 64fa 7cbd 6bb1 8a3e 9fcf a2bc
000003e0: bae5 9f3e f0aa 9c3e 5fbf 243e 2512 7cbe
000003f0: eca0 8a3e 7d1b 833d d9e3 a5be ff36 6ebd
-0.054795578 -0.34947532 0.0026295288 0.10163474 -0.113533005 0.057291914 0.031668205 0.07682191
-0.3774677 -0.14456289 -0.189847 -0.037249297 -0.18400997 0.13180657 -0.065511845 0.12826942
-0.2868302 -0.0970754 -0.29866266 -0.108047195 -0.1062981 -0.24215421 -0.3272759 -0.046049744
0.23617117 0.07176714 -0.09463568 -0.17504485 0.11822718 -0.06996077 -0.12694559 0.063162595
-0.21162513 -0.07784668 -0.13882473 -0.2597353 -0.14583988 0.08480988 -0.29548487 -0.2616072
-0.3387109 -0.45855555 -0.27544618 -0.47874108 -0.047463156 -0.07117903 -0.18249305 -0.108859584
-0.59651095 -0.057738584 -0.11040426 -0.26095572 -0.20802572 -0.17632087 -0.31147566 -0.045000132
-0.0030881495 -0.26956403 0.21311264 0.16224913 -0.23107216 -0.09987681 0.2044297 -0.3052073
-0.3086915 -0.23574546 -0.14385343 -0.101135395 -0.026238102 -0.052353203 -0.07592599 -0.12674755
-0.13982971 -0.36833608 -0.06585804 -0.35339925 0.02363394 -0.33920735 0.024621956 -0.24345583
0.22139694 -0.34299752 -0.24553673 -0.2171134 0.090806164 0.244419 -0.18766871 -0.16832852
-0.053514984 -0.23130998 0.16476198 -0.015768625 0.10743419 -0.34998718 -0.13265893 -0.15488023
0.02374418 -0.016724188 -0.07392581 -0.060541436 -0.05565377 -0.10728754 -0.22455214 -0.017346412
0.097398765 -0.15561318 -0.3977872 -0.19169606 -0.0013936248 -0.14723286 -0.13142495 0.0043806336
-0.015040137 -0.01094327 -0.11313122 -0.14651744 -0.08660421 -0.27969086 -0.19621077 -0.21523562
-0.1136565 -0.25757837 -0.08898704 -0.05076307 0.050986227 -0.2528094 -0.27138826 -0.105160005
-0.33421817 -0.06464161 -0.02735906 0.17205024 -0.09978093 0.22739132 0.091617204 0.0028291116
-0.04751334 0.30534077 0.25751552 -0.09971621 -0.10768641 -0.039649326 -0.28370997 -0.082339615
-0.10554726 0.19542432 -0.008177255 0.13997933 0.0827898 0.41287822 -0.061215773 0.37500677
-0.11595059 0.03448434 0.27581567 0.08837226 0.08188022 -0.07014643 -0.28492475 0.16516405
-0.18277909 -0.30248564 -0.086006716 0.35560527 -0.13596848 -0.28028437 -0.1322147 0.091739744
-0.124079436 0.07439582 -0.36622882 0.51581657 0.035454884 0.04442856 0.2620295 -0.08616887
0.3913329 0.09688618 0.06753252 0.011321236 -0.017485533 -0.12094243 0.044004355 0.28159803
0.026727075 0.3110056 -0.4123109 0.0468504 -0.1520275 0.020844514 -0.1429644 0.16282256
-0.18946283 -0.3593515 -0.15198483 -0.23720045 -0.057477504 0.02019693 -0.44446573 0.0022063735
-0.07273958 -0.14618705 0.27170166 -0.034695864 -0.024636358 -0.25233075 0.05745425 -0.096138366
-0.008429261 0.22707246 0.074643515 0.20466481 0.1756013 -0.10754606 0.26791102 0.19713554
-0.116367936 -0.23255806 -0.12853083 0.36170286 -0.10929799 0.12325479 -0.13765812 0.13146324
0.24529994 0.01385063 0.26664966 0.0927255 0.11928199 -0.16622704 0.108999096 -0.092644714
-0.34601244 -0.14184052 -0.124047846 0.14566194 0.22540615 -0.27089676 -0.07260723 0.41842186
-0.0691798 0.2650483 0.039444447 0.34014353 0.19423412 -0.06176223 0.27088484 -0.019874392
0.31229955 0.30599165 0.16088627 -0.24616297 0.270759 0.06401727 -0.32400396 -0.058157917

net.2.bias f4 [128]
00000000: ab65 273e 9a72 6c3f 2115 703e 439e 9c3e
00000010: 4058 023f c108 bb3e b326 adbd 8f5c 02be
00000020: 9e6a 133f 50c0 e5bd d189 c13e fe16 e1bd
00000030: 001d 623f 804a d73e 6802 883f f9ec 103f
00000040: ce6a 52be 933a 483e f8f0 a7bd 18c7 58be
00000050: 4db5 02be b279 f3bd c39a cc3e d8e7 8b3f
00000060: 7a49 babd b209 d43e e729 2abe 748e 623b
00000070: 0a2c ec3d 4015 303e 0fe7 96bd 9ec8 fc3e
00000080: 120d 613f 0a6c a23e 71d3 063d cb34 143f
00000090: f94f 02be 6937 783f 97ad 8abd 3872 123e
000000a0: eab1 173f a70d 06be 7fbe 7e3f 2ed0 613e
000000b0: d5ff 89bd fb93 173e 4f74 9ebd e7a8 23be
000000c0: 9e36 ccbd e7bb ae3e 0e73 663f c8be 893e
000000d0: 3077 3d3e e69c 003e 4db8 26be 6bbb 423d
000000e0: 0cdd f3bb 1dc2 da3e 53e1 4f3e 0ecd b7bc
000000f0: 74f5 f73e 66d5 d33e f559 44be 8904 4b3d
00000100: 7dbc f33e c8f5 29be e918 0b3f 0414 ef3c
00000110: df23 fc3e 7944 83bd 32d4 1e3d 11ce f8b9
00000120: 541e 3e3d 7c02 783d a94c 603e 4bce 36bd
00000130: bec4 3bbd cd6f 9bbd 2aa0 c43e def9 3abe
00000140: 2a41 44bc 91bd f9bd d3de 6dbd 9eac 58bc
00000150: fa07 ddbd c6f3 0f3f 899c fcbd 3556 873e
00000160: 8513 3b3f c376 aa3e 9fdd e63e 3456 e53e
00000170: 21e9 de3c 8fd4 093f fef4 42be 70fe ec3d
00000180: 9b00 a7bc 8694 0cbe 27f6 47bd 0a9f e0bc
00000190: a7fb 96bd 7a03 673e 4bb8 6bbe 4bf1 e03e
000001a0: a95b e3bd 8596 c73e eee7 0b3e c44e 30be
000001b0: dfab 593e 1f96 e6bd 29b2 e33b 5194 873e
000001c0: f491 753c 6672 bb3d 0e45 583f 194c 27bd
000001d0: deb9 363a 0af3 96bc 2033 383e eaa1 5d3e
000001e0: 48b9 373d 8c2c ed3e 0c30 19be 6f38 01be
000001f0: 6879 fc3d 4135 e23e ac33 d23e 2b7a 1a3e
0.16347377 0.9236237 0.2344556 0.30589494 0.5091591 0.36530116 -0.08454647 -0.12730621
0.5758456 -0.11218321 0.37800458 -0.109907135 0.883255 0.42049026 1.0625734 0.5661159
-0.20548555 0.19553594 -0.08200258 -0.21169698 -0.12764473 -0.11888446 0.39961824 1.0930128
-0.09096046 0.41413647 -0.16617547 0.0034569772 0.11531837 0.17195606 -0.0736829 0.4937181
0.8791057 0.31723052 0.03291649 0.57893056 -0.1272582 0.9695955 -0.06771391 0.14301383
0.5925585 -0.13091145 0.99509424 0.2205207 -0.06738249 0.14802544 -0.07737028 -0.159824
-0.09971355 0.34127733 0.9001931 0.26903367 0.18502498 0.12559852 -0.16281243 0.047542017
-0.0074421223 0.42726222 0.20300798 -0.022436645 0.48429453 0.41373748 -0.19174941 0.049564872
0.47604743 -0.16597664 0.54334885 0.029184349 0.49246117 -0.064095445 0.038776584 -0.00047455778
0.046415642 0.060549244 0.21904244 -0.04463033 -0.045841925 -0.07589684 0.38403445 -0.1825938
-0.011978427 -0.1219436 -0.05807383 -0.013224749 -0.10792537 0.56231344 -0.12334544 0.26432958
0.7307666 0.33293733 0.45090958 0.4479233 0.027210774 0.53839964 -0.1903877 0.115719676
-0.02038603 -0.13728532 -0.048818734 -0.027419586 -0.073722176 0.2255992 -0.23019521 0.43934092
-0.11101467 0.38982025 0.13662693 -0.17217547 0.2125697 -0.11259102 0.0069487286 0.26480344
0.014988411 0.09152679 0.8448037 -0.040844057 0.00069704454 -0.018426437 0.17988253 0.21643797
0.044854432 0.4632305 -0.14959735 -0.12619184 0.12327844 0.44181255 0.41055048 0.15085666

net.4.weight f4 [6, 128]
00000000: 08d4 a8bd 08ce c83d d7f8 433e 3c9d 1f3e
00000010: 62d3 3dbe 9cd2 333e 90d0 253d 6b1d 1ebd
00000020: 3064 dc3d 3a0e 60bd 7fef 6abd 1714 743d
00000030: b87b 4d3e 7da5 133e 0d86 1d3e 47e7 803e
00000040: 1379 263d c489 cf3d ad60 f8bd 6d57 15bd
00000050: 5b40 573d 8a24 9e3d a24d 473c 6a56 fabc
00000060: 7b89 9a3c 2e8e 443d b653 9ebd b6e1 14bd
00000070: 8df1 2a3d 747d 443e cf98 793d 33fa 903c
00000080: 51fc 2cbd c9b8 b8be 70b5 133e e291 2ebe
00000090: 982f c33d ede7 b0bb 0316 6e3d ad73 33bd
000000a0: 88b7 163e 00e9 203d b016 603d 5f5a 38be
000000b0: 1d0a 1e3d 6e74 cdbd b45e 043d bbc8 313e
000000c0: 401d 94bd 4eab 0cbe 815f 03be 6574 243e
000000d0: 5c47 483d 5233 3c3d 1994 9abe 3650 913d
000000e0: bf61 183c 8e60 71be 2ee0 69bd 03cd 30bc
000000f0: ad06 703e fc66 06be c084 18bd 8b26 9d3b
00000100: 0b21 7f3a ae82 c73d b6af 7c3d edb5 63be
00000110: 0ad3 62bc 9cf9 57bd 0d0d f73c c38b c8bc
00000120: 3641 b0ba fab2 aabe 1997 f43d a50f 393e
00000130: 7b71 7cbd 9136 12bd 6d2d 15bd 2731 d6bc
00000140: f58f 3cbd e35a b9bb 07d7 4dbd b752 82bd
00000150: c45e 033e 8d4f 373e fa72 abbd df46 a5be
00000160: 8603 dfbd 3aa0 fd3c 22c3 00bd b8cc ab3d
00000170: b116 da3c 2bf8 84bd 4d44 49bd a93a 0e3e
00000180: ab87 5fbd a3ad e93b 9724 f53e c4cc 1e3e
00000190: b7f6 a83d e4e3 cabd 41ad 503d 30ce d93d
000001a0: 91a5 a8bd 3fc0 253e db21 8dbe 38d7 27be
000001b0: 5681 633e c34d 7abb b76e a13d c155 04bc
000001c0: e18c bfbd 192e 0dbd 7403 5ebc 89d5 0bbd
000001d0: f13a 123e 8805 5e3e 02cd a4bd 2a62 de3c
000001e0: f142 e2bc 4235 ce3d 33d4 11bd 3bba ba3a
000001f0: 6f11 513e 1bed c3bd 0fce 5cbd 3408 313d
00000200: 3747 f93d 8dea 863d 9794 803e 00e6 f23d
00000210: 3b63 c63d d3ff b73d eaff bd3b 6305 033e
00000220: 2778 3fbe 7814 23bc cd2a c23e 3bdf 233d
00000230: 00e3 9d3e d1e6 003e 2c3d b0bc 016f 093e
00000240: 5517 183e 020f 7fbe 4914 7fbc e659 5bbd
00000250: a1ff 56be 6316 cd3d ae31 d0bd 0ddc 063e
00000260: 8ea6 c23b b108 71bc cbfd b23d dbfb 22be
00000270: 4d8e 613d d648 7fbd 802d b93b 0e3d 583d
00000280: aba4 023d d728 4a3e c01c 933c e455 413d
00000290: b7bd 84bd 95df d3bd 18c8 9ebe 6395 88be
000002a0: 308f 073e 005f a3ba fea2 01bd a9b8 05bd
000002b0: 01d9 7e3e 6198 d3bc 1498 f93d 007e 3fbe
000002c0: 9c16 4d3d 690f 88be a364 a4bc 40db dd3c
000002d0: c430 5a3c 5b45 68bc 4392 08be d6af 00bd
000002e0: bfe9 52bd a23e 23bd 01cf 403e 427f cd3d
000002f0: 8e65 133d bc3b 0dbd d3d3 5cbe e3e6 cdbd
00000300: dbf0 c23d 02b1 8a3c f0ce bf3d d0af d0bd
00000310: b30c 573d d0df c23c a603 08bd 6dee 523d
00000320: 99b5 38be 0b28 6abd 6fd3 3d3e c0ef 09bd
00000330: f11d 673b b2fa 24bb e27c 0ebe c351 d33d
00000340: bf72 2e3d 6aa9 4abb 03e7 f0bd b5f5 58bd
00000350: df82 3a3d 1c26 3fbd 61cb a63e 0c54 563e
00000360: d0a5 7c3d 8624 9d3d 1a3b 26be 2ad2 093e
00000370: 0738 3fbe a098 153e c543 ce3c d3e1 e63c
00000380: 071c ba3e ab11 71bd 87e8 39be 9567 ae3d
00000390: 29f1 023e c110 013e 93a0 5c3c 9c51 94bd
000003a0: 848c bd3b 99cc 7b3d 4fe7 cb3c 82d8 c63e
000003b0: f667 72bd 16f9 f7bd c53d cb3c edb3 0c3e
000003c0: 7834 f53c 9fea 993e c014 703d 5a77 40be
000003d0: d917 aebe f10f bd3c 011c 30bd 5064 443d
000003e0: 74cd 82be 248f 8abd 2160 e03d 3c32 fa3c
000003f0: 97d0 e63d afb8 29be d38e afbe 3db1 b4bd
-0.08243567 0.09804922 0.19137894 0.15587324 -0.18537667 0.1756081 0.040482104 -0.038602274
0.10761297 -0.054701068 -0.057357308 0.05958947 0.20066726 0.14418598 0.15383168 0.2517645
0.04064281 0.101336986 -0.121278144 -0.03646033 0.05255161 0.07721813 0.012164505 -0.030558784
0.018864384 0.047987156 -0.0773081 -0.036348067 0.041734267 0.19188482 0.060936745 0.01769743
-0.042232815 -0.3607848 0.14424682 -0.17047837 0.09530562 -0.0053987415 0.05812646 -0.04381149
0.14718449 0.039284706 0.054709136 -0.18003224 0.038583864 -0.10031973 0.03231688 0.17361729
-0.072321415 -0.13737223 -0.128294 0.16060026 0.04889618 0.04594738 -0.30191115 0.07095377
0.009300648 -0.23571989 -0.05709856 -0.010791066 0.23440047 -0.13125223 -0.037235975 0.0047958544
0.0009732402 0.09741722 0.06169101 -0.22237368 -0.013844261 -0.05272828 0.03015759 -0.024480706
-0.0013447169 -0.33339673 0.11942882 0.18072374 -0.06163166 -0.03569657 -0.036420275 -0.026146485
-0.046035726 -0.0056565865 -0.050253894 -0.06363433 0.12829119 0.1790144 -0.083715394 -0.32280633
-0.10889344 0.030960191 -0.031436093 0.083886564 0.026622148 -0.06492647 -0.049137402 0.13889565
-0.054572742 0.007131295 0.47879478 0.155078 0.08250182 -0.09906748 0.050946478 0.1063503
-0.08234704 0.16186617 -0.27564892 -0.16390693 0.22217306 -0.0038193322 0.07882445 -0.008077086
-0.093530424 -0.03446779 -0.013550628 -0.03413919 0.14280297 0.21681798 -0.08046915 0.027146418
-0.02761981 0.10068752 -0.03560276 0.0014246175 0.20416807 -0.09566709 -0.05390745 0.043220714
0.12171786 0.06587706 0.25113365 0.11860275 0.096868955 0.089843415 0.0057983296 0.12795024
-0.18698178 -0.009953611 0.3792328 0.04000781 0.3083725 0.1258805 -0.021513544 0.13421251
0.1485265 -0.24908069 -0.015568801 -0.05355253 -0.20995952 0.100140356 -0.10165726 0.1316988
0.005940265 -0.014711545 0.087398134 -0.15916388 0.05506735 -0.06232532 0.005651176 0.0527926
0.03189532 0.19742142 0.017958045 0.047201052 -0.06481498 -0.10345379 -0.31012034 -0.26676473
0.13238215 -0.0012464225 -0.031649582 -0.03264681 0.24887468 -0.025829496 0.1218721 -0.18700409
0.05007039 -0.26574257 -0.020067519 0.027082086 0.013317291 -0.014176692 -0.13337044 -0.03141769
-0.05149245 -0.039854653 0.18828966 0.10034038 0.035985522 -0.034480795 -0.2156518 -0.10053804
0.09518596 0.016930107 0.09365642 -0.101897836 0.052502345 0.023788363 -0.033206604 0.05149691
-0.18038024 -0.057167094 0.18537687 -0.03367591 0.003526565 -0.002517384 -0.13914827 0.10318329
0.0425899 -0.0030923733 -0.11762812 -0.0529687 0.045534965 -0.046667203 0.3257704 0.20930499
0.06168157 0.07672982 -0.16233483 0.13459077 -0.18673716 0.14609003 0.0251788 0.028183853
0.36349508 -0.05885474 -0.18155108 0.085158505 0.12787308 0.12604047 0.013466018 -0.07242128
0.005784573 0.061474416 0.02489057 0.38837057 -0.059181176 -0.12108056 0.024809727 0.13740511
0.029932246 0.30061814 0.05861354 -0.18795529 -0.3400257 0.02307889 -0.042995457 0.047947228
-0.25547373 -0.06765583 0.10955835 0.030541532 0.11270254 -0.16574357 -0.34288654 -0.08822868

net.4.bias f4 [6]
00000000: 2113 07be 729d eebd 6912 59be 8413 a8be
00000010: 3b3e dabf 7871 8cbf
-0.13190891 -0.11651124 -0.21198429 -0.3282739 -1.7050241 -1.0972128
