results/double_dqn/seed_0/double_dqn_target.pt (torch, 233875 bytes, 7 tensors)

embed.weight f4 [500, 64]
-1.1258398 -1.1523602 -0.25057858 -0.4338788 0.84871036 0.69200915 -0.31601277 -2.1152194
0.32227492 -1.2633348 0.3499832 0.30813393 0.11984151 1.2376579 1.1167772 -0.24727815
-1.3526537 -1.6959312 0.5666506 0.79350835 0.59883946 -1.5550951 -0.3413604 1.8530061
0.7501895 -0.58549756 -0.17339675 0.18347794 1.3893661 1.5863342 0.94629836 -0.84367675
-0.6135831 0.03159274 -0.49267697 0.24841475 0.43969584 0.112411186 0.64079237 0.44115627
-0.10230965 0.792444 -0.2896677 0.052507486 0.52286047 2.3022053 -1.4688939 -1.5866888
-0.6730899 0.8728312 1.0553575 0.17784372 -0.23033547 -0.3917544 0.5432947 -0.39515755
-0.44621718 0.7440207 1.5209795 3.4105027 -1.5311843 -1.234135 1.8197253 -0.5515287
-0.7388023 0.40092117 1.167124 1.3419248 -1.4407845 2.407314 -0.32824054 0.23769115
-1.1335908 -0.07259105 -0.43323544 -0.30410022 -0.9057353 0.55889624 -0.1135681 0.573675
-0.09165629 0.5029434 -0.76746744 0.20681158 1.1548791 -0.5160751 0.5983847 0.14169796
0.03467812 2.0349019 -2.115345 -0.20487207 -1.0551827 -0.51370865 -0.51105154 0.25263923
1.0828266 -1.2528902 0.4082858 0.34370777 -2.0467522 -1.5728682 0.008937746 0.33498853
0.3248936 0.19837669 0.23160274 0.5949131 0.44301367 -0.52140963 0.63259 -0.8534623
0.075893946 -2.2998772 -0.4133289 0.06936886 1.0056314 0.2707431 -0.8793454 -0.033101518
-0.8005954 -0.28320447 1.4445789 0.21294467 -0.014990265 0.93236667 0.7538772 1.3531233
-0.40400645 -1.0807819 -0.49127552 1.2419239 0.4445683 1.2612144 1.1297637 -1.0753427
-0.2674538 0.31601647 -0.6985151 -1.3050641 0.08946597 -1.2868414 -0.5479787 0.5984076
-0.74713695 0.37588623 -0.1531862 1.0533892 0.5680313 0.36339852 0.16450489 -0.21773998
0.28812882 -0.38335377 -2.3455868 0.0532055 -0.9249082 0.39786732 -0.21556632 1.0684549
0.4599853 -0.97498566 0.340913 0.30031818 0.7505804 -0.0904334 0.5015442 0.5093514
0.5454097 0.5879645 -0.13211796 0.9360173 -0.6858582 -1.4959087 -0.17250943 -1.1157578
-0.6699689 -0.0034229844 -2.061905 -0.82553864 1.0619171 -0.03430431 2.0972972 0.27715302
-0.7537558 -0.46158162 1.3260422 -0.20175923 0.48385197 -0.58087844 -1.1336787 -0.7961424
-0.5423349 -0.053992435 1.0241902 0.40833852 -0.094228275 1.0325537 -0.12741114 0.8177563
0.101137295 -1.244575 -0.03842399 0.3875215 0.37669727 -1.0340307 0.4674938 -0.7058372
0.9317785 0.26150253 0.36083376 0.7910875 -0.5438953 0.71226555 0.14307618 -1.1635269
1.2056466 0.858284 -0.459349 0.40931407 -0.22540429 -0.217562 -1.2767926 -0.4903682
-0.28683028 1.670908 0.2419433 0.43078536 -0.18366091 0.7628996 -0.5341778 -1.5073056
0.30521712 -0.43961078 0.066064835 0.62255126 -0.70692205 1.1007706 1.3148704 -1.6214025
-1.0459056 -2.0598445 -0.3161841 -0.54355747 1.1114018 -0.41446593 0.52368253 0.12808768
0.35104492 1.4782593 0.7368852 -0.58458054 -0.28271452 -0.17111276 1.7926303 0.6125433
00000000: 851b 90bf 8a80 93bf d64b 80be 5d25 debe
00000010: 1545 593f 8327 313f 6dcc a1be c15f 07c0
00000020: 3801 a53e f4b4 a1bf ff30 b33e bbc3 9d3e
00000030: 776f f53d 936b 9e3f 8ef2 8e3f 7c36 7dbe
00000040: c223 adbf 4614 d9bf 0410 113f 5d23 4b3f
00000050: 8b4d 193f 5b0d c7bf cac6 aebe 4e2f ed3f
00000060: 6b0c 403f 2be3 15bf eb8e 31be a4e1 3b3e
00000070: c0d6 b13f 000d cb3f 9c40 723f 33fb 57bf
00000080: c813 1dbf 6467 013d 2840 fcbe 7060 7e3e
00000090: d01f e13e d637 e63d f80a 243f 3cdf e13e
000000a0: b987 d1bd 9cdd 4a3f 534f 94be 1712 573d
000000b0: 2fda 053f 5557 1340 b704 bcbf 9e18 cbbf
000000c0: 9f4f 2cbf de71 5f3f f415 873f aa1c 363e
000000d0: 10dd 6bbe 0894 c8be 5d15 0b3f 1752 cabe
000000e0: 9476 e4be 2478 3e3f 75af c23f ad45 5a40
000000f0: d9fd c3bf 23f8 9dbf c2ec e83f fc30 0dbf
00000100: 2622 3dbf 8a45 cd3e 5264 953f 31c4 ab3f
00000110: a06b b8bf 6f11 1a40 250f a8be 4f65 733e
00000120: 8119 91bf 9eaa 94bd 09d1 ddbe 06b3 9bbe
00000130: 45de 67bf d313 0f3f 6496 e8bd 5ddc 123f
00000140: 4bb6 bbbd e6c0 003f bf78 44bf 6ac6 533e
00000150: 14d3 933f 7f1d 04bf bd2f 193f 4519 113e
00000160: a50a 0e3d d53b 0240 d061 07c0 fcc9 51be
00000170: 3a10 87bf 6982 03bf 46d4 02bf ee59 813e
00000180: 109a 8a3f b55e a0bf d60a d13e 77fa af3e
00000190: fdfd 02c0 bf53 c9bf a06f 123c 9e83 ab3e
000001a0: 7458 a63e 4223 4b3e 4529 6d3e 3a4c 183f
000001b0: b0d2 e23e 1a7b 05bf 6bf1 213f 817c 5abf
000001c0: 496e 9b3d 3031 13c0 d89f d3be 4311 8e3d
000001d0: 88b8 803f d79e 8a3e c81c 61bf 7595 07bd
000001e0: d2f3 4cbf 2d00 91be f6e7 b83f 2b0e 5a3e
000001f0: ba99 75bc 95af 6e3f 19fe 403f 2533 ad3f
00000200: efd9 cebe 1057 8abf 7788 fbbe 5df7 9e3f
00000210: 759e e33e 796f a13f 199c 903f d4a4 89bf
00000220: b4ef 88be e9cc a13e e3d1 32bf 570c a7bf
00000230: ef39 b73d 38b7 a4bf 5548 0cbf 3e31 193f
00000240: 5e44 3fbf 2974 c03e d8dc 1cbe 75d5 863f
00000250: 806a 113f 5f0f ba3e f873 283e 3bf7 5ebe
00000260: 9f85 933e f246 c4be 181e 16c0 03ee 593d
00000270: c9c6 6cbf 44b5 cb3e 6bbd 5cbe 21c3 883f
00000280: 3183 eb3e a998 79bf 268c ae3e 4ec3 993e
00000290: 0926 403f 2535 b9bd 3365 003f da64 023f
000002a0: f89f 0b3f d784 163f ee49 07be d49e 6f3f
000002b0: 6794 2fbf f079 bfbf 50a6 30be 27d1 8ebf
000002c0: 1583 2bbf 2654 60bb 40f6 03c0 8056 53bf
000002d0: e6ec 873f ad82 0cbd 1e3a 0640 00e7 8d3e
000002e0: 24f6 40bf 6d54 ecbe c0bb a93f f999 4ebe
000002f0: 72bb f73e 73b4 14bf 621c 91bf fdcf 4bbf
00000300: 76d6 0abf 2c27 5dbd aa18 833f bf11 d13e
00000310: c1fa c0bd b82a 843f 1178 02be 7a58 513f
00000320: 1221 cf3d 3c4e 9fbf 7962 1dbd 3869 c63e
00000330: 77de c03e 1e5b 84bf 595b ef3e bfb1 34bf
00000340: 0989 6e3f a9e3 853e 34bf b83e b684 4a3f
00000350: b93c 0bbf 0957 363f 9082 123e 73ee 94bf
00000360: a152 9a3f 80b8 5b3f cb2f ebbe 9d91 d13e
00000370: 62d0 66be 93c8 5ebe f16d a3bf 8a11 fbbe
00000380: 6bdb 92be 50e0 d53f fcbf 773e e68f dc3e
00000390: 9b11 3cbe 634d 433f e0bf 08bf 64ef c0bf
000003a0: 6b45 9c3e aa14 e1be 004d 873d 855f 1f3f
000003b0: d8f8 34bf 0de6 8c3f ac4d a83f 1e8a cfbf
000003c0: 3ce0 85bf 7ed4 03c0 e2e2 a1be 9526 0bbf
000003d0: 6a42 8e3f e134 d4be 0f10 063f 6b29 033e
000003e0: 29bc b33e 9a37 bd3f 82a4 3c3f 12a7 15bf
000003f0: f5bf 90be 2f38 2fbe e974 e53f a3cf 1c3f

net.0.weight f4 [128, 64]
-0.034499224 -0.14963412 0.05386943 -0.15672697 0.1285797 0.11584439 -0.112034865 0.14956708
0.05512567 0.28957558 0.0033189512 -0.22187869 0.13468067 -0.0034758477 -0.1093486 0.05628284
-0.19998883 -0.06536039 0.11043936 0.015425958 0.019804236 -0.13129452 0.20473298 -0.082169585
-0.22504684 -0.0006931722 0.35792863 0.06845665 0.09796741 0.12011521 0.05249776 -0.14579684
0.31453452 -0.19281863 0.2399022 -0.25911236 0.3546652 0.3181178 -0.07912859 -0.05496464
-0.37168798 0.3114867 -0.24216308 -0.15151003 -0.18131845 -0.23747605 0.36429417 -0.11041746
-0.22253889 0.38063282 0.15222934 0.16508515 0.37973124 0.32231632 0.08702589 -0.19365406
0.11225332 0.10368189 -0.060682748 0.23976767 0.15993658 0.059454232 -0.19339634 -0.019678313
0.5184757 0.1319988 -0.1080863 -0.19930722 0.087798126 -0.07002977 -0.14570588 0.041199118
0.11856702 0.6588499 -0.25463077 0.0165742 -0.35537386 -0.38438925 0.5135887 -0.5568275
0.06059762 0.01797663 -0.008610086 0.2365139 -0.22855334 -0.1960936 -0.4747966 0.33529693
-0.05915767 0.3144698 0.10967482 0.029217776 -0.02338232 0.1085324 -0.089122064 -0.20389296
0.2804787 -0.34260955 0.30056188 -0.28500336 0.22851677 0.43375716 0.21814562 -0.114417516
0.029784348 0.14899772 -0.2680192 -0.065105215 0.097227134 0.10174684 0.12882754 0.02010845
0.17394866 0.28992993 0.8972827 0.10094944 0.26304445 -0.031476203 0.07392354 0.1669152
0.24092971 -0.06116383 -0.21092018 0.18929853 -0.16889897 0.17739548 -0.2539764 0.17475082
-0.24144754 0.10006593 -0.24851048 0.22409607 -0.23246384 0.11042442 0.02024116 -0.08039095
0.01895581 -0.20944932 -0.06364964 0.07776647 0.0611508 -0.11421112 -0.13831997 -0.37836704
-0.33172983 0.07222748 -0.054675147 -0.02159713 0.03669861 -0.0009376729 0.046922144 0.24163978
-0.5768698 0.41677612 0.23971233 -0.36041436 -0.076885 -0.29508084 -0.27136466 -0.07121645
-0.14613868 0.43548238 0.42718324 0.4373082 0.07883517 0.04048781 0.044178452 -0.015635397
0.027005317 -0.061467037 0.5015188 -0.41511714 0.25850776 -0.38607422 -0.17177829 -0.10465864
0.09376771 -0.31233528 0.20041147 0.27719888 0.4622058 -0.3103076 0.15962525 -0.039736852
0.13340029 0.055800892 -0.3135973 0.055769164 -0.24810289 0.030968906 0.053743556 0.071879506
0.25740668 0.26624557 0.45254496 -0.35765094 0.31912196 0.04177765 0.12797776 -0.27244657
0.2563807 -0.2735708 -0.22004955 0.08478814 0.1628298 -0.099446714 0.17022863 -0.2781928
-0.15078227 0.15128595 -0.2289152 -0.1743465 -0.604635 -0.12737744 0.19848536 0.06335331
-0.16497995 0.05113716 0.046307605 -0.11993648 -0.078406505 -0.09759517 0.015386918 0.024045827
-0.23165423 -0.1610937 0.09779125 -0.2830942 0.14382966 0.36027154 0.17767486 0.08121089
-0.13552257 -0.35917717 -0.2548154 -0.008080813 0.08936798 0.038556803 0.11494703 -0.34615892
0.004721864 0.20615865 -0.14026912 0.15097797 -0.03532473 -0.41429102 -0.018859314 0.006228388
0.64121276 0.17696273 -0.17008431 0.27754527 0.12514634 0.24715829 -0.19668658 -0.18289128
00000000: 0f4f 0dbd b039 19be 31a6 5c3d 097d 20be
00000010: 66aa 033e d33f ed3d 8972 e5bd 1d28 193e
00000020: 74cb 613d 4043 943e c382 593b 2b34 63be
00000030: bbe9 093e 0ccb 63bb 29f2 dfbd d688 663d
00000040: dfc9 4cbe abdb 85bd 082e e23d 28bd 7c3c
00000050: 7e3c a23c 1272 06be 86a5 513e 8748 a8bd
00000060: ae72 66be 00b6 35ba 6c42 b73e 0033 8c3d
00000070: 23a3 c83d f7fe f53d e407 573d c44b 15be
00000080: ab0a a13e 3f72 45be eca8 753e 60aa 84be
00000090: ad96 b53e 56e0 a23e 2c0e a2bd 9a22 61bd
000000a0: e34d bebe 2f7b 9f3e 99f9 77be 7225 1bbe
000000b0: 8bab 39be ec2c 73be c484 ba3e 8d22 e2bd
000000c0: 3ce1 63be 4ee2 c23e 02e2 1b3e 150c 293e
000000d0: 226c c23e a506 a53e a13a b23d 404d 46be
000000e0: 12e5 e53d 2c57 d43d 798e 78bd a885 753e
000000f0: 6ac6 233e 4886 733d b109 46be 6a34 a1bc
00000100: d3ba 043f b22a 073e 5a5c ddbd 3117 4cbe
00000110: 81cf b33d c56b 8fbd ec33 15be 68c0 283d
00000120: 44d3 f23d 63aa 283f f75e 82be 9ec6 873c
00000130: 90f3 b5be abce c4be 8d7a 033f 3f8c 0ebf
00000140: 3635 783d ba43 933c 5111 0dbc b330 723e
00000150: e309 6abe c3cc 48be 8a18 f3be 0aac ab3e
00000160: 504f 72bd 3002 a13e 319d e03d 1e5a ef3c
00000170: 478c bfbc 3c46 de3d a185 b6bd 51c9 50be
00000180: e79a 8f3e 856a afbe 3fe3 993e f6eb 91be
00000190: 4d00 6a3e 6b15 de3e 9161 5f3e bb53 eabd
000001a0: 4efe f33c dc92 183e d039 89be e255 85bd
000001b0: 051f c73d a660 d03d 5eeb 033e 7aba a43c
000001c0: 991f 323e b271 943e 52b4 653f 94be ce3d
000001d0: c3ad 863e 31ed 00bd 3a65 973d d1eb 2a3e
000001e0: 47b6 763e ed86 7abd 76fb 57be 79d7 413e
000001f0: daf3 2cbe 29a7 353e 3209 82be e1f1 323e
00000200: 063e 77be 5eef cc3d 8879 7ebe 7179 653e
00000210: 000b 6ebe 3326 e23d cad0 a53c 03a4 a4bd
00000220: 3749 9b3c e279 56be be5a 82bd 0744 9f3d
00000230: 4379 7a3d 85e7 e9bd c0a3 0dbe 53b9 c1be
00000240: 7ed8 a9be 00ec 933d 0cf3 5fbd 77ec b0bc
00000250: 4851 163d 2ace 75ba 6f31 403d 6b70 773e
00000260: bdad 13bf ae63 d53e 2677 753e 3b88 b8be
00000270: e275 9dbd d614 97be 4ff0 8abe eed9 91bd
00000280: 61a5 15be 8cf7 de3e c3b7 da3e dce6 df3e
00000290: 5574 a13d 8cd6 253d 77f4 343d ce15 80bc
000002a0: 413a dd3c dcc4 7bbd 8963 003f 3c8a d4be
000002b0: 215b 843e 85ab c5be a6e6 2fbe 4557 d6bd
000002c0: 4909 c03d 69ea 9fbe aa38 4d3e 03ed 8d3e
000002d0: 3da6 ec3e a3e0 9ebe cd74 233e 1cc3 22bd
000002e0: 169a 083e 7a8f 643d d38f a0be 356e 643d
000002f0: af0e 7ebe 81b2 fd3c 3422 5c3d 9035 933d
00000300: cfca 833e 5751 883e f9b3 e73e 061e b7be
00000310: f463 a33e 0b1f 2b3d 9a0c 033e 1e7e 8bbe
00000320: 5544 833e 7911 8cbe ab54 61be 68a5 ad3d
00000330: dbbc 263e b8aa cbbd 6a50 2e3e 496f 8ebe
00000340: ab66 1abe b4ea 1a3e bf68 6abe e487 32be
00000350: 5cc9 1abf 3b6f 02be bf3f 4b3e 61bf 813d
00000360: 81f0 28be 3375 513d 0bad 3d3d 42a1 f5bd
00000370: 9793 a0bd fadf c7bd 6919 7c3c c1fb c43c
00000380: c436 6dbe bff5 24be c746 c83d b9f1 90be
00000390: 1548 133e 8375 b83e 66f0 353e e551 a63d
000003a0: 6ec6 0abe 12e6 b7be 2a77 82be 6365 04bc
000003b0: 8f06 b73d bded 1d3d 5969 eb3d be3b b1be
000003c0: deb9 9a3b 411b 533e b5a2 0fbe f899 1a3e
000003d0: aab0 10bd f41d d4be d97e 9abc 8117 cc3b
000003e0: 8526 243f b835 353e 952a 2ebe 6a1a 8e3e
000003f0: 5d26 003e 1017 7d3e 3568 49be da47 3bbe

net.0.bias f4 [128]
-0.38770613 -0.1108807 -0.06973684 -0.1185811 -0.79268116 -0.3293398 -0.20397097 -0.22451973
-0.44977346 -0.26687732 -0.29308394 -0.1868389 -0.21139015 -0.024752961 0.08421431 -0.5171053
-0.7503248 -0.5676274 -0.17060845 0.19340746 -0.17842996 -0.0023157867 -0.17383038 -0.48429328
0.0114608 -0.2846918 -0.27369186 0.099783435 -0.36488 -0.044037323 -0.022057015 0.05312615
-0.09629388 -0.2838618 -0.0064610564 -0.35866433 -0.4675189 -0.009093964 0.0047768494 -0.061855756
0.10281119 -0.03204824 -0.15899082 0.09016644 -0.41421223 -0.2993012 -0.25116143 -0.4787311
0.28632724 -0.32976326 0.008403947 -0.40554357 -0.6790315 0.10608841 -0.69945794 -0.17462282
-0.3041139 -0.3938874 -0.5303406 -0.07183324 0.16429828 -0.06445925 0.20854098 -0.14590827
-0.06594133 -0.3007183 0.100053616 -0.33492956 -0.22658743 0.21233582 0.12135275 -0.391833
0.21105193 -0.32504255 -0.09729503 -0.674175 -0.0039765355 -0.24976724 -0.13969405 0.11653229
-0.032888215 -0.3218343 0.20815843 0.48370442 0.012788298 0.21440941 -0.44085607 -0.33039093
0.14128244 0.46533436 -0.06590574 0.054224037 -0.050962355 0.06843287 -0.20296715 -0.19870436
-0.50564885 -0.056579467 -0.36645034 0.04590789 -0.19302338 0.45297796 0.030657563 -0.16280234
-0.2889886 -0.810588 -0.08054478 -0.13121687 0.035796255 -0.29270098 -0.18557854 0.13805032
-0.044184152 -0.14363524 -0.18360353 -0.13908511 -0.28612995 -0.27055505 -0.36417168 -0.26133323
0.017382102 -0.13880906 -0.30859274 -0.3666241 0.05582763 -0.35984 0.26497376 -0.17462133
00000000: 6b81 c6be 6c15 e3bd 30d2 8ebd a6da f2bd
00000010: 27ed 4abf 3a9f a8be c4dd 50be 80e8 65be
00000020: b548 e6be 25a4 88be 190f 96be b252 3fbe
00000030: a976 58be b9c6 cabc 8d78 ac3d 0361 04bf
00000040: 4915 40bf 0750 11bf fbb3 2ebe 9b0c 463e
00000050: 58b6 36be 74c4 17bb 9700 32be 4af5 f7be
00000060: 14c6 3b3c 20c3 91be 5721 8cbe 425b cc3d
00000070: 8dd1 babe 7b60 34bd eab0 b4bc ce9a 593d
00000080: ba35 c5bd 5556 91be 45b7 d3bb daa2 b7be
00000090: a35e efbe d9fe 14bc 1e87 9c3b 765c 7dbd
000000a0: ac8e d23d 0445 03bd 7dce 22be 2fa9 b83d
000000b0: a013 d4be 023e 99be 3b98 80be 3e1c f5be
000000c0: 7c99 923e bbd6 a8be b5b0 093c 68a3 cfbe
000000d0: 02d5 2dbf e144 d93d ad0f 33bf 53d0 32be
000000e0: d1b4 9bbe 9cab c9be 67c4 07bf 4e1d 93bd
000000f0: cf3d 283e 3603 84bd c48b 553e fa68 15be
00000100: 3f0c 87bd c0f7 99be e9e8 cc3d e37b abbe
00000110: 8906 68be 906e 593e ca87 f83d 569e c8be
00000120: ff1d 583e fa6b a6be 9e42 c7bd bc96 2cbf
00000130: 994d 82bb fcc2 7fbe f50b 0fbe 7ba8 ee3d
00000140: cbb5 06bd 77c7 a4be 7c27 553e 1ba8 f73e
00000150: 0286 513c 248e 5b3e e3b7 e1be 0029 a9be
00000160: 58ac 103e 4e40 ee3e 97f9 86bd 061a 5e3d
00000170: e7bd 50bd 8826 8c3d 9fd6 4fbe 2879 4bbe
00000180: 3472 01bf dfbf 67bd 619f bbbe e909 3c3d
00000190: eca7 45be baec e73e 9225 fb3c a8b5 26be
000001a0: 50f6 93be b282 4fbf a9f4 a4bd b75d 06be
000001b0: 189f 123d e7dc 95be 4d08 3ebe 105d 0d3e
000001c0: 71fa 34bd 1e15 13be 9002 3cbe 546c 0ebe
000001d0: a07f 92be 3186 8abe b674 babe 78cd 85be
000001e0: e964 8e3c f623 0ebe deff 9dbe 27b6 bbbe
000001f0: 83ab 643d f33c b8be a4aa 873e efcf 32be

net.2.weight f4 [128, 128]
-0.052002862 -0.057615113 -0.091414474 -0.08167919 -0.023202222 -0.05292613 0.02898809 -0.072908066
-0.10495482 -0.07785214 -0.04281496 0.061252818 -0.016685218 -0.12535928 -0.03892623 0.0038511055
-0.010269823 -0.0972715 0.047620628 -0.016755823 -0.1176106 -0.14133546 -0.117944166 0.010660371
0.010446248 -0.04546133 -0.06387014 0.03334568 -0.1537634 0.06068213 0.02823988 -0.123238176
-0.03768606 0.032201197 -0.06900136 0.06371545 0.09446681 -0.16909601 0.026643999 -0.07525858
-0.11527587 -0.05600233 -0.08448766 -0.042253952 -0.020982113 -0.082980454 0.026940843 -0.08797244
0.0056242826 0.021993818 0.0074316743 -0.1093636 -0.099499874 -0.14252162 -0.0050316676 -0.08593249
0.085026965 0.0041071847 -0.10319744 -0.07471866 -0.040721074 -0.13491797 -0.11719095 -0.039582193
0.002548009 -0.049734917 -0.104108214 0.018456671 -0.1552335 -0.018770095 0.07927717 -0.049281258
-0.0063508726 0.007323348 0.034624167 0.035090424 0.036998667 -0.04086034 -0.09640639 0.02127761
-0.054250795 0.026082404 -0.0286542 -0.0520951 -0.01907403 -0.120073296 -0.05979675 -0.03195216
-0.03867753 -0.008860807 -0.0417855 -0.018041804 0.018696925 -0.058408465 -0.031231023 -0.065081514
-0.044044793 0.09586116 -0.07555634 -0.067562774 -0.091537744 0.01198108 0.049194653 0.013498697
-0.034071237 -0.019763803 0.023257347 0.05029393 -0.017542742 -0.10918391 -0.069214426 -0.100690804
-0.043131836 -0.060533077 -0.050804816 -0.12931038 0.072594196 -0.03902973 -0.05404293 -0.08092268
-0.057270337 -0.0066118366 -0.07496838 0.020196032 -0.004540823 -0.012972904 -0.08124543 -0.050668854
0.010808865 0.24248816 -0.15846607 -0.3420566 -0.8512414 0.03947295 0.032205854 -0.09788405
-0.07719581 -0.13279833 -0.29543406 0.058465764 -0.3244347 0.082448855 0.2588985 -0.17554714
0.021725606 -0.23211864 0.007484114 0.2173182 0.14910433 0.17470449 -0.247475 -0.14299655
0.2755618 -0.60973513 -0.19843265 0.21748659 0.19445987 0.32705253 0.1349575 -0.08206549
-0.30086318 -0.0018657822 -0.002969525 0.2633384 0.073466994 0.38059407 -0.55145407 0.25140965
-0.38620603 -0.103015095 0.41262087 0.49653104 0.081859246 -0.17637834 -0.3143918 -0.49735624
-0.36943012 -0.25469887 -0.013924575 0.105355196 -0.13012512 -0.08872659 -0.13964328 -0.07095949
0.20038667 0.037476294 -0.059868995 0.14598194 0.1319108 -0.044271123 -0.2875748 0.066509016
0.49651802 -0.18808056 -0.072628655 -0.2280127 0.34204274 -0.6560898 -0.3974064 -0.4549929
-0.48547378 -0.39260432 0.11333544 -0.1176669 -1.1075966 0.09487029 0.17479059 0.47633424
-0.30039498 -0.42173898 -0.70456254 -0.17598417 0.34206048 -0.31173164 0.13879603 -0.21922605
-0.32008794 -0.15897374 0.41134474 -0.073603235 -0.06866132 0.20934196 0.13654743 0.06931456
-0.007563139 -0.46556985 -0.29956684 -0.058732912 -0.0013014376 0.17381333 -0.12013089 -0.043996904
0.110216595 -0.049122896 -0.058197793 0.17759089 -0.4633766 0.03937941 0.094429955 -0.6343294
-0.0028994663 -0.16306065 -0.14777288 -0.033320755 0.24007754 0.14303495 0.13027276 -0.033196583
-0.044060946 -0.45929042 -0.4952689 0.27153343 -0.36845967 -0.3587013 -0.76543784 -0.035360288
00000000: f400 55bd d3fd 6bbd 8337 bbbd 6b47 a7bd
00000010: 9612 bebc 12c9 58bd 6e78 ed3c d350 95bd
00000020: 8df2 d6bd f170 9fbd bd5e 2fbd 3ce4 7a3d
00000030: 70af 88bc 2f5e 00be 1c71 1fbd d462 7c3b
00000040: c242 28bc 4836 c7bd d90d 433d 8243 89bc
00000050: d4dd f0bd 3eba 10be b68c f1bd d6a8 2e3c
00000060: bd26 2b3c a935 3abd 59ce 82bd 7b95 083d
00000070: 2774 1dbe d38d 783d 5257 e73c 4c64 fcbd
00000080: b35c 1abd 67e5 033d 9650 8dbd 3f7d 823d
00000090: d177 c13d 8127 2dbe 8444 da3c 2c21 9abd
000000a0: c115 ecbd b362 65bd de07 adbd 7b12 2dbd
000000b0: aee2 abbc a8f1 a9bd 0bb3 dc3c e52a b4bd
000000c0: e74b b83b 612c b43c 6785 f33b 06fa dfbd
000000d0: 97c6 cbbd 30f1 11be b0e0 a4bb 60fd afbd
000000e0: 9e22 ae3d 9095 863b 2e59 d3bd 1906 99bd
000000f0: 24cb 26bd f027 0abe cf01 f0bd f020 22bd
00000100: 7ffc 263b d7b6 4bbd b036 d5bd 7232 973c
00000110: 88f5 1ebe bec3 99bc 125c a23d 25db 49bd
00000120: fb1a d0bb b2f8 ef3b 12d2 0d3d faba 0f3d
00000130: ea8b 173d 2c5d 27bd b770 c5bd 624e ae3c
00000140: 1536 5ebd c4aa d53c 36bc eabc ac61 55bd
00000150: 2441 9cbc fde8 f5bd 70ed 74bd 45e0 02bd
00000160: 546c 1ebd eb2c 11bc 4627 2bbd 68cc 93bc
00000170: 4b2a 993c b73d 6fbd 34d8 ffbc 7549 85bd
00000180: 5068 34bd db52 c43d 48bd 9abd 5a5e 8abd
00000190: 2478 bbbd 4b4c 443c 5580 493d a429 5d3c
000001a0: 488e 0bbd b3e7 a1bc 3186 be3c 0201 4e3d
000001b0: ccb5 8fbc d09b dfbd 4bc0 8dbd fb36 cebd
000001c0: 02ab 30bd 88f1 77bd b618 50bd f169 04be
000001d0: 44ac 943d a3dd 1fbd 1f5c 5dbd caba a5bd
000001e0: 4d94 6abd 1ba8 d8bb 0689 99bd 2672 a53c
000001f0: 2fcb 94bb 4e8c 54bc 0164 a6bd 258a 4fbd
00000200: aa17 313c d14e 783e ee44 22be 0b22 afbe
00000210: f5ea 59bf 63ae 213d 49ea 033d 6f77 c8bd
00000220: d618 9ebd 49fc 07be 2243 97be cc79 6f3d
00000230: 4e1c a6be f2da a83d 588e 843e a1c2 33be
00000240: e6f9 b13c 82b0 6dbe 4c3d f53b aa88 5e3e
00000250: ceae 183e bce5 323e 166a 7dbe b06d 12be
00000260: 7016 8d3e 9a17 1cbf ee31 4bbe ceb4 5e3e
00000270: 7d20 473e 6e73 a73e 4d32 0a3e f411 a8bd
00000280: bd0a 9abe 438d f4ba 5d9c 42bb 4ad4 863e
00000290: dd75 963d 3add c23e 182c 0dbf c4b8 803e
000002a0: ccbc c5be 94f9 d2bd 0b43 d33e 5139 fe3e
000002b0: d2a5 a73d 869c 34be f6f7 a0be 7aa5 febe
000002c0: f225 bdbe e467 82be e723 64bc 77c4 d73d
000002d0: 853f 05be 49b6 b5bd a6fe 0ebe 3653 91bd
000002e0: 2a32 4d3e be80 193d 3139 75bd 4a7c 153e
000002f0: a013 073e a355 35bd 013d 93be e135 883d
00000300: 9c37 fe3e 3198 40be 55be 94bd 297c 69be
00000310: 3a20 af3e 80f5 27bf da78 cbbe d4f4 e8be
00000320: 0590 f8be 6f03 c9be 691c e83d 58fb f0bd
00000330: bac5 8dbf 5b4b c23d 4efc 323e 15e2 f33e
00000340: 5fcd 99be 2cee d7be 365e 34bf 3235 34be
00000350: 8d22 af3e 4a9b 9fbe 8c20 0e3e cb7c 60be
00000360: 91e2 a3be 03ca 22be c79b d23e 4bbd 96bd
00000370: 4e9e 8cbd bd5d 563e 17d3 0b3e cbf4 8d3d
00000380: 35d4 f7bb 2c5f eebe d360 99be ec91 70bd
00000390: 0095 aaba 1ffc 313e 2f07 f6bd 1936 34bd
000003a0: 3db9 e13d 1735 49bd cf60 6ebd 63da 353e
000003b0: b33f edbe 4e4c 213d 7e64 c13d 6963 22bf
000003c0: f904 3ebb 5ff9 26be c651 17be 587b 08bd
000003d0: e3d6 753e c177 123e 3966 053e 24f9 07bd
000003e0: 4079 34bd 1d28 ebbe e393 fdbe 6e06 8b3e
000003f0: bfa6 bcbe b2a7 b7be bcf3 43bf f3d5 10bd

net.2.bias f4 [128]
-0.103946105 0.14830266 -0.07451597 0.8536128 0.19788983 0.2322667 0.30342925 -0.05412068
0.3612998 0.13191806 -0.079139374 0.20141326 -0.007412143 -0.10479488 0.045861643 0.32260072
0.53478926 0.46285117 0.083004184 0.17559065 -0.07651113 0.13045119 0.6463527 0.1942473
0.13628083 -0.093666635 0.5143664 0.18972854 0.23982888 0.35046062 0.16960974 0.046331994
0.20690683 0.5072913 0.42140657 0.09720018 0.20806406 0.32329828 0.5540455 0.9563253
0.042881247 0.13689153 0.28302374 -0.035928357 -0.045918103 0.25002113 0.19065258 -0.1589085
0.11797116 -0.0886821 -0.08930874 0.14914136 -0.069488645 0.048534945 0.010664052 0.11880084
-0.044364188 0.076786555 0.2959655 -0.022621268 0.26142666 0.10771053 0.3882462 -0.050079193
0.22515027 -0.047262628 0.24365562 -0.2329919 0.23300354 -0.085917816 -0.12098424 0.051093552
0.06309842 0.1704879 -0.059058424 0.026377957 0.75928193 0.40564862 0.0075110826 0.20906386
0.16565609 0.26402137 0.8204716 0.15300837 -0.04695386 0.22915812 -0.0017120652 0.17579265
-0.21786553 0.2806419 0.28956044 -0.0013951529 -0.17582352 -0.060156945 0.18200536 -0.12304504
0.24918358 0.92755365 0.15127498 0.28521004 0.12755005 0.07874507 0.023286013 -0.040423945
0.79577136 0.18053505 0.13833827 0.19439745 -0.099786505 0.23970495 0.050663713 0.25125802
0.21495186 0.31042024 0.19738293 0.050910883 0.3369295 0.080768354 -0.1050532 0.27304322
0.1893184 0.5665503 0.3004809 0.16092204 0.2132654 0.3483934 0.31837702 -0.08964958
00000000: b2e1 d4bd a7dc 173e d49b 98bd 5e86 5a3f
00000010: a2a3 4a3e 52d7 6d3e 145b 9b3e a5ad 5dbd
00000020: 4afc b83e 8715 073e d313 a2bd 473f 4e3e
00000030: 90e1 f2bb b39e d6bd 6bd9 3b3d ec2b a53e
00000040: f3e7 083f d4fa ec3e 19fe a93d 09ce 333e
00000050: deb1 9cbd ff94 053e 5f77 253f c4e8 463e
00000060: 348d 0b3e 4bd4 bfbd 84ad 033f 3348 423e
00000070: b495 753e 936f b33e 2dae 2d3e 9ec6 3d3d
00000080: 62df 533e d8dd 013f 9ac2 d73e e310 c73d
00000090: bf0e 553e 5a87 a53e edd5 0d3f bcd1 743f
000000a0: 3fa4 2f3d 4b2d 0c3e 7de8 903e 9d29 13bd
000000b0: 9f14 3cbd c502 803e 6e3a 433e e9b8 22be
000000c0: dd9a f13d f69e b5bd 80e7 b6bd 83b8 183e
000000d0: 1050 8ebd 94cc 463d 47b8 2e3c db4d f33d
000000e0: 39b7 35bd 4542 9d3d ca88 973e 3d50 b9bc
000000f0: b7d9 853e 5797 dc3d 35c8 c63e d71f 4dbd
00000100: cb8d 663e 7596 41bd dc80 793e 6e95 6ebe
00000110: 7b98 6e3e aef5 afbd 96c6 f7bd 7947 513d
00000120: bf39 813d 6194 2e3e 3fe7 71bd 9616 d83c
00000130: 4d60 423f 2db1 cf3e 871f f63b d614 563e
00000140: c0a1 293e cf2d 873e 6d0a 523f 3aae 1c3e
00000150: b152 40bd 6da8 6a3e 6067 e0ba fd02 343e
00000160: 2418 5fbe 4cb0 8f3e 4441 943e 90dd b6ba
00000170: 150b 34be 2167 76bd 9d5f 3a3e 0aff fbbd
00000180: fb29 7f3e 2874 6d3f d4e7 1a3e 0d07 923e
00000190: 7b9c 023e 1845 a13d 4fc2 be3c 9493 25bd
000001a0: acb7 4b3f 2ede 383e 8ca8 0d3e 2010 473e
000001b0: de5c ccbd 3775 753e c184 4f3d e4a4 803e
000001c0: 571c 5c3e 67ef 9e3e c01e 4a3e ee87 503d
000001d0: 0682 ac3e e169 a53d 2226 d7bd 52cc 8b3e
000001e0: afdc 413e 7109 113f a2d8 993e bfc8 243e
000001f0: 3f62 5a3e 9f60 b23e 5002 a33e 339a b7bd

net.4.weight f4 [6, 128]
0.0051070615 0.08289557 0.045933656 -0.017324945 0.13838676 -0.032891467 0.015913282 0.20427874
0.25014535 -0.38564205 0.05778238 -0.12673156 -0.08024291 0.018510485 -0.28589723 0.26001003
0.10869052 0.19537185 -0.10340177 -0.0057405396 0.06984049 0.09223301 0.0125202695 -0.016525475
-0.1102592 0.19056715 0.14519079 0.001433384 0.15438712 0.14507666 -0.10327268 0.012025019
-0.09033179 0.0070951856 -0.10289534 0.2558295 -0.05544926 0.0568052 -0.029275578 0.3246663
-0.013667382 -0.119363576 -0.48282155 -0.093969025 0.13258545 0.047194418 0.107860364 -0.22326002
-0.2033366 -0.047990102 0.16030948 0.28933823 -0.3185369 0.04465669 0.079042725 0.005306627
0.21240918 0.16392115 -0.026569352 -0.11791595 0.08344601 0.13691232 0.17402288 0.1346448
0.1893604 0.026876185 -0.11178585 -0.56619185 -0.21583074 -0.022999497 0.04662254 0.077935845
0.046270307 -0.07221561 -0.26867583 0.10117382 0.17281027 0.008162907 0.042669777 0.100897156
0.0047480273 -0.07175198 0.039099183 0.09275846 0.009157136 0.15333852 -0.13919827 -0.12712753
-0.30521148 0.12219671 0.25714424 -0.10054812 0.017984685 -0.2759956 0.15838961 0.06956306
0.08517202 0.013392696 -0.013072404 -0.29816163 0.007342614 0.14612171 -0.12652136 0.07663933
0.08037763 0.08627509 -0.07851975 0.22046219 0.06143992 0.030289367 0.0075675836 -0.24264748
0.12647136 0.07013368 0.0533614 0.19163205 -0.2346176 -0.064126804 0.05930686 -0.055926934
0.16254464 -0.059935972 0.08946135 -0.09477921 -0.14920959 -0.050482046 0.130135 -0.18161234
-0.048091684 0.0125369 0.037523136 0.046935618 -0.16725667 -0.04445635 0.17600739 -0.041277725
0.091779694 0.18482737 -0.02654158 0.0221784 0.028802203 -0.08681334 0.07722765 0.106543824
0.24163058 0.16274028 -0.2310538 0.13934055 0.13643128 0.14275867 0.10138957 -0.040359683
0.12956603 -0.016962737 0.06448427 -0.3039095 0.008907958 0.095886305 0.024803879 0.18047822
-0.054778166 -0.13251917 0.1185358 -0.042938747 0.18886356 -0.16289842 -0.025033154 0.12787123
-0.030695027 0.13879077 0.03717701 -0.10965818 -0.1916821 0.066657715 -0.16091129 0.09672458
-0.08208887 0.026983187 -0.42248076 0.06318978 0.17816749 -0.14834884 -0.0914428 0.15344337
0.26506147 0.17195213 0.010437913 0.06084107 0.09285959 0.2015418 0.06879689 -0.20217238
0.15050814 -0.059134275 0.11117639 -0.07617331 0.30283967 -0.09024827 0.031016756 -0.23284824
0.36593533 -0.012994151 -0.023277387 -0.12822203 0.33965608 0.078686126 0.052984137 0.10513281
0.08843719 0.048347414 0.08701116 -0.003771485 -0.03401819 -0.049307097 0.017817313 -0.3724137
0.04231553 0.05571072 0.26673254 0.02712293 -0.44589847 0.15300082 0.29350844 -0.08510333
-0.2593058 0.059727337 -0.115793094 -0.07558855 0.22857541 -0.116574265 -0.027158989 -0.01147035
0.048916616 -0.29546696 0.103629604 -0.030659564 0.008454334 0.05485625 0.34199804 0.019131906
-0.0017974015 -0.0020087499 0.016144523 0.20843585 0.08299079 -0.06798095 -0.19983968 -0.15711318
-0.33702987 0.11970412 0.10535664 0.22435158 0.21278156 -0.10008672 0.16669898 -0.053526968
00000000: 2359 a73b 27c5 a93d ee24 3c3d 0bed 8dbc
00000010: 42b5 0d3e 34b9 06bd 925c 823c 722e 513e
00000020: 0d13 803e e072 c5be 38ad 6c3d ebc5 01be
00000030: 6556 a4bd 4da3 973c 1f61 92be 0920 853e
00000040: 2399 de3d 8f0f 483e 4fc4 d3bd 231b bcbb
00000050: 8808 8f3d a9e4 bc3d d121 4d3c 6f60 87bc
00000060: 93cf e1bd 0924 433e e5ac 143e 63e0 bb3a
00000070: a817 1e3e fa8e 143e a080 d3bd 9604 453c
00000080: e0ff b8bd bb7e e83b cbba d2bd 16fc 823e
00000090: c31e 63bd 92ac 683d 56d3 efbc a93a a63e
000000a0: 28ed 5fbc e474 f4bd 6334 f7be d572 c0bd
000000b0: 7bc4 073e ef4e 413d e5e5 dc3d 469e 64be
000000c0: 7837 50be 4591 44bd 2b28 243e 2424 943e
000000d0: 4517 a3be efe9 363d 27e1 a13d 37e3 ad3b
000000e0: cb81 593e f2da 273e f8a7 d9bc eb7d f1bd
000000f0: bee5 aa3d be32 0c3e 0e33 323e 54e0 093e
00000100: b1e7 413e 722b dc3c fbef e4bd f3f1 10bf
00000110: bc02 5dbe 7169 bcbc 47f7 3e3d d49c 9f3d
00000120: ef85 3d3d c7e5 93bd e18f 89be 3834 cf3d
00000130: 2df5 303e b7bd 053c 81c6 2e3d 2ba3 ce3d
00000140: 5795 9b3b b4f2 92bd 7726 203d 26f8 bd3d
00000150: d007 163c c604 1d3e fe89 0ebe b82d 02be
00000160: ae44 9cbe 4542 fa3d 69a8 833e 2cec cdbd
00000170: 9e54 933c 4c4f 8dbe e330 223e 1477 8e3d
00000180: ab6e ae3d 0a6d 5b3c a32d 56bc a4a8 98be
00000190: 4f9a f03b eea0 153e d18e 01be 15f5 9c3d
000001a0: 079d a43d ffb0 b03d f6ce a0bd d7c0 613e
000001b0: 6da8 7b3d 6821 f83c 7ef9 f73b 9578 78be
000001c0: b581 013e 3fa2 8f3d 7c91 5a3d 313b 443e
000001d0: 993f 70be ea54 83bd c0eb 723d a413 65bd
000001e0: 1a72 263e 6c7f 75bd 8337 b73d 9a1b c2bd
000001f0: 66ca 18be 43c6 4ebd 1c42 053e 96f8 39be
00000200: c9fb 44bd 9267 4d3c dcb1 193d 903f 403d
00000210: 5545 2bbe dd17 36bd 483b 343e d512 29bd
00000220: fef6 bb3d 6343 3d3e ba6d d9bc 7aaf b53c
00000230: 99f2 eb3c 31cb b1bd 8829 9e3d a633 da3d
00000240: 026e 773e 63a5 263e 5e99 6cbe 4aaf 0e3e
00000250: a4b4 0b3e 542f 123e 56a5 cf3d 3250 25bd
00000260: f5ac 043e 70f5 8abc 5410 843d 079a 9bbe
00000270: aff2 113c 0a60 c43d 8131 cb3c 48cf 383e
00000280: 125f 60bd 1bb3 07be e6c2 f23d 8ae0 2fbd
00000290: 7365 413e d8ce 26be 5412 cdbc adf0 023e
000002a0: 2374 fbbc 2b1f 0e3e ec46 183d 7894 e0bd
000002b0: 5048 44be d783 883d eec5 24be 8917 c63d
000002c0: 361e a8bd d80b dd3c 664f d8be a569 813d
000002d0: 8a71 363e c2e8 17be 5d46 bbbd 4220 1d3e
000002e0: 23b6 873e 3814 303e c803 2b3c 7c34 793d
000002f0: 2b2d be3d f960 4e3e 62e5 8c3d 4706 4fbe
00000300: ce1e 1a3e c836 72bd 72b0 e33d c100 9cbd
00000310: cd0d 9b3e 16d4 b8bd da16 fe3c c56f 6ebe
00000320: e05b bb3e 6be5 54bc 38b0 bebc a34c 03be
00000330: 67e7 ad3e 3126 a13d e505 593d df4f d73d
00000340: 8f1e b53d f007 463d e832 b23d 052b 77bb
00000350: a856 0bbd 3df6 49bd 9df5 913c 02ad bebe
00000360: 0d53 2d3d ed30 643d 2b91 883e e830 de3c
00000370: ce4c e4be 3fac 1c3e bd46 963e a84a aebd
00000380: bbc3 84be a7a4 743d ee24 edbd 2bce 9abd
00000390: ac0f 6a3e 7dbe eebd 877c debc 23ee 3bbc
000003a0: ca5c 483d 7247 97be c23b d43d c429 fbbc
000003b0: 0c84 0a3c f2b0 603d 5e1a af3e 84ba 9c3c
000003c0: c996 ebba 3ba5 03bb 8541 843c 3570 553e
000003d0: 13f7 a93d 9939 8bbd c6a2 4cbe 47e2 20be
000003e0: 2e8f acbe 6f27 f53d 39c5 d73d 6cbc 653e
000003f0: 69e3 593e 44fa ccbd 23b3 2a3e 183f 5bbd

net.4.bias f4 [6]
0.14540565 0.14039482 0.08388511 0.045230698 -1.1794571 -0.95747566
00000000: 38e5 143e a9c3 0f3e f5cb ab3d d343 393d
00000010: 73f8 96bf 201d 75bf
