results/double_dqn/seed_0/double_dqn.pt (torch, 233784 bytes, 7 tensors)

embed.weight f4 [500, 64]
-1.1258398 -1.1523602 -0.25057858 -0.4338788 0.84871036 0.69200915 -0.31601277 -2.1152194
0.32227492 -1.2633348 0.3499832 0.30813393 0.11984151 1.2376579 1.1167772 -0.24727815
-1.3526537 -1.6959312 0.5666506 0.79350835 0.59883946 -1.5550951 -0.3413604 1.8530061
0.7501895 -0.58549756 -0.17339675 0.18347794 1.3893661 1.5863342 0.94629836 -0.84367675
-0.6135831 0.03159274 -0.49267697 0.24841475 0.43969584 0.112411186 0.64079237 0.44115627
-0.10230965 0.792444 -0.2896677 0.052507486 0.52286047 2.3022053 -1.4688939 -1.5866888
-0.6730899 0.8728312 1.0553575 0.17784372 -0.23033547 -0.3917544 0.5432947 -0.39515755
-0.44621718 0.7440207 1.5209795 3.4105027 -1.5311843 -1.234135 1.8197253 -0.5515287
-0.7239375 0.40262672 1.1466464 1.3378605 -1.4429336 2.405719 -0.32215366 0.24369584
-1.1243297 -0.08255807 -0.42474613 -0.3062337 -0.8951044 0.5485355 -0.1347276 0.56133384
-0.093794174 0.5132445 -0.7726537 0.20663151 1.1517788 -0.48005548 0.6040377 0.14414081
0.02819163 2.032098 -2.1098146 -0.2166643 -1.0472971 -0.51776844 -0.51168764 0.23310192
1.0685468 -1.2377334 0.4153062 0.33695072 -2.0344884 -1.5757265 0.0027514172 0.33533558
0.32705784 0.19702338 0.22223042 0.57284755 0.45459354 -0.49542302 0.62248266 -0.85311276
0.07427637 -2.2956977 -0.39642718 0.0778056 1.0000153 0.26800314 -0.8849953 -0.023817273
-0.7925472 -0.28838798 1.4151685 0.22427076 -0.026854943 0.9356267 0.7459189 1.34796
-0.39758107 -1.0833298 -0.49138263 1.2443851 0.44249377 1.2639335 1.1243677 -1.0753171
-0.2642718 0.32651073 -0.71091646 -1.3078098 0.08846125 -1.295648 -0.5484765 0.60234195
-0.74692833 0.37961805 -0.15211648 1.0529562 0.5688039 0.36247566 0.16075358 -0.21779339
0.28523257 -0.37958083 -2.3466926 0.052866165 -0.93063766 0.40124574 -0.22084105 1.0716932
0.45150283 -0.97808784 0.33876458 0.30584183 0.74917585 -0.090133086 0.5004776 0.5078267
0.54692525 0.5835149 -0.12962294 0.9353967 -0.6892142 -1.497962 -0.17569855 -1.1151195
-0.668261 -0.0036585936 -2.063726 -0.8271786 1.0667182 -0.034405477 2.099113 0.282395
-0.7468292 -0.45681655 1.334388 -0.20331782 0.48099083 -0.5872454 -1.1313066 -0.7926882
-0.5745975 -0.046902314 1.0368674 0.40965986 -0.06555397 1.0365595 -0.12976494 0.83630294
0.09415436 -1.2470624 -0.0375147 0.38879243 0.39058986 -1.028711 0.46775922 -0.72329617
0.9385638 0.2703499 0.3836084 0.79154664 -0.54860294 0.7066809 0.15314715 -1.1602862
1.2176654 0.8590384 -0.44416022 0.41507012 -0.26981947 -0.21469699 -1.2818121 -0.48539972
-0.29017493 1.663628 0.22229631 0.43412971 -0.19175585 0.7677263 -0.53295904 -1.5001739
0.30552706 -0.44799876 0.06535796 0.6264503 -0.7077352 1.1038213 1.3212888 -1.6540104
-1.0551623 -2.0670135 -0.31918323 -0.52618337 1.1129475 -0.41049922 0.52624166 0.14789279
0.36732364 1.4797585 0.73216116 -0.59153056 -0.2751002 -0.17508216 1.7919035 0.62048864
00000000: 851b 90bf 8a80 93bf d64b 80be 5d25 debe
00000010: 1545 593f 8327 313f 6dcc a1be c15f 07c0
00000020: 3801 a53e f4b4 a1bf ff30 b33e bbc3 9d3e
00000030: 776f f53d 936b 9e3f 8ef2 8e3f 7c36 7dbe
00000040: c223 adbf 4614 d9bf 0410 113f 5d23 4b3f
00000050: 8b4d 193f 5b0d c7bf cac6 aebe 4e2f ed3f
00000060: 6b0c 403f 2be3 15bf eb8e 31be a4e1 3b3e
00000070: c0d6 b13f 000d cb3f 9c40 723f 33fb 57bf
00000080: c813 1dbf 6467 013d 2840 fcbe 7060 7e3e
00000090: d01f e13e d637 e63d f80a 243f 3cdf e13e
000000a0: b987 d1bd 9cdd 4a3f 534f 94be 1712 573d
000000b0: 2fda 053f 5557 1340 b704 bcbf 9e18 cbbf
000000c0: 9f4f 2cbf de71 5f3f f415 873f aa1c 363e
000000d0: 10dd 6bbe 0894 c8be 5d15 0b3f 1752 cabe
000000e0: 9476 e4be 2478 3e3f 75af c23f ad45 5a40
000000f0: d9fd c3bf 23f8 9dbf c2ec e83f fc30 0dbf
00000100: f853 39bf 1725 ce3e 4fc5 923f 033f ab3f
00000110: 0cb2 b8bf 4df7 1940 53f1 a4be 678b 793e
00000120: 09ea 8fbf 3514 a9bd 5378 d9be aaca 9cbe
00000130: 9025 65bf d36c 0c3f 08f6 09be 93b3 0f3f
00000140: 2917 c0bd fe63 033f a2cc 45bf 3697 533e
00000150: 7d6d 933f d5c9 f5be 37a2 1a3f a699 133e
00000160: 22f2 e63c e50d 0240 3407 07c0 3fdd 5dbe
00000170: d50d 86bf 798c 04bf f6fd 02bf 45b2 6e3e
00000180: 24c6 883f 0c6e 9ebf 04a3 d43e ce84 ac3e
00000190: 0f35 02c0 68b1 c9bf 1f51 343b 1bb1 ab3e
000001a0: 2074 a73e 7fc0 493e 5f90 633e 23a6 123f
000001b0: 7cc0 e83e 16a8 fdbe 065b 1f3f 9965 5abf
000001c0: 361e 983d b6ec 12c0 81f8 cabe 8b58 9f3d
000001d0: 8000 803f b537 893e 0d8f 62bf 711c c3bc
000001e0: 60e4 4abf 97a7 93be 3e24 b53f 3ca7 653e
000001f0: e6fe dbbc 3b85 6f3f 8bf4 3e3f f489 ac3f
00000200: bf8f cbbe 8daa 8abf 8196 fbbe 0348 9f3f
00000210: 8b8e e23e 93c8 a13f 48eb 8f3f fea3 89bf
00000220: a24e 87be 6a2c a73e 9ffe 35bf 5066 a7bf
00000230: 2c2b b53d cbd7 a5bf f568 0cbf 1533 1a3f
00000240: b236 3fbf 4c5d c23e 6cc4 1bbe 45c7 863f
00000250: 229d 113f 6996 b93e 969c 243e 3b05 5fbe
00000260: 010a 923e 6b58 c2be 3630 16c0 318a 583d
00000270: 453e 6ebf 1570 cd3e 2824 62be 3e2d 893f
00000280: 612b e73e f763 7abf 8d72 ad3e 4d97 9c3e
00000290: fdc9 3f3f b297 b8bd 4d1f 003f ee00 023f
000002a0: 4b03 0c3f 3c61 153f e0bb 04be 2876 6f3f
000002b0: 5870 30bf 38bd bfbf 52ea 33be 3cbc 8ebf
000002c0: 2713 2bbf 04c5 6fbb 1614 04c0 fac1 53bf
000002d0: 398a 883f c2ec 0cbd de57 0640 1496 903e
000002e0: 3330 3fbf dce3 e9be 3acd aa3f 8c32 50be
000002f0: 6e44 f63e b755 16bf a8ce 90bf 9ded 4abf
00000300: d218 13bf a41c 40bd 12b8 843f f0be d13e
00000310: 2941 86bd fbad 843f 1ae1 04be f317 563f
00000320: 00d4 c03d be9f 9fbf 04a9 19bd cd0f c73e
00000330: 65fb c73e cdac 83bf 237e ef3e f029 39bf
00000340: b845 703f 4d6b 8a3e 5268 c43e cda2 4a3f
00000350: 3e71 0cbf 0ae9 343f 9bd2 1c3e 4284 94bf
00000360: 76dc 9b3f f1e9 5b3f f868 e3be 1284 d43e
00000370: c725 8abe 87d9 5bbe 6b12 a4bf 5086 f8be
00000380: cf91 94be c3f1 d43f a5a1 633e 4046 de3e
00000390: a55b 44be b689 443f 0170 08bf b305 c0bf
000003a0: 0b6e 9c3e 1860 e5be 65da 853d 0c5f 203f
000003b0: 222e 35bf 044a 8d3f fe1f a93f 9db6 d3bf
000003c0: 8f0f 87bf f349 04c0 fc6b a3be f4b3 06bf
000003d0: 1075 8e3f f42c d2be c6b7 063f 3571 173e
000003e0: d811 bc3e ba68 bd3f ea6e 3b3f 8c6e 17bf
000003f0: efd9 8cbe bd48 33be 185d e53f 58d8 1e3f

net.0.weight f4 [128, 64]
-0.05611362 -0.13564855 0.044893086 -0.13476253 0.12088031 0.13250709 -0.12301291 0.17490806
0.06512267 0.2866031 0.0077618696 -0.18867585 0.08754619 -0.0062959725 -0.06754672 0.03696757
-0.19469923 -0.05099774 0.10922132 0.038327564 -0.025941484 -0.14306527 0.2114895 -0.057559703
-0.20904829 0.009444783 0.36170685 0.057556547 0.11776601 0.103301905 0.060236465 -0.103258654
0.34556913 -0.19239737 0.23588167 -0.2408614 0.35746062 0.32085893 -0.08883962 -0.07329777
-0.36855903 0.31505185 -0.22956602 -0.15526463 -0.18915436 -0.2418909 0.3883151 -0.13554521
-0.21787852 0.36974916 0.15489079 0.14455958 0.40301365 0.30517966 0.12964627 -0.14924376
0.111584395 0.0922065 -0.05208915 0.21568625 0.18634307 0.047688186 -0.18776003 0.0016327274
0.5024439 0.14983426 -0.1435738 -0.19036318 0.08599699 -0.061946634 -0.13305336 0.057229035
0.13891284 0.6647245 -0.25480705 0.03171477 -0.35758084 -0.3920212 0.52850324 -0.5588044
0.07635299 -0.005522111 0.0015060857 0.23385893 -0.21428774 -0.20059395 -0.48537216 0.32983816
-0.07113797 0.28254429 0.09695421 0.040873174 -0.023303505 0.09484526 -0.09550886 -0.21079132
0.29384565 -0.35344186 0.30530936 -0.2951292 0.2204245 0.42340142 0.21937653 -0.10074178
0.032801572 0.13538082 -0.2922783 -0.07850622 0.09892465 0.10854205 0.14667457 -0.008881953
0.18056387 0.2733201 0.88893455 0.09944362 0.26676497 -0.043972638 0.0720143 0.20023037
0.20812942 -0.06846698 -0.19751255 0.18946806 -0.1712084 0.17723106 -0.28244814 0.17890304
-0.2362888 0.121408165 -0.23881274 0.22152665 -0.23715802 0.1028582 0.0018688081 -0.08693
0.020730885 -0.22893028 -0.08122674 0.072870485 0.057675842 -0.119428985 -0.124680206 -0.38601613
-0.32886484 0.086991124 -0.07337597 -0.0027285675 0.051287297 -0.017143771 0.051731408 0.24935795
-0.5863173 0.41513202 0.23983422 -0.34757793 -0.0912496 -0.28083646 -0.2628966 -0.074332155
-0.1441884 0.4362253 0.42177352 0.44001755 0.078581244 0.045403387 0.043471437 -0.016196769
0.053457208 -0.061194867 0.5228486 -0.42190683 0.26383913 -0.38023984 -0.17045912 -0.09958698
0.10099365 -0.30117595 0.21717522 0.2826239 0.44343832 -0.30625856 0.15853883 -0.04941873
0.1172141 0.05240395 -0.31559733 0.054706518 -0.23949768 0.038181268 0.050223988 0.07346672
0.21433307 0.27293828 0.44706526 -0.3499835 0.2873866 0.053023823 0.11361595 -0.24677037
0.2782328 -0.25149873 -0.22625653 0.07452341 0.15174076 -0.15350224 0.17402819 -0.29195306
-0.12834266 0.15783165 -0.22911872 -0.13596427 -0.646968 -0.14081314 0.19410522 0.060784135
-0.16582587 0.089020036 0.038115013 -0.0859824 -0.11780085 -0.050036084 0.047576573 0.025948144
-0.20494804 -0.17852393 0.11282502 -0.28926724 0.12466571 0.35172 0.16354482 0.087965585
-0.16002837 -0.36949763 -0.26418048 -0.013120444 0.056536216 0.06051891 0.15357167 -0.38013703
0.0072243824 0.15872408 -0.16804396 0.13568741 -0.043330673 -0.40516308 -0.01200493 0.04311615
0.6555401 0.19549444 -0.1685827 0.26850906 0.13654417 0.24371164 -0.16698454 -0.18682164
00000000: 65d7 65bd 74e7 0abe d0e1 373d 30ff 09be
00000010: 1990 f73d f0af 073e 31ee fbbd 191b 333e
00000020: 095f 853d a4bd 923e 4857 fe3b 3e34 41be
00000030: 6b4b b33d 724e cebb ef55 8abd 4f6b 173d
00000040: 3c5f 47be 02e3 50bd 6daf df3d 5dfd 1c3d
00000050: 3c83 d4bc b47f 12be b490 583e b9c3 6bbd
00000060: c110 56be 4bbe 1a3c a431 b93e 6ac0 6b3d
00000070: 4e2f f13d f38f d33d 83ba 763d 4679 d3bd
00000080: 70ee b03e d103 45be f78a 713e 5fa4 76be
00000090: 1405 b73e 9f47 a43e 8cf1 b5bd 241d 96bd
000000a0: c5b3 bcbe 7a4e a13e 5b13 6bbe b1fd 1ebe
000000b0: aeb1 41be 40b2 77be 3dd1 c63e 5dcc 0abe
000000c0: 8c1b 5fbe c34f bd3e b19b 1e3e 6d07 143e
000000d0: ce57 ce3e 8240 9c3e fec1 043e 5bd3 18be
000000e0: 5c86 e43d c3d6 bc3d 6f5b 55bd dbdc 5c3e
000000f0: b8d0 3e3e b054 433d 2a44 40be 3e01 d63a
00000100: 2aa0 003f 276e 193e 0305 13be 91ee 42be
00000110: 311f b03d c1bb 7dbd 243f 08be fe68 6a3d
00000120: 2b3f 0e3e 632b 2a3f 1276 82be 59e7 013d
00000130: d614 b7be 01b7 c8be fd4b 073f ce0d 0fbf
00000140: f55e 9c3d d3f2 b4bb da67 c53a b778 6f3e
00000150: 3f6e 5bbe 8068 4dbe b382 f8be 8ce0 a83e
00000160: c9b0 91bd a5a9 903e ee8f c63d a16a 273d
00000170: fee6 bebc 3b3e c23d 269a c3bd aed9 57be
00000180: f072 963e 55f6 b4be 8251 9c3e 2d1b 97be
00000190: f6b6 613e 12c8 d83e 3ea4 603e b551 cebd
000001a0: f15a 063d 45a1 0a3e 80a5 95be dec7 a0bd
000001b0: 0299 ca3d 4b4b de3d dc31 163e 9c85 11bc
000001c0: bce5 383e 9df0 8b3e 3791 633f 19a9 cb3d
000001d0: 6b95 883e a71c 34bd 3c7c 933d 3109 4d3e
000001e0: e11f 553e 6a38 8cbd bb40 4abe ea03 423e
000001f0: 4151 2fbe 0f7c 353e 0b9d 90be 5c32 373e
00000200: b1f5 71be d8a4 f83d 548b 74be e2d7 623e
00000210: 8dd9 72be 52a7 d23d cbf2 f43a 5b08 b2bd
00000220: d1d3 a93c b36c 6abe 345a a6bd 1f3d 953d
00000230: 813d 6c3d 2f97 f4bd 5658 ffbd e8a3 c5be
00000240: f960 a8be 6728 b23d 2446 96bd c4d1 32bb
00000250: a112 523d 1871 8cbc 50e4 533d b157 7f3e
00000260: e418 16bf 2f8c d43e 1a97 753e bcf5 b1be
00000270: 12e1 babd ccc9 8fbe 629a 86be 753b 98bd
00000280: 20a6 13be ec58 df3e b3f2 d73e fb49 e13e
00000290: 34ef a03d e7f8 393d 1b0f 323d 16af 84bc
000002a0: f2f5 5a3d 78a7 7abd 68d9 053f 2c04 d8be
000002b0: ec15 873e ccae c2be d68c 2ebe 42f4 cbbd
000002c0: c2d5 ce3d bc33 9abe 2e63 5e3e 14b4 903e
000002d0: 590a e33e eccd 9cbe 0158 223e 4b6b 4abd
000002e0: f20d f03d 86a5 563d f995 a1be f113 603d
000002f0: e13e 75be f663 1c3d abb7 4d3d b875 963d
00000300: 217a 5b3e 91be 8b3e bde5 e43e 0a31 b3be
00000310: 5624 933e 822f 593d 7baf e83d 5fb1 7cbe
00000320: 8874 8e3e 71c4 80be cbaf 67be bb9f 983d
00000330: ee61 1b3e b12f 1dbe 7234 323e df7a 95be
00000340: 426c 03be 9f9e 213e 199e 6abe 383a 0bbe
00000350: b29f 25bf 5231 10be 85c3 463e c9f8 783d
00000360: 42ce 29be 2350 b63d 7d1e 1c3d 8a17 b0bd
00000370: 9241 f1bd a3f2 4cbd a7df 423d 3491 d43c
00000380: e6dd 51be face 36be ce10 e73d d61a 94be
00000390: bc50 ff3d a514 b43e 4b78 273e 4d27 b43d
000003a0: 7ade 23be cb2e bdbe aa42 87be 21f7 56bc
000003b0: 8592 673d ade2 773d e441 1d3e 52a1 c2be
000003c0: 83ba ec3b 9188 223e b713 2cbe a4f1 0a3e
000003d0: 817b 31bd 8971 cfbe 53b0 44bc 8f9a 303d
000003e0: 7ad1 273f b22f 483e f1a0 2cbe 057a 893e
000003f0: 3cd2 0b3e 8b8f 793e fffd 2abe 2c4e 3fbe

net.0.bias f4 [128]
-0.3786655 -0.1037854 -0.069742166 -0.12846696 -0.7954583 -0.33091438 -0.20141785 -0.22259498
-0.44829145 -0.27596644 -0.29772592 -0.21028529 -0.21491021 -0.027493622 0.0789157 -0.515793
-0.75371504 -0.5741607 -0.16933896 0.19769973 -0.1801008 -0.017655717 -0.15876736 -0.503924
-0.02286531 -0.27988547 -0.2811578 0.10524234 -0.36248916 -0.04982413 -0.022053156 0.052214373
-0.10512564 -0.3069441 -0.005551156 -0.35023072 -0.47213563 -0.0003586929 0.014957684 -0.053942163
0.10342711 -0.016160524 -0.15970589 0.08070001 -0.41010043 -0.30419594 -0.24270652 -0.48044857
0.28392735 -0.3343607 0.004149297 -0.40596828 -0.6750417 0.11115049 -0.7142902 -0.17401218
-0.29002303 -0.39622518 -0.53461874 -0.0630943 0.14200355 -0.060467947 0.20603731 -0.1526
-0.08786206 -0.30553377 0.10365263 -0.3105282 -0.22781771 0.21529496 0.11965193 -0.399277
0.22244406 -0.32505128 -0.09499257 -0.67318785 -0.01327666 -0.24152127 -0.17393777 0.121617645
-0.022471467 -0.32970384 0.20080802 0.49195233 0.015862277 0.20789978 -0.48438686 -0.34666222
0.14617069 0.47066236 -0.07115925 0.06243722 -0.030392883 0.08301177 -0.201946 -0.2091842
-0.5076798 -0.03914203 -0.35815337 0.033964213 -0.191708 0.4460054 0.03180663 -0.16936897
-0.29605922 -0.81035703 -0.08664099 -0.12656364 0.037278987 -0.28095195 -0.18841383 0.13108623
-0.045408584 -0.13311455 -0.19783172 -0.133766 -0.277147 -0.2713009 -0.36701205 -0.25703666
0.01512396 -0.1352348 -0.33408377 -0.3578839 0.052201398 -0.37380797 0.24972425 -0.16061388
00000000: 72e0 c1be 718d d4bd fbd4 8ebd d88c 03be
00000010: 28a3 4bbf 9c6d a9be 7b40 4ebe f0ef 63be
00000020: 7586 e5be 794b 8dbe 886f 98be 0755 57be
00000030: 6c11 5cbe 4e3a e1bc 8e9e a13d 030b 04bf
00000040: 78f3 40bf 32fc 12bf 3167 2dbe cc71 4a3e
00000050: 586c 38be b9a2 90bc e993 22be 2a01 01bf
00000060: 0850 bbbc 264d 8fbe eaf3 8fbe 4c89 d73d
00000070: 2e98 b9be 6314 4cbd d2a8 b4bc bdde 553d
00000080: 1d4c d7bd c727 9dbe 79e6 b5bb 7151 b3be
00000090: c3bb f1be f20e bcb9 1311 753c 75f2 5cbd
000000a0: 98d1 d33d 1363 84bc f189 23be 0c46 a53d
000000b0: aff8 d1be 92bf 9bbe 0f88 78be 5bfd f5be
000000c0: ed5e 913e 5331 abbe d3f6 873b 13db cfbe
000000d0: 88cf 2cbf dea2 e33d b9db 36bf 4030 32be
000000e0: e67d 94be 07de cabe c6dc 08bf 9637 81bd
000000f0: 6169 113e 3dad 77bd 72fb 523e 2d43 1cbe
00000100: 06f1 b3bd ec6e 9cbe d447 d43d 8dfd 9ebe
00000110: 0c49 69be 4876 5c3e 120c f53d 096e ccbe
00000120: 60c8 633e 1f6d a6be 778b c2bd 0a56 2cbf
00000130: 5986 59bc 5a51 77be be1c 32be ac12 f93d
00000140: 1516 b8bc f1ce a8be 9ea0 4d3e 2de1 fb3e
00000150: 9bf1 813c aee3 543e 8e01 f8be b67d b1be
00000160: c5ad 153e a8fa f03e f1bb 91bd 2cbe 7f3d
00000170: 7ffa f8bc 1302 aa3d efca 4ebe 6234 56be
00000180: 4ef7 01bf 6553 20bd e15f b7be 0f1e 0b3d
00000190: 1a4f 44be d25a e43e ab47 023d 0f6f 2dbe
000001a0: 1395 97be 8f73 4fbf d570 b1bd e699 01be
000001b0: dab1 183d efd8 8fbe 8eef 40be 783b 063e
000001c0: 5afe 39bd 2e4f 08be 6694 4abe f4f9 08be
000001d0: 36e6 8dbe f4e7 8abe 01e9 bbbe 4f9a 83be
000001e0: 7cca 773c fe7a 0abe 070d abbe 8f3c b7be
000001f0: 22d1 553d c263 bfbe b7b7 7f3e f777 24be

net.2.weight f4 [128, 128]
-0.052002862 -0.057615113 -0.091414474 -0.08167919 -0.023202222 -0.05292613 0.02898809 -0.072908066
-0.10495482 -0.07785214 -0.04281496 0.061252818 -0.016685218 -0.12535928 -0.03892623 0.0038511055
-0.010269823 -0.0972715 0.047620628 -0.016755823 -0.1176106 -0.14133546 -0.117944166 0.010660371
0.010446248 -0.04546133 -0.06387014 0.03334568 -0.1537634 0.06068213 0.02823988 -0.123238176
-0.03768606 0.032201197 -0.06900136 0.06371545 0.09446681 -0.16909601 0.026643999 -0.07525858
-0.11527587 -0.05600233 -0.08448766 -0.042253952 -0.020982113 -0.082980454 0.026940843 -0.08797244
0.0056242826 0.021993818 0.0074316743 -0.1093636 -0.099499874 -0.14252162 -0.0050316676 -0.08593249
0.085026965 0.0041071847 -0.10319744 -0.07471866 -0.040721074 -0.13491797 -0.11719095 -0.039582193
0.002548009 -0.049734917 -0.104108214 0.018456671 -0.1552335 -0.018770095 0.07927717 -0.049281258
-0.0063508726 0.007323348 0.034624167 0.035090424 0.036998667 -0.04086034 -0.09640639 0.02127761
-0.054250795 0.026082404 -0.0286542 -0.0520951 -0.01907403 -0.120073296 -0.05979675 -0.03195216
-0.03867753 -0.008860807 -0.0417855 -0.018041804 0.018696925 -0.058408465 -0.031231023 -0.065081514
-0.044044793 0.09586116 -0.07555634 -0.067562774 -0.091537744 0.01198108 0.049194653 0.013498697
-0.034071237 -0.019763803 0.023257347 0.05029393 -0.017542742 -0.10918391 -0.069214426 -0.100690804
-0.043131836 -0.060533077 -0.050804816 -0.12931038 0.072594196 -0.03902973 -0.05404293 -0.08092268
-0.057270337 -0.0066118366 -0.07496838 0.020196032 -0.004540823 -0.012972904 -0.08124543 -0.050668854
0.00038106335 0.25425342 -0.14871193 -0.34205705 -0.8512414 0.040384695 0.03657803 -0.08935682
-0.07679889 -0.13821115 -0.30277 0.05733516 -0.31680903 0.057943508 0.25725976 -0.17554714
0.004736469 -0.21360154 0.005753221 0.20956598 0.14446722 0.17417997 -0.23631206 -0.13251054
0.2778421 -0.61565757 -0.1981743 0.21907382 0.19279893 0.31959262 0.13326941 -0.08365937
-0.30130985 -0.0026129792 -0.0024190347 0.2614738 0.07102508 0.3774779 -0.5734786 0.2514011
-0.37838265 -0.10190563 0.41246396 0.4944267 0.084349066 -0.17682351 -0.3143918 -0.49755102
-0.37174255 -0.25537375 -0.0129533615 0.11238269 -0.12646647 -0.09277552 -0.1346313 -0.05898888
0.20268558 0.034426544 -0.0616676 0.14456207 0.13283812 -0.054033473 -0.28967133 0.052661415
0.47372314 -0.18685931 -0.073198065 -0.2280127 0.3389585 -0.67288893 -0.4046627 -0.4549929
-0.48541453 -0.39532825 0.11199293 -0.11253076 -1.1217449 0.08999227 0.17545763 0.47246522
-0.2806219 -0.41407332 -0.70456254 -0.18897466 0.33618116 -0.3079687 0.1367919 -0.21200365
-0.31236136 -0.14975165 0.40643862 -0.07379673 -0.06556984 0.19678302 0.14336352 0.067687795
-0.0117681455 -0.4758461 -0.30903852 -0.07125358 -0.010418489 0.17233278 -0.11463138 -0.039482795
0.099193655 -0.049122896 -0.031475652 0.177062 -0.4633771 0.04655389 0.090200596 -0.6583079
0.004708723 -0.15808797 -0.15234554 -0.031065699 0.23869754 0.13371041 0.12526622 -0.017881654
-0.057759933 -0.46714422 -0.50364196 0.27090505 -0.35376337 -0.35494822 -0.76543784 -0.03493746
00000000: f400 55bd d3fd 6bbd 8337 bbbd 6b47 a7bd
00000010: 9612 bebc 12c9 58bd 6e78 ed3c d350 95bd
00000020: 8df2 d6bd f170 9fbd bd5e 2fbd 3ce4 7a3d
00000030: 70af 88bc 2f5e 00be 1c71 1fbd d462 7c3b
00000040: c242 28bc 4836 c7bd d90d 433d 8243 89bc
00000050: d4dd f0bd 3eba 10be b68c f1bd d6a8 2e3c
00000060: bd26 2b3c a935 3abd 59ce 82bd 7b95 083d
00000070: 2774 1dbe d38d 783d 5257 e73c 4c64 fcbd
00000080: b35c 1abd 67e5 033d 9650 8dbd 3f7d 823d
00000090: d177 c13d 8127 2dbe 8444 da3c 2c21 9abd
000000a0: c115 ecbd b362 65bd de07 adbd 7b12 2dbd
000000b0: aee2 abbc a8f1 a9bd 0bb3 dc3c e52a b4bd
000000c0: e74b b83b 612c b43c 6785 f33b 06fa dfbd
000000d0: 97c6 cbbd 30f1 11be b0e0 a4bb 60fd afbd
000000e0: 9e22 ae3d 9095 863b 2e59 d3bd 1906 99bd
000000f0: 24cb 26bd f027 0abe cf01 f0bd f020 22bd
00000100: 7ffc 263b d7b6 4bbd b036 d5bd 7232 973c
00000110: 88f5 1ebe bec3 99bc 125c a23d 25db 49bd
00000120: fb1a d0bb b2f8 ef3b 12d2 0d3d faba 0f3d
00000130: ea8b 173d 2c5d 27bd b770 c5bd 624e ae3c
00000140: 1536 5ebd c4aa d53c 36bc eabc ac61 55bd
00000150: 2441 9cbc fde8 f5bd 70ed 74bd 45e0 02bd
00000160: 546c 1ebd eb2c 11bc 4627 2bbd 68cc 93bc
00000170: 4b2a 993c b73d 6fbd 34d8 ffbc 7549 85bd
00000180: 5068 34bd db52 c43d 48bd 9abd 5a5e 8abd
00000190: 2478 bbbd 4b4c 443c 5580 493d a429 5d3c
000001a0: 488e 0bbd b3e7 a1bc 3186 be3c 0201 4e3d
000001b0: ccb5 8fbc d09b dfbd 4bc0 8dbd fb36 cebd
000001c0: 02ab 30bd 88f1 77bd b618 50bd f169 04be
000001d0: 44ac 943d a3dd 1fbd 1f5c 5dbd caba a5bd
000001e0: 4d94 6abd 1ba8 d8bb 0689 99bd 2672 a53c
000001f0: 2fcb 94bb 4e8c 54bc 0164 a6bd 258a 4fbd
00000200: 75c9 c739 812d 823e f147 18be 1a22 afbe
00000210: f5ea 59bf 6c6a 253d d8d2 153d b500 b7bd
00000220: bd48 9dbd 3987 0dbe ab04 9bbe 46d8 6a3d
00000230: cb34 a2be 2c56 6d3d 8db7 833e a1c2 33be
00000240: 6234 9b3b 5dba 5abe 8485 bc3b 7798 563e
00000250: 37ef 133e 3c5c 323e cafb 71be d8b0 07be
00000260: 5241 8e3e bc9b 1dbf 34ee 4abe e354 603e
00000270: 156d 453e a5a1 a33e c777 083e 9b55 abbd
00000280: 4945 9abe 843e 2bbb ab88 1ebb e5df 853e
00000290: 9975 913d c944 c13e 7ecf 12bf a5b7 803e
000002a0: 5fbb c1be e6b3 d0bd 7a2e d33e 7f25 fd3e
000002b0: 34bf ac3d 3911 35be f6f7 a0be 02bf febe
000002c0: 0a55 bebe 59c0 82be 563a 54bc e528 e63d
000002d0: 6d80 01be 1801 bebd cadc 09be 539e 71bd
000002e0: cf8c 4f3e d902 0d3d 2a97 7cbd 1408 143e
000002f0: b706 083e 3452 5dbd cd4f 94be 7fb3 573d
00000300: d78b f23e 0c58 3fbe dee8 95bd 297c 69be
00000310: f88b ad3e 7342 2cbf f32f cfbe d4f4 e8be
00000320: 4188 f8be 7768 cabe 8d5c e53d 8776 e6bd
00000330: 5695 8fbf de4d b83d 2aab 333e f6e6 f13e
00000340: acad 8fbe 6b01 d4be 365e 34bf 9382 41be
00000350: f01f ac3e 13ae 9dbe 2d13 0c3e 7c17 59be
00000360: d4ed 9fbe 7f58 19be b918 d03e bd22 97bd
00000370: 7b49 86bd 7d81 493e e3cd 123e e69f 8a3d
00000380: 2ecf 40bc 1aa2 f3be 4c3a 9ebe 66ed 91bd
00000390: 4fb2 2abc 0178 303e dbc3 eabd b6b8 21bd
000003a0: 0b26 cb3d 1735 49bd 9dec 00bd be4f 353e
000003b0: c33f edbe 4baf 3e3d 17bb b83d de86 28bf
000003c0: a24b 9a3b d0e1 21be 7800 1cbe 7e7d febc
000003d0: 216d 743e 62eb 083e ca45 003e 8c7c 92bc
000003e0: ae95 6cbd 872d efbe aeee 00bf 11b4 8a3e
000003f0: 7920 b5be c6bb b5be bcf3 43bf 951a 0fbd

net.2.bias f4 [128]
-0.103946105 0.1464523 -0.07451597 0.849632 0.19788983 0.20158868 0.30342925 -0.05412068
0.36400133 0.13191806 -0.079139374 0.20141326 -0.007412143 -0.108492844 0.045861643 0.32260072
0.53908426 0.46811694 0.083004184 0.17381604 -0.07651113 0.12578927 0.64051545 0.1942473
0.1459271 -0.093666635 0.5163371 0.18972854 0.23982888 0.32380456 0.17427798 0.043759193
0.20690683 0.52344626 0.42865515 0.10182215 0.2191267 0.32329828 0.5425305 0.9608942
0.042881247 0.1267572 0.28302374 -0.035928357 -0.045918103 0.24016595 0.19065258 -0.1589085
0.11797116 -0.0886821 -0.08930874 0.15632385 -0.069488645 0.04931233 0.010664052 0.102188
-0.044364188 0.07359 0.2959655 -0.022621268 0.26687384 0.092837796 0.3895 -0.04077299
0.23134099 -0.047262628 0.24791622 -0.2329919 0.23300354 -0.085917816 -0.12098424 0.051093552
0.06309842 0.15831184 -0.059058424 0.027755804 0.7630422 0.40074825 0.0075110826 0.22312981
0.12250788 0.26402137 0.83340085 0.15300837 -0.04695386 0.22915812 -0.0017120652 0.17579265
-0.21786553 0.2806419 0.29211357 -0.0013951529 -0.17582352 -0.060156945 0.18129662 -0.12304504
0.24918358 0.9267848 0.15127498 0.28521004 0.12755005 0.07874507 0.023286013 -0.040423945
0.803632 0.18053505 0.14603403 0.19325604 -0.099786505 0.22896405 0.05211972 0.25125802
0.21214446 0.2986514 0.19738293 0.042874712 0.3369295 0.080768354 -0.1050532 0.25627956
0.1893184 0.5626355 0.31758997 0.16092204 0.2132654 0.3552897 0.29915717 -0.08964958
00000000: b2e1 d4bd 97f7 153e d49b 98bd 7c81 593f
00000010: a2a3 4a3e 436d 4e3e 145b 9b3e a5ad 5dbd
00000020: 625e ba3e 8715 073e d313 a2bd 473f 4e3e
00000030: 90e1 f2bb 7f31 debd 6bd9 3b3d ec2b a53e
00000040: 6d01 0a3f 06ad ef3e 19fe a93d d5fc 313e
00000050: deb1 9cbd e7ce 003e d2f8 233f c4e8 463e
00000060: ea6d 153e 4bd4 bfbd ab2e 043f 3348 423e
00000070: b495 753e b6c9 a53e ed75 323e d73c 333d
00000080: 62df 533e 9300 063f b078 db3e 2288 d03d
00000090: c062 603e 5a87 a53e 47e3 0a3f 2afd 753f
000000a0: 3fa4 2f3d a4cc 013e 7de8 903e 9d29 13bd
000000b0: 9f14 3cbd 10ee 753e 6e3a 433e e9b8 22be
000000c0: dd9a f13d f69e b5bd 80e7 b6bd 5c13 203e
000000d0: 1050 8ebd bafb 493d 47b8 2e3c f147 d13d
000000e0: 39b7 35bd 5bb6 963d ca88 973e 3d50 b9bc
000000f0: b0a3 883e be21 be3d 8b6c c73e 9401 27bd
00000100: a7e4 6c3e 7596 41bd c0dd 7d3e 6e95 6ebe
00000110: 7b98 6e3e aef5 afbd 96c6 f7bd 7947 513d
00000120: bf39 813d 801c 223e 3fe7 71bd 2460 e33c
00000130: bc56 433f e02e cd3e 871f f63b 247c 643e
00000140: 69e5 fa3d cf2d 873e c259 553f 3aae 1c3e
00000150: b152 40bd 6da8 6a3e 6067 e0ba fd02 343e
00000160: 2418 5fbe 4cb0 8f3e e98f 953e 90dd b6ba
00000170: 150b 34be 2167 76bd d2a5 393e 0aff fbbd
00000180: fb29 7f3e c541 6d3f d4e7 1a3e 0d07 923e
00000190: 7b9c 023e 1845 a13d 4fc2 be3c 9493 25bd
000001a0: d4ba 4d3f 2ede 383e f289 153e e9e4 453e
000001b0: de5c ccbd 8d75 6a3e 7d7b 553d e4a4 803e
000001c0: 663c 593e d6e8 983e c01e 4a3e 659d 2f3d
000001d0: 0682 ac3e e169 a53d 2226 d7bd 1337 833e
000001e0: afdc 413e e108 103f 279b a23e bfc8 243e
000001f0: 3f62 5a3e 88e8 b53e 212b 993e 339a b7bd

net.4.weight f4 [6, 128]
0.0051070615 0.08226911 0.045933656 -0.01426711 0.13838676 -0.0018434441 0.015913282 0.20427874
0.2642727 -0.38564205 0.05778238 -0.12673156 -0.08024291 0.0035185316 -0.28589723 0.26001003
0.106779 0.19415733 -0.10340177 -0.0054442193 0.06984049 0.06255431 0.018028377 -0.016525475
-0.12478097 0.19056715 0.14429738 0.001433384 0.15438712 0.13322747 -0.109279625 0.014111913
-0.09033179 0.01056193 -0.11229114 0.28553408 -0.061431035 0.0568052 -0.02036279 0.32398847
-0.013667382 -0.10933121 -0.48282155 -0.093969025 0.13258545 0.047194418 0.107860364 -0.22326002
-0.2033366 -0.047990102 0.16030948 0.2864194 -0.3185369 0.052919418 0.079042725 -0.018331539
0.21240918 0.14601998 -0.026569352 -0.11791595 0.09842375 0.122490495 0.17099653 0.120308116
0.16820477 0.026876185 -0.1227681 -0.56619185 -0.21583074 -0.022999497 0.04662254 0.077935845
0.046270307 -0.06719748 -0.26867583 0.052207425 0.16851188 0.030147836 0.042669777 0.062043644
0.025304813 -0.07175198 0.035821218 0.09275846 0.009157136 0.15333852 -0.13919827 -0.12712753
-0.30521148 0.12219671 0.27561837 -0.10054812 0.017984685 -0.2759956 0.1747124 0.06956306
0.08517202 0.015883997 -0.013072404 -0.29816163 0.007342614 0.14612171 -0.12652136 0.07663933
0.0846559 0.08627509 -0.06640054 0.22024614 0.06143992 0.013357259 0.018488355 -0.24264748
0.12815626 0.060627583 0.0533614 0.20665164 -0.2346176 -0.064126804 0.05930686 -0.056397088
0.16254464 -0.074631654 0.068968445 -0.09477921 -0.14920959 -0.07266412 0.16889246 -0.18161234
-0.048091684 0.012792404 0.037523136 0.053231187 -0.16725667 -0.04445635 0.17600739 -0.041277725
0.08282184 0.18482737 -0.02654158 0.0221784 0.028802203 -0.11474351 0.07722765 0.106543824
0.23946622 0.15853634 -0.2310538 0.13260755 0.13643128 0.15727799 0.09498413 -0.040359683
0.13930549 -0.016962737 0.06454421 -0.3039095 0.008907958 0.0702437 0.024803879 0.17582306
-0.054778166 -0.13587722 0.1225834 -0.04539974 0.20739713 -0.16289842 -0.025025398 0.13153817
-0.030695027 0.10002219 0.03717701 -0.10965818 -0.1916821 0.062012814 -0.16091129 0.09672458
-0.08208887 0.026983187 -0.42248076 0.07338653 0.17816749 -0.14472546 -0.0914428 0.13794793
0.26506147 0.17127939 0.010437913 0.06084107 0.07489255 0.1944279 0.06787684 -0.16442363
0.16603729 -0.059134275 0.13454632 -0.07617331 0.30283967 -0.09024827 0.031016756 -0.23284824
0.36593533 0.009253107 -0.023277387 -0.10691611 0.34044003 0.06915927 0.052984137 0.13364452
0.0874473 0.048347414 0.09207749 -0.003771485 -0.03401819 -0.049307097 0.017817313 -0.3724137
0.04231553 0.05571072 0.26334354 0.02712293 -0.44589847 0.15300082 0.29592884 -0.08510333
-0.2593058 0.059280977 -0.115793094 -0.07558855 0.22857541 -0.116574265 -0.027158989 -0.01147035
0.05488938 -0.29546696 0.09233542 -0.025454465 0.008454334 0.05485625 0.34015858 0.019131906
0.010327047 -0.009453166 0.016144523 0.19203672 0.08299079 -0.06798095 -0.19983968 -0.14890675
-0.33702987 0.11270338 0.10711761 0.22435158 0.21278156 -0.11620386 0.16669898 -0.053526968
00000000: 2359 a73b b57c a83d ee24 3c3d 99c0 69bc
00000010: 42b5 0d3e b89f f1ba 925c 823c 722e 513e
00000020: c04e 873e e072 c5be 38ad 6c3d ebc5 01be
00000030: 6556 a4bd 2a97 663b 1f61 92be 0920 853e
00000040: f3ae da3d 2ed1 463e 4fc4 d3bd 6c65 b2bb
00000050: 8808 8f3d 791c 803d 3fb0 933c 6f60 87bc
00000060: 2a8d ffbd 0924 433e b1c2 133e 63e0 bb3a
00000070: a817 1e3e c86c 083e ffcd dfbd a735 673c
00000080: e0ff b8bd f20b 2d3c e6f8 e5bd 8631 923e
00000090: 1c9f 7bbd 92ac 683d decf a6bc d1e1 a53e
000000a0: 28ed 5fbc 0be9 dfbd 6334 f7be d572 c0bd
000000b0: 7bc4 073e ef4e 413d e5e5 dc3d 469e 64be
000000c0: 7837 50be 4591 44bd 2b28 243e 90a5 923e
000000d0: 4517 a3be 08c2 583d 27e1 a13d 062c 96bc
000000e0: cb81 593e 4386 153e f8a7 d9bc eb7d f1bd
000000f0: 6492 c93d 4cdc fa3d b719 2f3e 1a64 f63d
00000100: df3d 2c3e 722b dc3c d76d fbbd f3f1 10bf
00000110: bc02 5dbe 7169 bcbc 47f7 3e3d d49c 9f3d
00000120: ef85 3d3d d59e 89bd e18f 89be 74d7 553d
00000130: 618e 2c3e 98f8 f63c 81c6 2e3d 7a21 7e3d
00000140: 0a4c cf3c b4f2 92bd 45b9 123d 26f8 bd3d
00000150: d007 163c c604 1d3e fe89 0ebe b82d 02be
00000160: ae44 9cbe 4542 fa3d da1d 8d3e 2cec cdbd
00000170: 9e54 933c 4c4f 8dbe cfe7 323e 1477 8e3d
00000180: ab6e ae3d 281f 823c a32d 56bc a4a8 98be
00000190: 4f9a f03b eea0 153e d18e 01be 15f5 9c3d
000001a0: 1360 ad3d ffb0 b03d 02fd 87bd 3488 613e
000001b0: 6da8 7b3d 68d8 5a3c e474 973c 9578 78be
000001c0: 653b 033e a154 783d 7c91 5a3d 7d9c 533e
000001d0: 993f 70be ea54 83bd c0eb 723d a200 67bd
000001e0: 1a72 263e 7bd8 98bd 543f 8d3d 9a1b c2bd
000001f0: 66ca 18be edd0 94bd 25f2 2c3e 96f8 39be
00000200: c9fb 44bd 3b97 513c dcb1 193d f208 5a3d
00000210: 5545 2bbe dd17 36bd 483b 343e d512 29bd
00000220: 7f9e a93d 6343 3d3e ba6d d9bc 7aaf b53c
00000230: 99f2 eb3c a5fe eabd 8829 9e3d a633 da3d
00000240: a236 753e 5a57 223e 5e99 6cbe 46ca 073e
00000250: a4b4 0b3e 7b0d 213e 0a87 c23d 3250 25bd
00000260: 19a6 0e3e 70f5 8abc c12f 843d 079a 9bbe
00000270: aff2 113c eedb 8f3d 8131 cb3c f60a 343e
00000280: 125f 60bd 6623 0bbe 010d fb3d 14f5 39bd
00000290: ea5f 543e d8ce 26be 1002 cdbc f1b1 063e
000002a0: 2374 fbbc 6fd8 cc3d ec46 183d 7894 e0bd
000002b0: 5048 44be 2601 7e3d eec5 24be 8917 c63d
000002c0: 361e a8bd d80b dd3c 664f d8be ad4b 963d
000002d0: 8a71 363e e932 14be 5d46 bbbd 3942 0d3e
000002e0: 23b6 873e dd63 2f3e c803 2b3c 7c34 793d
000002f0: 4461 993d 1b18 473e 0303 8b3d ab5e 28be
00000300: ae05 2a3e c836 72bd 83c6 093e c100 9cbd
00000310: cd0d 9b3e 16d4 b8bd da16 fe3c c56f 6ebe
00000320: e05b bb3e 589a 173c 38b0 bebc d5f6 dabd
00000330: 284e ae3e 60a3 8d3d e505 593d 1cda 083e
00000340: 9217 b33d f007 463d 2093 bc3d 052b 77bb
00000350: a856 0bbd 3df6 49bd 9df5 913c 02ad bebe
00000360: 0d53 2d3d ed30 643d f7d4 863e e830 de3c
00000370: ce4c e4be 3fac 1c3e fc83 973e a84a aebd
00000380: bbc3 84be 9cd0 723d ee24 edbd 2bce 9abd
00000390: ac0f 6a3e 7dbe eebd 877c debc 23ee 3bbc
000003a0: b0d3 603d 7247 97be 5a1a bd3d e285 d0bc
000003b0: 0c84 0a3c f2b0 603d 4429 ae3e 84ba 9c3c
000003c0: c632 293c 74e1 1abc 8541 843c 46a5 443e
000003d0: 13f7 a93d 9939 8bbd c6a2 4cbe 037b 18be
000003e0: 2e8f acbe 08d1 e63d 7a60 db3d 6cbc 653e
000003f0: 69e3 593e 4afc edbd 23b3 2a3e 183f 5bbd

net.4.bias f4 [6]
0.15263036 0.14814334 0.08322363 0.04619443 -1.1795951 -0.95830286
00000000: 224b 1c3e e3b2 173e 2771 aa3d 5f36 3d3d
00000010: f9fc 96bf 5653 75bf
