results/dqn/seed_0/dqn.pt (torch, 233309 bytes, 7 tensors)

embed.weight f4 [500, 64]
-1.1258398 -1.1523602 -0.25057858 -0.4338788 0.84871036 0.69200915 -0.31601277 -2.1152194
0.32227492 -1.2633348 0.3499832 0.30813393 0.11984151 1.2376579 1.1167772 -0.24727815
-1.3526537 -1.6959312 0.5666506 0.79350835 0.59883946 -1.5550951 -0.3413604 1.8530061
0.7501895 -0.58549756 -0.17339675 0.18347794 1.3893661 1.5863342 0.94629836 -0.84367675
-0.6135831 0.03159274 -0.49267697 0.24841475 0.43969584 0.112411186 0.64079237 0.44115627
-0.10230965 0.792444 -0.2896677 0.052507486 0.52286047 2.3022053 -1.4688939 -1.5866888
-0.6730899 0.8728312 1.0553575 0.17784372 -0.23033547 -0.3917544 0.5432947 -0.39515755
-0.44621718 0.7440207 1.5209795 3.4105027 -1.5311843 -1.234135 1.8197253 -0.5515287
-2.0003722 1.2549071 -0.017026111 0.18934195 -0.36093464 1.6838818 0.3839279 -0.11160525
0.5340542 0.5133399 -1.1600442 -0.77535343 -0.688152 1.1886419 0.53722876 0.7432117
0.45165005 0.9606006 -0.5705903 1.269491 0.5663493 -1.2519368 0.5767475 0.2855551
0.34579363 1.1682479 -0.6948458 -0.74968654 -0.36123842 -0.6503866 -0.36754465 0.7961838
0.97000736 -1.5196174 2.3951442 0.19722602 -1.3893477 -2.2919657 -0.68547875 -0.77890974
0.5419553 -0.8822299 -0.35695282 -1.4947872 -0.01770238 -1.0205015 1.1013759 0.7830264
0.32884523 -0.3755382 -0.619749 -0.002302703 0.702882 0.8408088 -0.05247727 -0.26575184
-1.4769697 -1.4999977 2.417985 -0.28805962 -0.23155461 0.058695264 0.9228293 2.4305394
-0.3853448 -0.44082102 -1.4071956 1.31699 0.77066886 -0.06156791 0.48124295 -0.7218075
-1.091803 0.31603304 -0.04343773 -1.8955872 -0.16145152 -0.079890616 0.280331 -0.29569185
-0.49237153 0.30022606 0.09095655 0.86035454 -0.031856637 0.36963457 0.13754222 0.11194827
-0.7197588 -1.4171618 -1.0038642 -0.120846406 -0.37032565 0.03128364 1.0494937 0.48943618
1.5599095 0.02044354 -0.804262 1.4642804 0.17905658 -0.54211545 0.8132616 0.5745052
-0.016771208 0.620404 -0.7851269 2.2757683 -0.013890387 -1.7820338 0.31853303 -2.0705469
-0.95480895 -1.3247015 -0.26570815 -0.18193996 1.6865247 0.23504315 1.6334003 0.23020245
-0.042373065 1.124829 1.3853024 1.8256294 0.33586082 0.017499816 -1.7702105 -0.6553324
-1.0203505 1.4224455 0.77654934 -0.019260108 1.1116053 1.0371569 -0.29993615 1.1155379
-0.22418636 -1.6624777 0.05235211 0.95659673 1.3832909 -2.0692294 0.32697818 0.3692708
0.80861896 -1.5379419 2.2734315 0.30750272 -0.840209 0.840404 -0.55174476 -1.4900547
1.6180707 1.3475425 0.891958 0.93304557 0.3486395 0.33952138 -2.2630317 0.27132428
-0.6109841 0.4904767 0.53801024 -0.6273484 -0.101192266 0.8457411 -0.26956922 -2.1385434
-1.0487889 -1.2523345 -2.195231 0.18228169 -1.836713 0.25517532 1.3003502 -1.8122408
-0.83769995 -2.1411347 1.5115898 -1.2351155 2.046841 -0.97138596 -0.30043468 1.3250834
0.54923695 0.51580244 1.9420772 0.16171633 -1.0510768 1.0517625 3.1068716 0.7077589
00000000: 851b 90bf 8a80 93bf d64b 80be 5d25 debe
00000010: 1545 593f 8327 313f 6dcc a1be c15f 07c0
00000020: 3801 a53e f4b4 a1bf ff30 b33e bbc3 9d3e
00000030: 776f f53d 936b 9e3f 8ef2 8e3f 7c36 7dbe
00000040: c223 adbf 4614 d9bf 0410 113f 5d23 4b3f
00000050: 8b4d 193f 5b0d c7bf cac6 aebe 4e2f ed3f
00000060: 6b0c 403f 2be3 15bf eb8e 31be a4e1 3b3e
00000070: c0d6 b13f 000d cb3f 9c40 723f 33fb 57bf
00000080: c813 1dbf 6467 013d 2840 fcbe 7060 7e3e
00000090: d01f e13e d637 e63d f80a 243f 3cdf e13e
000000a0: b987 d1bd 9cdd 4a3f 534f 94be 1712 573d
000000b0: 2fda 053f 5557 1340 b704 bcbf 9e18 cbbf
000000c0: 9f4f 2cbf de71 5f3f f415 873f aa1c 363e
000000d0: 10dd 6bbe 0894 c8be 5d15 0b3f 1752 cabe
000000e0: 9476 e4be 2478 3e3f 75af c23f ad45 5a40
000000f0: d9fd c3bf 23f8 9dbf c2ec e83f fc30 0dbf
00000100: 1906 00c0 cca0 a03f 587a 8bbc dbe2 413e
00000110: 6dcc b8be 7089 d73f 3392 c43e 4b91 e4bd
00000120: c7b7 083f 3e6a 033f 547c 94bf 907d 46bf
00000130: bb2a 30bf 6b25 983f d387 093f 1f43 3e3f
00000140: ad3e e73e ece9 753f 3512 12bf ae7e a23f
00000150: 45fc 103f 773f a0bf b9a5 133f 4734 923e
00000160: dd0b b13e 2689 953f 6ae1 31bf 75eb 3fbf
00000170: 3ef4 b8be bc7f 26bf d02e bcbe b4d2 4b3f
00000180: 6752 783f d382 c2bf 0b4a 1940 9ef5 493e
00000190: 25d6 b1bf 91af 12c0 897b 2fbf a166 47bf
000001a0: 95bd 0a3f d2d9 61bf 85c2 b6be 3055 bfbf
000001b0: 9504 91bc cb9f 82bf e3f9 8c3f 6b74 483f
000001c0: 675e a83e 8b46 c0be dfa7 1ebf f2e8 16bb
000001d0: 13f0 333f 3f3f 573f 68f2 56bd a010 88be
000001e0: 580d bdbf edff bfbf 44c0 1a40 8d7c 93be
000001f0: a71c 6dbe 726a 703d 8a3e 6c3f f58d 1b40
00000200: ea4b c5be 4bb3 e1be fc1e b4bf 2193 a83f
00000210: 8e4a 453f a22e 7cbd 7a65 f63e 60c8 38bf
00000220: 33c0 8bbf 15cf a13e c3eb 31bd 9aa2 f2bf
00000230: 8c53 25be b19d a3bd 8b87 8f3e ec64 97be
00000240: 1f18 fcbe 3bb7 993e 6d47 ba3d 3240 5c3f
00000250: 1b7c 02bd be40 bd3e ded7 0c3e 2245 e53d
00000260: 1d42 38bf 8f65 b5bf 9f7e 80bf 527e f7bd
00000270: 539b bdbe 4623 003d cf55 863f 6197 fa3e
00000280: 1dab c73f 3679 a73c 1de4 4dbf 8a6d bb3f
00000290: 9c5a 373e 14c8 0abf ea31 503f c612 133f
000002a0: c663 89bc ccd2 1e3f 14fe 48bf 30a6 1140
000002b0: 8194 63bc af19 e4bf c316 a33e d783 04c0
000002c0: 5c6e 74bf d28f a9bf e60a 88be 784e 3abe
000002d0: 0be0 d73f 27af 703e 4313 d13f 31ba 6b3e
000002e0: 618f 2dbd 66fa 8f3f 9751 b13f 39ae e93f
000002f0: f3f5 ab3e c65b 8f3c 4296 e2bf ddc3 27bf
00000300: d89a 82bf b212 b63f f0cb 463f 60c7 9dbc
00000310: 1549 8e3f 8fc1 843f 3b91 99be f2c9 8e3f
00000320: 1c91 65be 12cc d4bf 2b6f 563d 86e3 743f
00000330: ad0f b13f 416e 04c0 af69 a73e 1011 bd3e
00000340: a701 4f3f 48db c4bf e77f 1140 ff70 9d3e
00000350: f017 57bf b724 573f 253f 0dbf 1dba bebf
00000360: f11c cf3f 467c ac3f 5c57 643f 13dc 6e3f
00000370: e080 b23e bfd5 ad3e 83d5 10c0 04eb 8a3e
00000380: 7469 1cbf c31f fb3e 0abb 093f e899 20bf
00000390: e43d cfbd 7d82 583f fa04 8abe e5dd 08c0
000003a0: b73e 86bf 7f4c a0bf aa7e 0cc0 0da8 3a3e
000003b0: 6919 ebbf 57a6 823e e071 a63f 82f7 e7bf
000003c0: 8173 56bf 5a08 09c0 c67b c13f 4418 9ebf
000003d0: 71ff 0240 c0ac 78bf 93d2 99be 559c a93f
000003e0: cb9a 0c3f a10b 043f fc95 f83f f798 253e
000003f0: af89 86bf 27a0 863f fcd6 4640 b02f 353f

net.0.weight f4 [128, 64]
0.102229066 0.42112544 0.027639262 -0.5231878 0.9082536 1.3927268 0.82027674 -0.5129323
-0.40358305 0.5745315 -0.49280414 -0.24427684 0.9327834 -0.61035186 -0.17108 -0.9175043
0.41160777 -0.5215371 1.189688 0.25270784 -0.051333718 0.21960957 -0.47030893 -0.64280754
0.4653698 1.0968356 0.7707887 0.30257455 -0.7420088 1.1230396 -0.23865496 0.18614328
0.11214249 -0.6356533 0.7423443 -0.9324238 1.3287835 -0.6552348 -0.42179516 -0.7850418
0.029449938 -0.04920613 0.30578354 -0.1496762 -0.53849745 -0.6714718 0.39124772 1.1755267
0.47022626 0.2667675 -0.6241092 -0.45920268 0.020201862 1.2095492 0.20104934 -0.5144244
-0.6264909 -1.2110946 0.10647905 -1.320614 -0.57806194 -1.1260294 -0.13539353 -0.48156926
0.7910607 0.106760904 -0.2300021 0.5064262 0.28119627 0.567019 -0.2322053 -0.34381473
-0.3367653 -0.21496896 0.60359514 -0.8152972 -1.0754211 -0.009930737 -0.44876683 1.0381
0.172772 -0.025531756 -0.13070941 -0.94387937 0.32538137 0.33962157 -0.3240637 0.080303185
-1.3516372 0.52151746 -0.50165695 1.2111275 -0.11751014 0.25450253 -0.111711204 -0.011807931
-0.13982701 0.2640797 -0.62166685 0.045026638 1.0048602 0.7187604 0.31605065 0.6285227
-0.11012241 0.37344036 0.5934883 0.5923133 0.57151836 -0.33586526 0.71067727 -0.048828647
0.0643024 0.104946114 -0.82513374 0.5369616 0.22349663 0.9611727 -0.52682996 -0.6414686
0.2554733 -0.06170144 -0.18937574 -0.065675 -0.70758724 0.80966103 -0.53608745 -0.76893604
0.8760803 -0.39828843 0.28987348 -0.34473097 -0.18147658 0.26326847 0.38798043 -0.7431256
0.09049291 -0.03685731 -0.33494562 -0.23575287 -0.023128932 -0.07128779 -0.7212955 0.64380276
-0.08063199 -0.4913651 -0.036423046 -0.35798293 0.37770694 0.1285785 -0.44999966 0.05018904
-0.9692209 0.49090287 -0.3866505 0.5955397 -0.37559864 -0.5556482 -0.39850503 0.6118166
-0.44512576 0.46023476 -0.3124423 -0.15511748 0.9033658 0.13538094 -0.08864724 0.31370348
-0.0331341 0.084544815 1.1870537 -0.28906235 0.09702526 0.40542176 -0.3043518 0.18797705
0.8437536 0.5644486 -0.33501506 -0.21862581 0.014403625 -0.26092845 0.117146626 -0.47309405
0.53697884 0.09008532 -1.0200776 -0.23276815 -0.9206034 -0.1804309 -0.26894075 0.69278306
0.5592961 0.028229147 0.7553052 -0.3811269 0.49850354 -0.025742684 -0.19913825 -0.48928457
0.36453608 0.7952907 0.5069967 -0.055437498 -0.26309633 0.26299766 -0.33936664 -0.39579877
0.3657676 0.83448625 -0.83418256 -0.8482708 0.12353472 0.29839253 -0.46977645 0.5716472
0.14346722 0.54604596 -0.040254906 0.38972956 -0.22494131 0.21928903 -0.030080644 0.027778242
0.120251566 -0.49786985 -0.06118125 0.2166287 0.16862905 0.073544756 -0.2695876 0.057160605
0.509333 0.27592507 1.3177605 0.01170601 0.44266146 0.4076594 -0.4586918 -0.19658482
1.0727632 0.8235454 0.009083313 -1.3233684 0.002834051 -0.056869756 -0.57297975 -0.93226284
0.45440543 -0.16367702 -0.8351058 -0.0036321587 -0.5098452 0.24138339 -0.073436275 -0.054236304
00000000: 795d d13d c19d d73e bc6b e23c a3ef 05bf
00000010: 4f83 683f df44 b23f a8fd 513f 884f 03bf
00000020: 70a2 cebe 7f14 133f d350 fcbe b523 7abe
00000030: e5ca 6e3f 0540 1cbf 982f 2fbe 90e1 6abf
00000040: 41be d23e 7583 05bf b247 983f ec62 813e
00000050: 4e43 52bd 55e1 603e 55cc f0be 098f 24bf
00000060: f344 ee3e 1c65 8c3f 6952 453f 0deb 9a3e
00000070: 4af4 3dbf c3bf 8f3f f761 74be 589c 3e3e
00000080: f6aa e53d 2dba 22bf 470a 3e3f 53b3 6ebf
00000090: 9415 aa3f 78bd 27bf 89f5 d7be 80f8 48bf
000000a0: ff40 f13c 5e8c 49bd a98f 9c3e b844 19be
000000b0: f8da 09bf 93e5 2bbf 9f51 c83e a977 963f
000000c0: 7fc1 f03e c095 883e 9fc5 1fbf 9d1c ebbe
000000d0: 607e a53c 82d2 9a3f e1df 4d3e 51b1 03bf
000000e0: b561 20bf 2605 9bbf b011 da3d e109 a9bf
000000f0: defb 13bf bb21 90bf 9aa4 0abe 3f90 f6be
00000100: f482 4a3f 76a5 da3d ac85 6bbe 26a5 013f
00000110: f5f8 8f3e 2828 113f 3ac7 6dbe 7c08 b0be
00000120: 806c acbe d320 5cbe 3685 1a3f 51b7 50bf
00000130: 66a7 89bf 88b4 22bc c4c4 e5be 76e0 843f
00000140: 25eb 303e f927 d1bc b0d8 05be 14a2 71bf
00000150: 6398 a63e e1e2 ad3e adeb a5be ff75 a43d
00000160: 7302 adbf 2b82 053f 976c 00bf 3a06 9b3f
00000170: 28a9 f0bd 284e 823e d8c8 e4bd 0d76 41bc
00000180: d02e 0fbe 7435 873e 8f25 1fbf da6d 383d
00000190: 429f 803f ae00 383f 64d1 a13e dde6 203f
000001a0: dc87 e1bd 9333 bf3e d9ee 173f d8a1 173f
000001b0: 074f 123f 88f6 abbe f2ee 353f 8c00 48bd
000001c0: fab0 833d fded d63d f73b 53bf 5176 093f
000001d0: 4ddc 643e 6a0f 763f 54de 06bf 4937 24bf
000001e0: 65cd 823e a6ba 7cbd b7eb 41be 9d80 86bd
000001f0: 7024 35bf f245 4f3f 073d 09bf fed8 44bf
00000200: cc46 603f 76ec cbbe 4c6a 943e 9480 b0be
00000210: ffd4 39be 20cb 863e 5fa5 c63e 7b3d 3ebf
00000220: 5954 b93d b1f7 16bd fe7d abbe 3369 71be
00000230: e378 bdbc 55ff 91bd d2a6 38bf 42d0 243f
00000240: 6322 a5bd 3594 fbbe 5530 15bd 8a49 b7be
00000250: ce62 c13e 15aa 033e 5b66 e6be 0693 4d3d
00000260: dc1e 78bf 9f57 fb3e 0ef7 c5be 4a75 183f
00000270: 774e c0be f63e 0ebf da08 ccbe 03a0 1c3f
00000280: 86e7 e3be e4a3 eb3e 70f8 9fbe 1ed7 1ebe
00000290: fb42 673f 4da1 0a3e af8c b5bd be9d a03e
000002a0: 9fb7 07bd d525 ad3d 60f1 973f fbff 93be
000002b0: 2eb5 c63d 7193 cf3e 00d4 9bbe 0e7d 403e
000002c0: 3c00 583f b47f 103f 1887 abbe 72df 5fbe
000002d0: 2ffd 6b3c 6a98 85be 92ea ef3d 6239 f2be
000002e0: 7277 093f a77e b83d e791 82bf c65a 6ebe
000002f0: aaac 6bbf e1c2 38be 9ab2 89be 3b5a 313f
00000300: 072e 0f3f d040 e73c ae5b 413f 1123 c3be
00000310: db3b ff3e 52e2 d2bc e6ea 4bbe 8283 fabe
00000320: 79a4 ba3e 2c98 4b3f 89ca 013f 6e12 63bd
00000330: 90b4 86be a1a7 863e 77c1 adbe 23a6 cabe
00000340: e445 bb3e e4a0 553f fd8c 55bf 4628 59bf
00000350: c5ff fc3d e8c6 983e 8a86 f0be 7957 123f
00000360: 12e9 123e abc9 0b3f 54e2 24bd a28a c73e
00000370: 0457 66be 4e8d 603e af6b f6bc 328f e33c
00000380: 7446 f63d cce8 febe 3199 7abd ead3 5d3e
00000390: 18ad 2c3e a29e 963d 6307 8abe 3d21 6a3d
000003a0: a663 023f 0d46 8d3e 60ac a83f 91ca 3f3c
000003b0: 86a4 e23e bcb8 d03e a7d9 eabe 884d 49be
000003c0: 4e50 893f dfd3 523f 2dd2 143c 2364 a9bf
000003d0: 7cbb 393b 43f0 68bd cdae 12bf c7a8 6ebf
000003e0: d4a7 e83e f39a 27be 7ec9 55bf 8309 6ebb
000003f0: 3785 02bf 352d 773e c265 96bd e326 5ebd

net.0.bias f4 [128]
-0.39880884 -2.017537 -2.4718947 -1.8752735 -2.4951692 -0.05578786 0.069953255 -1.8656818
0.8479926 -1.1052779 -0.95704854 -1.1615702 -0.30635348 -1.0967686 -0.24198644 -1.5395333
-1.2005974 -0.7039782 -1.1064249 -0.6466712 -0.28798643 -2.0637612 -0.9593175 -1.9573796
-2.0203686 -0.7379589 -1.3539623 -0.58520555 -0.40141097 -1.1655763 -0.8538889 -0.5584889
-0.89828885 -0.8346582 -1.7512712 -1.2611055 -1.2136278 -1.0941339 -0.105865695 -1.2130812
-1.0586755 -1.5863277 -1.6339468 0.9370022 -2.2848904 -0.12384265 -1.5269043 -0.07811791
-1.4093381 -0.95201945 -0.75645846 -1.7301201 -0.27216008 -1.0588536 0.21754704 -0.8408857
-1.9847908 0.1351766 -0.45483422 -1.3161341 0.08212152 -0.20375983 -0.98259276 -1.5907637
-2.1465545 -0.26932812 -1.758831 -0.84639 -0.9422912 -1.223589 -1.3850601 -1.8180325
-0.6206304 -0.38969824 -0.97981215 -1.5614206 -1.717092 0.6506801 -0.3364175 -0.9400919
-1.149313 -1.5840416 1.1951157 -0.18482417 -0.1568664 -2.1275837 -1.5442508 -0.15240955
-0.855451 -2.3048868 -1.5393515 -1.241674 -1.2314807 -0.63331807 -1.0744635 0.19640762
-1.3444465 -0.09376465 -2.1873202 -0.49539858 -1.6125811 -1.9080868 -0.5793623 -1.2807927
-1.7033316 -0.73818517 -1.1816722 -1.7437464 0.033440974 0.06720096 -1.2652093 -0.8181123
-2.2165737 -0.68018633 0.774652 -0.94448066 -1.3633713 0.12564203 -0.5818009 -1.8985925
-1.2987021 -1.219814 0.38684922 -0.66246045 -1.1723032 -1.1603895 -1.8115909 -1.7654694
00000000: ac30 ccbe 541f 01c0 8633 1ec0 f608 f0bf
00000010: dab0 1fc0 d081 64bd a743 8f3d a9ce eebf
00000020: 0b16 593f bf79 8dbf 2201 75bf 55ae 94bf
00000030: 5dda 9cbe ea62 8cbf 4bcb 77be 6d0f c5bf
00000040: 2dad 99bf ea37 34bf 559f 8dbf 3e8c 25bf
00000050: f572 93be aa14 04c0 d595 75bf 6a8b fabf
00000060: b84d 01c0 e0ea 3cbf a34e adbf 08d0 15bf
00000070: bd85 cdbe 9b31 95bf 7798 5abf 21f9 0ebf
00000080: 42f6 65bf 29ac 55bf a829 e0bf e86b a1bf
00000090: 2858 9bbf 940c 8cbf 1dd0 d8bd 3f46 9bbf
000000a0: ae82 87bf c90c cbbf 2b25 d1bf 60df 6f3f
000000b0: a53b 12c0 37a1 fdbd 9a71 c3bf 48fc 9fbd
000000c0: 3165 b4bf 8cb7 73bf 43a7 41bf 9374 ddbf
000000d0: 9158 8bbe 8488 87bf a7c4 5e3e 4944 57bf
000000e0: a00d febf bc6b 0a3e 08e0 e8be 1577 a8bf
000000f0: 542f a83d 6ba6 50be 338b 7bbf 259e cbbf
00000100: 2661 09c0 60e5 89be 6021 e1bf 04ad 58bf
00000110: ff39 71bf 909e 9cbf a649 b1bf 4ab5 e8bf
00000120: a2e1 1ebf 8786 c7be f8d4 7abf a1dc c7bf
00000130: acc9 dbbf f992 263f ea3e acbe dda9 70bf
00000140: b01c 93bf e0c1 cabf 8df9 983f 8c42 3dbe
00000150: 96a1 20be 552a 08c0 03aa c5bf 4011 1cbe
00000160: d6fe 5abf 4483 13c0 7809 c5bf 2cef 9ebf
00000170: 29a1 9dbf 2221 22bf 0588 89bf 141f 493e
00000180: d316 acbf ae07 c0bd 0efd 0bc0 e2a4 fdbe
00000190: 0f69 cebf 303c f4bf 1651 14bf 04f1 a3bf
000001a0: c506 dabf b4f9 3cbf 0941 97bf 1533 dfbf
000001b0: 67f9 083d a8a0 893d 61f2 a1bf cf6f 51bf
000001c0: 58dc 0dc0 b120 2ebf 984f 463f 7cc9 71bf
000001d0: f382 aebf 4ea8 003e e7f0 14bf 1405 f3bf
000001e0: df3b a6bf dd22 9cbf 1a11 c63e 0297 29bf
000001f0: 080e 96bf a587 94bf 36e2 e7bf e7fa e1bf

net.2.weight f4 [128, 128]
-0.60144687 0.053375296 -0.2796005 0.35014537 -0.008682974 -0.8880132 0.25904733 -0.57358235
-0.24071267 0.017517434 -0.02549193 -0.12232207 0.35936534 -0.12473991 -0.1749853 0.06267758
-0.88672864 0.37243375 -0.5010921 -0.5345666 -0.6664089 0.017436847 -0.6358104 -0.3703337
-0.13268556 -0.13000083 -0.6165865 -0.12129792 0.68331087 0.30234766 -0.45936084 -0.6213567
0.049529966 0.15275833 -0.3967089 -0.3884188 -0.196845 0.2858256 -0.31975153 -0.1435229
-0.5589812 -0.3993153 -0.15054387 -0.46746665 -0.046915725 -0.49289963 -0.07820857 0.049938377
-0.2114478 -0.37178427 -0.1104292 -0.84456503 -0.53099996 0.024689224 -0.77059734 -0.29714555
0.48700204 -0.5982889 -0.61313635 -0.52503186 -0.06236884 -0.2447176 -0.8202753 -0.36321998
-0.1721857 -1.3849691 -0.19977807 -0.47475696 -0.8300974 -0.24556051 -0.3345968 -0.103991166
0.2545305 -0.6226554 -0.7905612 0.11939832 -0.07539005 -0.38217854 -0.21212229 -0.00779728
-0.1577195 0.041826405 -0.35762656 0.14702785 0.03181691 -0.2713429 -0.7582348 -0.8434852
-0.1695697 0.027650798 -0.24199614 -0.26394525 0.17420729 -0.6357332 -0.29196742 -0.8156747
0.016660454 -0.0909481 -0.21109289 0.14091676 -0.5530989 -0.060447358 -0.2789572 -0.5697545
0.20312425 -0.08845504 0.05731123 -0.15379465 0.06444568 -0.21868469 -0.12792797 -0.44249138
0.43510863 -0.29366252 -0.82438976 -0.26438332 -0.21514818 0.5272389 0.24280591 -0.28700045
-0.49036047 -0.045722794 -0.89937717 -0.38124466 0.05754633 0.1268395 -0.2914438 -0.35061842
-0.6802233 0.35913357 1.3395468 -0.5137611 -0.5196524 0.20626312 -0.1640135 -0.6076085
-0.6865419 -0.16181125 0.1499618 -0.40233365 0.014857597 -0.6230634 -0.23514318 -0.118055455
-0.37627774 0.10000156 -0.20691419 -0.41849196 -0.07374278 0.057530105 -0.34504947 -0.4548544
0.52496517 -0.074426726 0.13098258 -0.38050392 -0.3115297 -0.21260929 -0.56075555 -0.31690466
0.1303146 -0.337137 -0.15325408 -0.2884469 -0.15437391 0.2235806 -0.097420305 -0.5234894
0.141856 -0.15562165 0.048334774 -0.08765344 -0.31510466 -0.7773623 -0.19315238 0.24732491
-0.18445043 -0.12708786 -0.4992962 0.3680403 -0.4205015 -0.63516134 0.07996085 -0.3465981
0.11577374 -0.2273227 -0.66644835 0.06058857 0.44196358 -0.49986762 -0.2726081 -0.26289994
-0.05828749 -0.26657212 0.4541546 -0.7245417 -0.5031572 0.08013163 -0.29069057 -0.34367797
-0.21549664 -0.7550715 0.10209888 -0.69761 -0.21612826 0.045148306 -0.30372298 -0.048279636
-0.97146237 -0.12600185 -0.04715414 -0.6057225 -0.2691157 -0.34775954 -0.11729577 -0.5380849
-0.9022067 0.26619136 -0.058475852 -0.26803488 -0.1626351 -0.25858873 -0.5447748 -0.4271165
-0.40422565 -0.5540331 -0.0005097028 -0.050678924 -0.2901726 -0.83500713 -0.4385771 -0.05232243
-0.68584776 -0.23551194 -0.26112357 -0.2840532 -0.44489747 -0.35297248 -0.22823617 -0.12663098
-0.051972084 -0.4994287 -0.3851716 -0.20716476 -0.8786743 0.103538 -0.42566496 0.08984874
-0.019706463 -0.0062675364 -0.90127903 -0.5107973 0.26190382 -0.29034922 -0.42755812 -0.31128538
00000000: 6cf8 19bf 0ea0 5a3d cc27 8fbe 4146 b33e
00000010: 0843 0ebc d554 63bf daa1 843e 4bd6 12bf
00000020: 627d 76be b980 8f3c 74d4 d0bc fe83 fabd
00000030: bcfe b73e a377 ffbd 592f 33be 1a5d 803d
00000040: a600 63bf a3af be3e 9247 00bf 5bd9 08bf
00000050: c699 2abf b8d7 8e3c 78c4 22bf 619c bdbe
00000060: b9de 07be f01e 05be 9dd8 1dbf 0b6b f8bd
00000070: 76ed 2e3f 50cd 9a3e 5831 ebbe 3c11 1fbf
00000080: efdf 4a3d ae6c 1c3e 6e1d cbbe d4de c6be
00000090: bc91 49be bc57 923e 79b6 a3be abf7 12be
000000a0: 6419 0fbf 0e73 ccbe 2c28 1abe ca57 efbe
000000b0: b42a 40bd 575d fcbe d12b a0bd 2f8c 4c3d
000000c0: c685 58be 825a bebe b428 e2bd 6a35 58bf
000000d0: 9def 07bf 0e41 ca3c de45 45bf 7623 98be
000000e0: 5558 f93e 7629 19bf 81f6 1cbf 7d68 06bf
000000f0: 7876 7fbd 4097 7abe 90fd 51bf f8f7 b9be
00000100: 7351 30be ab46 b1bf 9f92 4cbe 5813 f3be
00000110: 4381 54bf 3774 7bbe 4650 abbe 52f9 d4bd
00000120: d251 823e 5866 1fbf 3862 4abf 1b87 f43d
00000130: 1966 9abd e8ac c3be 9636 59be 5380 ffbb
00000140: 3881 21be 2a52 2b3d d41a b7be 788e 163e
00000150: 7352 023d 75ed 8abe ad1b 42bf a5ee 57bf
00000160: aea3 2dbe ed83 e23c d6cd 77be d523 87be
00000170: 6563 323e 69bf 22bf c17c 95be 0fd0 50bf
00000180: 817b 883c ff42 babd bc28 58be 7c4c 103e
00000190: e497 0dbf a697 77bd 7ad3 8ebe 6edb 11bf
000001a0: ceff 4f3e ea27 b5bd 2ebf 6a3d 587c 1dbe
000001b0: 19fc 833d e1ee 5fbe 8dff 02be 3b8e e2be
000001c0: 8fc6 de3e ef5a 96be 350b 53bf 405d 87be
000001d0: ce4f 5cbe 21f9 063f 1da2 783e b9f1 92be
000001e0: 8710 fbbe d347 3bbd 953d 66bf 8032 c3be
000001f0: b3b5 6b3d 37e2 013e 1f38 95be 4284 b3be
00000200: 1d23 2ebf 5be0 b73e 4576 ab3f d985 03bf
00000210: f107 05bf a436 533e 28f3 27be 3b8c 1bbf
00000220: 36c1 2fbf d9b1 25be 968f 193e adfe cdbe
00000230: 476d 733c 1581 1fbf 60c9 70be 0fc7 f1bd
00000240: 7aa7 c0be 9ecd cc3d 50e1 53be 9444 d6be
00000250: 7406 97bd b0a4 6b3d 53aa b0be ade2 e8be
00000260: 1e64 063f 0a6d 98bd 4c20 063e 69d1 c2be
00000270: d280 9fbe 40b6 59be ad8d 0fbf 5441 a2be
00000280: 3171 053e 399d acbe a3ee 1cbe 50af 93be
00000290: 3214 1ebe 50f2 643e 4c84 c7bd 6703 06bf
000002a0: b342 113e 485b 1fbe affa 453d a683 b3bd
000002b0: 6655 a1be 3701 47bf bdc9 45be be42 7d3e
000002c0: 93e0 3cbe 5223 02be c0a3 ffbe c76f bc3e
000002d0: f94b d7be ef99 22bf 84c2 a33d 4e75 b1be
000002e0: c81a ed3d 48c7 68be 5c9c 2abf b82b 783d
000002f0: 0d49 e23e a6ee ffbe 4a93 8bbe d29a 86be
00000300: ddbe 6ebd 247c 88be f486 e83e 917b 39bf
00000310: e9ce 00bf 0d1c a43d 65d5 94be 8ff6 afbe
00000320: 27ab 5cbe 5e4c 41bf 3819 d13d 9296 32bf
00000330: ba50 5dbe 6eed 383d 9481 9bbe dec0 45bd
00000340: c2b1 78bf a106 01be b324 41bd a110 1bbf
00000350: 88c9 89be 8a0d b2be c438 f0bd efbf 09bf
00000360: 05f7 66bf 3c4a 883e 6084 6fbd de3b 89be
00000370: d189 26be be65 84be 5c76 0bbf 04af dabe
00000380: aaf6 cebe 1dd5 0dbf 939d 05ba b494 4fbd
00000390: 8191 94be 07c3 55bf 2d8d e0be 0b50 56bd
000003a0: b893 2fbf 0b2a 71be fdb1 85be 6c6f 91be
000003b0: 9ac9 e3be cfb8 b4be beb6 69be 8dab 01be
000003c0: aee0 54bd 1eb5 ffbe 3635 c5be 0023 54be
000003d0: cdf0 60bf bb0b d43d c2f0 d9be 9e02 b83d
000003e0: 736f a1bc e85f cdbb 39ba 66bf 9dc3 02bf
000003f0: 4218 863e a7a8 94be e6e8 dabe cc60 9fbe

net.2.bias f4 [128]
-0.4172774 -0.5265967 1.1141652 -0.011859768 -0.44525966 -0.82392293 -0.04429748 -0.13363828
-0.59347725 -0.15613465 -0.39504117 -2.4801736 -1.3979719 -0.56173813 -0.18318883 -0.19447877
-0.13173828 -0.023251675 0.42053053 0.3184972 0.95805305 1.6336766 1.77505 -0.8974836
0.31920362 1.7032391 -0.76144165 -1.346701 -0.258734 2.1065135 0.5701019 -0.13185565
0.041447487 0.8060966 -0.28439817 -0.4391888 -0.15062973 -0.78262615 0.33508012 1.9502481
-1.077099 -0.10025141 -0.010877201 -0.30844373 -0.5061495 0.0061007454 -0.45861045 0.38430342
-0.18579336 0.007084471 1.3919238 1.5425481 -0.41063952 1.2398341 0.32261527 0.46051544
-1.3887907 -0.19257279 -1.4775383 -0.27405614 -0.42654118 0.6302194 0.22383264 -0.21252756
0.38170013 -0.10952337 1.4671034 -0.103227004 0.84121954 1.6917534 -0.32949996 -2.814065
-0.91979045 0.16825476 2.1716864 -0.30946344 -0.74486226 -0.57092434 1.4901788 1.7567686
0.2299582 -0.9027974 0.011974994 0.03844852 1.9453782 -0.4476719 1.1314303 -0.9326506
1.5967424 -0.7017394 1.897963 0.18933937 2.1141765 -2.0894167 -1.5887444 -1.152748
0.054896 0.19897515 -0.40448898 -0.12254115 0.134192 -0.37424073 0.6689796 -0.7562966
-0.2458232 -1.1327829 1.530501 0.054208167 -0.6151331 0.060009465 -0.50698626 -0.09784676
-0.11453481 -0.07767613 -1.0131298 -1.2878019 0.030071974 -0.12054931 -0.5086313 -0.8712314
-0.49559373 -0.052005086 0.33026114 2.418501 -0.6093007 -0.39059705 0.63513124 -0.08605924
00000000: 62a5 d5be 0bcf 06bf f79c 8e3f 794f 42bc
00000010: 13f9 e3be 9dec 52bf 4671 35bd 79d8 08be
00000020: 20ee 17bf c3e1 1fbe d642 cabe 2abb 1ec0
00000030: bef0 b2bf 12ce 0fbf da95 3bbe 7125 47be
00000040: 66e6 06be 4c7a bebc c74f d73e 1112 a33e
00000050: f742 753f 511c d13f d734 e33f 7cc1 65bf
00000060: a86e a33e bd03 da3f d7ed 42bf b360 acbf
00000070: c878 84be 1ed1 0640 33f2 113f 2b05 07be
00000080: d7c4 293d 595c 4e3f a39c 91be 5bdd e0be
00000090: ae3e 1abe 305a 48bf 9f8f ab3e bba1 f93f
000000a0: 61de 89bf 9c50 cdbd 4a36 32bc 56ec 9dbe
000000b0: 0393 01bf c3e8 c73b fdce eabe 6bc3 c43e
000000c0: 9d40 3ebe da24 e83b 8f2a b23f 3772 c53f
000000d0: 583f d2be e2b2 9e3f d42d a53e aec8 eb3e
000000e0: e5c3 b1bf cd31 45be fa1f bdbf 1651 8cbe
000000f0: 9b63 dabe 0f56 213f 6234 653e d3a0 59be
00000100: 336e c33e ca4d e0bd 0bca bb3f ae68 d3bd
00000110: 2a5a 573f 608b d83f 38b4 a8be a419 34c0
00000120: 6377 6bbf fa4a 2c3e e9fc 0a40 fe71 9ebe
00000130: 4baf 3ebf 1928 12bf 2ebe be3f cbdd e03f
00000140: 2a7a 6b3e bb1d 67bf c432 443c 327c 1d3d
00000150: 2702 f93f 4035 e5be b5d2 903f 31c2 6ebf
00000160: 0e62 cc3f 31a5 33bf 74f0 f23f 2ee2 413e
00000170: ab4e 0740 01b9 05c0 fa5b cbbf 3f8d 93bf
00000180: a1da 603d 24c0 4b3e 2e19 cfbe dbf6 fabd
00000190: a169 093e 7b9c bfbe 3f42 2b3f a79c 41bf
000001a0: 14b9 7bbe 08ff 90bf 75e7 c33f 6209 5e3d
000001b0: 5d79 1dbf 7ccc 753d dac9 01bf e263 c8bd
000001c0: 3a91 eabd aa14 9fbd 3dae 81bf b1d6 a4bf
000001d0: 8059 f63c 8fe2 f6bd a935 02bf 0509 5fbf
000001e0: 76be fdbe 4903 55bd fd17 a93e b8c8 1a40
000001f0: 21fb 1bbf 56fc c7be f697 223f d43f b0bd

net.4.weight f4 [6, 128]
0.751074 0.11967249 0.24058133 0.1911721 -0.47289252 -0.79710907 0.06465143 0.3446215
0.1312064 -0.41803548 0.15228571 -0.58834976 -0.42884767 -0.49296737 0.37352264 0.20185597
0.25755617 0.12885109 0.98415923 1.8631754 0.15546407 0.31976497 0.1330419 -0.75377184
1.360244 0.15747577 1.1422737 -0.30313808 -0.079554126 0.16931139 1.3259169 0.07915852
0.13395002 1.9156158 -0.7348269 -0.23237197 0.5387303 -0.70995814 -0.68780494 0.1992755
-0.7985034 0.26582524 -0.2724055 0.062283702 -0.6588451 0.1663475 1.0507483 1.2046016
-0.60512596 0.19420077 0.3894363 0.1548949 0.3816796 0.1627412 0.8103365 0.48078126
-0.72660327 0.084517844 0.3435955 0.66895896 0.313592 1.228314 -0.027541809 -0.013206771
0.7752514 0.5474943 0.11545693 0.3767192 1.2536718 0.18531 1.0607848 -0.5481022
0.019254223 0.62307614 0.28996277 0.49526826 0.024456086 0.6675152 0.4451748 0.5533918
1.61139 0.51074576 0.3794579 1.0038388 0.24773164 1.2740911 0.27337486 0.16740073
0.17602366 0.9802579 0.23971836 1.1391585 0.2762217 -0.4615853 -0.47825727 0.094167575
0.8012342 0.12771505 0.39209235 -0.26719308 0.82211417 -0.4297371 0.11185325 -0.74134016
0.63486266 0.007825403 0.11899529 0.51090044 0.18094935 0.8686884 0.20395908 -0.30025783
-0.034368478 0.17413221 -0.6518314 -0.8327888 0.1175026 -0.0051851496 0.42690852 -0.3846403
0.29133344 1.7318451 1.0325738 0.18528359 0.58682853 0.10674114 0.97864455 -0.17795114
-0.036814246 -0.048633415 0.20219192 0.02860525 0.5394241 0.9930608 0.10565499 0.18414412
0.14366727 -0.4062888 -0.009573007 -0.6415994 -0.4544045 -0.006929 -0.23018834 -0.1687995
-0.37737668 0.1587569 0.9321727 1.4677417 0.2546769 0.39762905 0.06225435 -0.7494848
1.5222831 -0.040542446 1.0349504 -0.3488617 0.26281765 0.11604792 1.323589 -0.024416218
0.1750171 1.7950946 -0.9832921 0.08075591 -0.033009447 -0.7428722 -0.6871939 0.17079702
-0.616861 0.017022546 0.624128 -0.3175866 -0.74223447 0.46835414 0.9971012 1.031227
-0.81303555 0.15688287 0.37534317 0.07903153 0.5152557 0.22110063 1.0007505 0.34957454
-0.74073946 6.431904e-05 0.4168395 0.5936187 -0.24079256 1.0442731 -0.15857378 0.032205563
0.97529995 -0.048527632 0.10981635 0.43342093 1.2425162 0.15144163 1.0900184 -0.57680345
0.92434806 0.06993294 0.26503655 0.3376764 0.27002376 0.11508822 0.42183292 0.66044265
0.9637173 -1.2280536 0.24786383 1.2842606 0.21635212 1.8354185 0.2314761 0.3125043
0.1352057 0.33691257 0.2718094 1.2000332 0.39432925 -0.46124417 -0.41251656 -0.7020054
0.69921166 0.46033466 -1.0445973 0.23119362 0.6272154 -0.19232903 -0.042092104 -0.682055
0.8763493 -0.24983424 0.120612904 0.2718211 0.37339294 0.55203635 -0.35733238 0.026671918
-0.01762966 0.11985272 -0.59424955 -0.8592945 0.20630398 -0.4864649 0.30279446 -0.44099212
0.49411803 1.9129242 1.0166019 0.22198159 0.5582953 0.44151565 1.0268975 -0.16066429
00000000: 6346 403f da16 f53d f45a 763e 9ec2 433e
00000010: f81e f2be 570f 4cbf f867 843d 3b72 b03e
00000020: f85a 063e bf08 d6be c9f0 1b3e 179e 16bf
00000030: ec91 dbbe 3866 fcbe 5c3e bf3e 55b3 4e3e
00000040: 67de 833e 8af1 033e dcf1 7b3f 887c ee3f
00000050: f931 1f3e 3cb8 a33e 233c 083e 31f7 40bf
00000060: 7a1c ae3f 5441 213e 0636 923f ea34 9bbe
00000070: 46ed a2bd f75f 2d3e a5b7 a93f dd1d a23d
00000080: 322a 093e e632 f53f 9e1d 3cbf ebf2 6dbe
00000090: 3bea 093f d1bf 35bf fc13 30bf e00e 4c3e
000000a0: b86a 4cbf 3f1a 883e bc78 8bbe 321d 7f3d
000000b0: 13aa 28bf 0057 2a3e ec7e 863f 6330 9a3f
000000c0: 89e9 1abf 91dc 463e 3264 c73e c59c 1e3e
000000d0: 826b c33e a1a5 263e 3672 4f3f f628 f63e
000000e0: ac02 3abf b117 ad3d c0eb af3e e540 2b3f
000000f0: 218f a03e 6539 9d3f 5c9f e1bc 3661 58bc
00000100: e076 463f 9628 0c3f af74 ec3d 57e1 c03e
00000110: 5178 a03f e8c1 3d3e ccc7 873f 6d50 0cbf
00000120: 08bb 9d3c eb81 1f3f 0076 943e cd93 fd3e
00000130: 2158 c83c 47e2 2a3f f4ed e33e 16ab 0d3f
00000140: 0742 ce3f 3cc0 023f 4e48 c23e ca7d 803f
00000150: 5dad 7d3e 6b15 a33f caf7 8b3e 196b 2b3e
00000160: 8c3f 343e 2ff2 7a3f bb78 753e f2cf 913f
00000170: ee6c 8d3e e954 ecbe 23de f4be eeda c03d
00000180: af1d 4d3f bcc7 023e 54c0 c83e 88cd 88be
00000190: 1376 523f 8006 dcbe 5113 e53d 78c8 3dbf
000001a0: 5c86 223f 1e36 003c cdb3 f33d 5fca 023f
000001b0: c94a 393e 5d62 5e3f a6da 503e 65bb 99be
000001c0: f6c5 0cbd b74f 323e 6cde 26bf a631 55bf
000001d0: 34a5 f03d 30e8 a9bb c193 da3e 93ef c4be
000001e0: a829 953e 1aad dd3f 612b 843f fbba 3d3e
000001f0: 653a 163f 199b da3d 7388 7a3f d338 36be
00000200: 89ca 16bd d533 47bd 660b 4f3e 8f55 ea3c
00000210: b317 0a3f 3c39 7e3f a561 d83d 4790 3c3e
00000220: 831d 133e 1605 d0be 1ad8 1cbc dc3f 24bf
00000230: b5a7 e8be aa0c e3bb 7eb6 6bbe c7d9 2cbe
00000240: 8437 c1be 2b91 223e dfa2 6e3f f6de bb3f
00000250: 0365 823e 0996 cb3e 6bfe 7e3d 3cde 3fbf
00000260: 2cda c23f d60f 26bd 4179 843f 009e b2be
00000270: 0990 863e 88aa ed3d 5d6b a93f 8504 c8bc
00000280: af37 333e a9c5 e53f 08b9 7bbf 5b63 a53d
00000290: ea34 07bd df2c 3ebf f0eb 2fbf 6ae5 2e3e
000002a0: 9aea 1dbf de72 8b3c dac6 1f3f b69a a2be
000002b0: 1403 3ebf 1dcc ef3e 0642 7f3f 3fff 833f
000002c0: 1923 50bf e7a5 203e fb2c c03e 48db a13d
000002d0: cce7 033f 3468 623e 9818 803f 6ffb b23e
000002e0: 1aa1 3dbf 06e3 8638 fd6b d53e 65f7 173f
000002f0: 5392 76be beaa 853f 2a61 22be fbe9 033d
00000300: 42ad 793f e9c4 46bd 65e7 e03d 59e9 dd3e
00000310: c50a 9f3f 8413 1b3e b985 8b3f 64a9 13bf
00000320: 13a2 6c3f 0039 8f3d dfb2 873e ece3 ac3e
00000330: 8e40 8a3e 5fb3 eb3d 7cfa d73e c512 293f
00000340: 2db6 763f dc30 9dbf 04d0 7d3e a762 a43f
00000350: 698b 5d3e feee ea3f 1208 6d3e 9000 a03e
00000360: 5d73 0a3e ce7f ac3e 9a2a 8b3e b09a 993f
00000370: 86e5 c93e 3228 ecbe 5f35 d3be a0b6 33bf
00000380: 89ff 323f fcb0 eb3e 5db5 85bf 05be 6c3e
00000390: 3091 203f e7f1 44be c568 2cbd 289b 2ebf
000003a0: 6d58 603f 8cd4 7fbe e603 f73d 232c 8b3e
000003b0: 5c2d bf3e 4152 0d3f 45f4 b6be 117f da3c
000003c0: 146c 90bc 5875 f53d bd20 18bf b9fa 5bbf
000003d0: 5a41 533e ed11 f9be e007 9b3e b8c9 e1be
000003e0: 0afd fc3e b3da f43f 0320 823f 244f 633e
000003f0: 71ec 0e3f 570e e23e 6171 833f 2e85 24be

net.4.bias f4 [6]
1.4726186 1.2273891 1.1651896 1.6607823 -2.2604575 -3.925491
00000000: c47e bc3f 161b 9d3f ef24 953f 8494 d43f
00000010: 56ab 10c0 3f3b 7bc0
