results/dqn/seed_11/dqn.pt (torch, 233309 bytes, 7 tensors)

embed.weight f4 [500, 64]
000000 a1 c3 02 bf 69 9e 83 3f 49 d0 b4 be df e2 fb 3d
       -0.51079756 1.0282718 -0.3531516 0.122991316
000010 6a e9 39 be 2c a5 bf bf da 83 11 3e 60 37 06 bf
       -0.18155447 -1.4972281 0.14210454 -0.52428246
000020 f1 b4 7e be f9 75 06 bf 07 1a 39 40 23 3f 18 bf
       -0.24873711 -0.5252376 2.8922136 -0.5947134
000030 26 ea a7 3f db 50 b4 3e fe 55 a8 bf bd f1 02 bc
       1.3118331 0.35217938 -1.3151243 -0.007992205
000040 43 d4 7d 3e 59 4e c9 3f f9 d9 d1 bf 19 d8 cb bf
       0.24788003 1.5727035 -1.6394645 -1.5925323
000050 0c 56 1e be 1b 58 8c bf ac ec ae 3f c8 74 30 3f
       -0.15462512 -1.0964388 1.3665977 0.68928194
000060 7a 79 c9 be 46 fa 1d 3f 23 ba 40 3f 33 2d 1a 3f
       -0.39350492 0.6171001 0.7528402 0.6022522
000070 6a 1f 01 40 a6 95 95 bf 32 7f a9 bf 22 39 90 3f
       2.0175424 -1.1686294 -1.3241942 1.1267436
000080 1f f4 66 be 17 92 05 3f 58 d3 03 c0 70 a8 0d 3e
       -0.22554062 0.5217604 -2.0597744 0.13833785
000090 a2 0a fe 3e 99 f3 1a bf 48 fa 4c bf 9e 75 22 3e
       0.49617487 -0.6052795 -0.800694 0.1586518
0000a0 22 78 36 3f 1d 6b 3e bf 55 66 8f 3e 2d 3a bf 3e
       0.7127706 -0.7438219 0.2800776 0.37349072
0000b0 f7 ae 3f 40 11 8e 83 be 58 0d 2f bf 81 f3 87 3f
       2.995054 -0.25694326 -0.68379736 1.0621186
0000c0 05 15 a8 bc f2 68 21 bf 03 6b 0c 3f 26 54 cb bf
       -0.020517835 -0.6305076 0.54850787 -1.5885055
0000d0 33 2f 07 3f 54 7a 65 3f bf 5a 7f 3f ec be 5c be
       0.52806395 0.8963978 0.9974784 -0.21557206
0000e0 e0 cd a9 3f 1b 7f de bd 7c 64 83 bf f3 7d 32 3d
       1.3265953 -0.10864087 -1.026504 0.043577146
0000f0 48 ee 78 bf 48 82 8f 3e 8e ea 11 3f 87 f7 bd 3f
       -0.9723859 0.28029084 0.5699853 1.4841164
000100 96 e7 87 bf 71 3a 01 3f ba 6c a3 3e b2 20 6c 3e
       -1.061755 0.504798 0.3191889 0.23059347
000110 54 2e 8e bf 7a 7f 8b bf bb 8e af 3f f1 51 f9 be
       -1.1107888 -1.0898278 1.3715433 -0.4869533
000120 15 e5 8c bf ef e3 f3 bf 2a 58 c5 3d 4c c6 99 3f
       -1.100741 -1.9053935 0.096359566 1.201364
000130 ed 64 9e 3e b5 c0 fa 3e 2a 3a f6 be dd 1b 15 3f
       0.30936375 0.4897515 -0.4809125 0.5824564
000140 3d cd bc 3f d3 2d 26 bf 29 77 1e bf e9 2a 35 3f
       1.4750134 -0.6491367 -0.61900574 0.707686
000150 25 e2 e6 bf 6a e1 bb bf ce 38 98 3f 8b 33 b5 be
       -1.8037764 -1.4678166 1.1892335 -0.35390887
000160 2d 01 8b bd 78 2c 9f 3e a7 52 64 3f 03 2f a5 be
       -0.06787334 0.31088614 0.8918862 -0.3226243
000170 d5 3e 6d 3f a6 df b6 3f 1e d8 4c bf 2e 04 61 bb
       0.92674 1.4287002 -0.8001727 -0.0034334767
000180 48 18 d2 3f 7f 0a 13 3f 6c 38 3b be 52 ae 05 3f
       1.641366 0.5743789 -0.18283242 0.52219117
000190 ae a3 9c bf 6b 40 35 bf c4 32 cd be 22 77 6e bf
       -1.2237451 -0.7080142 -0.40077794 -0.9315053
0001a0 26 1c a6 3f 1e 87 9f 3f cf f9 b5 bf bf d2 9c 3f
       1.297734 1.246311 -1.421686 1.2251815
0001b0 c2 60 9a 3f cb 4f 16 40 46 e0 3f 3e 40 4e 36 3f
       1.2060778 2.3486202 0.18737897 0.7121315
0001c0 ae 35 28 3e ee c2 14 c0 3b 33 b2 bd 7d db 63 bf
       0.16426727 -2.3243976 -0.08701178 -0.8900679
0001d0 27 a8 9a bf 54 ff ee bf ca e9 09 bf 08 6d 6b 3e
       -1.2082566 -1.867167 -0.5387236 0.22990811
0001e0 91 a9 85 3f dd 50 f5 bf c6 f0 af be b4 93 cb be
       1.0442373 -1.9165303 -0.34363383 -0.39761126
0001f0 0f e9 a3 be db 39 8b 3f 53 bf 86 bf 2d 67 4c 3f
       -0.32013747 1.0877031 -1.0527138 0.79844934
000200 3b b8 79 3a d9 9c c6 be 95 25 18 bf d8 db c1 3f
       0.00095260487 -0.3879154 -0.59432346 1.5145216
000210 bc 7d c7 be 95 f5 ab 3f 8f c1 c7 3d 34 f5 14 bf
       -0.38963115 1.3434321 0.09753715 -0.5818665
000220 fe 72 46 3f bd 3c 92 3f 11 fa 7d 3f 9d 78 d1 3f
       0.77519214 1.1424786 0.99209696 1.6364933
000230 30 bd 81 be 48 79 cf bf cb 6d d6 3e 6e 8b 91 bf
       -0.2533965 -1.6208887 0.4188064 -1.1370676
000240 50 30 30 bf 9f a6 0f bf f8 01 c3 3f 6a 00 10 be
       -0.6882372 -0.5611362 1.5234976 -0.14062658
000250 b0 33 8b 3e 38 00 4f bf 36 2e 6c bf 5d 93 04 c0
       0.27187872 -0.8085971 -0.9225801 -2.0714943
000260 8c e4 72 3f d0 76 0b 40 39 f7 ff 3e 9c b3 02 3f
       0.94879985 2.1791267 0.49993303 0.5105531
000270 e3 48 8c bb 47 be 14 3f 7d 05 28 3f 1a c7 b3 3d
       -0.0042811497 0.5810284 0.65633374 0.0877821
000280 98 6a 94 3f 17 53 a7 3e 4f 97 e9 be a7 c2 7f bf
       1.159503 0.3268058 -0.45623252 -0.9990639
000290 44 4d dd be 4d 9c 86 bf 67 b7 02 3d b2 77 68 bf
       -0.43223011 -1.0516449 0.031913187 -0.9080764
0002a0 8e b8 08 40 dd 6e e0 bf ff 62 18 3d 5e e8 3b 3f
       2.1362643 -1.7533833 0.037203785 0.7340144
0002b0 dd 88 6f bd 61 aa 0d bf 57 3c 73 3e 51 01 e6 3e
       -0.058480132 -0.553381 0.23753487 0.4492288
0002c0 1c 79 9b bf d0 37 fa 3e 72 0c f0 3e 33 11 02 c0
       -1.2146335 0.48870707 0.46884495 -2.0322998
0002d0 b1 42 0e c0 5e 81 56 c0 8c 78 38 3f b1 57 6f bf
       -2.2228205 -3.351646 0.7205894 -0.9349318
0002e0 42 02 e1 3e 16 06 df 3e 63 d6 b8 3e 3f ca 13 40
       0.43947035 0.4355933 0.36101064 2.3092191
0002f0 0f 30 d5 3e fe f7 40 3e 92 5c dd 3e b7 c6 d1 3f
       0.41638228 0.18844602 0.43234688 1.6388768
000300 dc f6 d6 bf 87 a1 5b bf d6 c3 1d 40 4d 4b 41 be
       -1.6794086 -0.85793346 2.4650779 -0.18876381
000310 ea 99 56 3f ab ef 8e 3f 50 b8 d8 bd 00 f0 e2 bf
       0.83828604 1.1166891 -0.1058203 -1.7729492
000320 52 d6 4a bd 50 7a d0 3e 4c e1 a3 bf 44 d9 96 be
       -0.049520798 0.40718317 -1.280313 -0.29462636
000330 9e 52 d8 3f e0 94 ef be 51 1c a6 3d 43 00 a1 3e
       1.6900213 -0.4679327 0.0811087 0.31445512
000340 52 69 c8 bd 3f 8e ab 3f 01 45 b4 bf ee c2 3a bf
       -0.09785713 1.3402785 -1.4083558 -0.7295369
000350 fe 65 23 bf f9 15 36 40 4b 3f f1 3f 1e 39 c2 3f
       -0.638275 2.845091 1.884744 1.5173681
000360 75 ca dd 3f 98 be 16 c0 24 7e 4e 3e e2 ec 10 c0
       1.732741 -2.355383 0.20165306 -2.2644582
000370 84 ec 9d 3f 1a 96 4f c0 e7 b2 b5 3f a2 83 79 bf
       1.2337804 -3.2435365 1.4195222 -0.9746648
000380 3f c9 2a c0 ba 1f 65 bf 4c bc 90 bf 47 b4 f8 3f
       -2.668533 -0.89501536 -1.1307464 1.9430016
000390 7d ca 8e 3e 34 54 fb bf d2 45 2e be 4c af 1e 3e
       0.2788886 -1.9635072 -0.17018822 0.15496558
0003a0 59 ea e6 bf 58 04 79 3f 90 d2 d5 be c8 db 0d bf
       -1.8040267 0.97272253 -0.4176221 -0.55413485
0003b0 da 34 6e be 8a 87 eb bf da 6b 23 3f 7f c8 da be
       -0.23262349 -1.8400738 0.63836443 -0.4273109
0003c0 51 30 50 c0 32 36 fc bf 91 0c d7 3f 61 45 dd bf
       -3.252949 -1.9704039 1.680071 -1.7286798
0003d0 ed 72 f0 be a9 da 18 40 8a 3c 02 40 27 26 3a 3f
       -0.4696268 2.388346 2.034945 0.72714466
0003e0 b9 f1 82 3f 7c dd 17 be b9 cb 81 3f 69 52 4f bf
       1.0230018 -0.14830583 1.0140296 -0.8098512
0003f0 37 33 a7 bf 84 e1 97 bf 1e c2 64 bf b2 1c b5 3f
       -1.3062505 -1.1865697 -0.893587 1.4149382

net.0.weight f4 [128, 64]
000000 f8 ff 19 bf 38 37 91 3e fa 2e 1b bf 77 91 c7 be
       -0.601562 0.2836244 -0.60618556 -0.38978168
000010 6f 5e c9 be 87 a1 52 3e 00 69 27 bf de 44 71 3f
       -0.3932986 0.2056943 -0.6539459 0.9424571
000020 d7 c9 7b be 61 b5 76 3f 95 08 05 bf 95 98 c9 be
       -0.24588715 0.9637051 -0.5196622 -0.39374223
000030 40 11 19 3f ff bf b6 be 91 44 eb be 24 3a 88 bf
       0.59791946 -0.35693356 -0.4595075 -1.0642743
000040 fc ad b8 bf 4f e4 01 3f 6a ab 03 3f 47 11 93 be
       -1.4428096 0.50738996 0.5143343 -0.2872412
000050 dd 66 93 be a8 22 98 bf 0a 90 af bf d3 55 c2 3e
       -0.28789416 -1.1885576 -1.3715832 0.37956104
000060 d4 76 40 3d 1a 02 13 3e a1 95 8f 3f 0f 77 09 3f
       0.046988323 0.1435627 1.1217538 0.53697294
000070 2d 92 5e bf 98 ec b5 bc 13 fb 0a 3f a1 21 2b bf
       -0.86941797 -0.022207543 0.5428936 -0.6684819
000080 69 77 d5 be 13 e5 89 bf 4b 94 b8 3d 69 6a 33 bf
       -0.41692665 -1.0773033 0.0901266 -0.70084244
000090 50 6b 69 be cc d1 93 be 7e 3c 02 bf 28 ee bb 3e
       -0.22794843 -0.28871 -0.50873554 0.36705136
0000a0 15 df 0c bf 83 73 0d bf 89 a5 1e be a1 d6 e0 3c
       -0.55027896 -0.5525438 -0.15492834 0.027446093
0000b0 98 6d 46 be 2e 91 81 be 31 d5 27 3f c6 e1 90 3c
       -0.19377744 -0.25306076 0.6555968 0.017685782
0000c0 c8 f7 06 3f 05 66 7d be e9 93 f2 3d ae 55 36 bf
       0.52721834 -0.24745949 0.11844618 -0.71224487
0000d0 bc 9c 3f 3f 61 a8 14 bf 8c d1 76 be 08 a5 38 3c
       0.7484853 -0.58069426 -0.24103373 0.011269815
0000e0 19 84 8e bd fb e0 00 3e 4e c2 2b 3e e6 84 34 3f
       -0.069587894 0.12585823 0.1677334 0.70515287
0000f0 a7 c6 21 bf c0 ae 8c 3e d8 1c 1a 3c 6f 1a 09 3f
       -0.63193744 0.27477074 0.009406291 0.5355596
000100 63 b1 26 be c7 da fa 3e 72 67 4a 3f b2 60 28 bf
       -0.16278605 0.4899504 0.79064095 -0.65772545
000110 ca 1e c7 3e b7 2d 16 3f f6 9d 07 3e dd fa 67 3f
       0.38890678 0.58663505 0.13243851 0.9061716
000120 56 bb de bf 11 b2 04 bf 76 9e 12 bf a1 29 00 be
       -1.740092 -0.5183421 -0.5727304 -0.1251588
000130 c2 f0 f6 be af 50 01 3e 5c 2c 37 bf ea 62 b2 3d
       -0.4823056 0.12628435 -0.7155206 0.087102726
000140 dc c6 f2 3e 8e 51 0a be ff d6 9c be de f2 48 bf
       0.47417343 -0.13507673 -0.3063278 -0.78495586
000150 ac cd 4e be 36 a4 a9 be fe b1 da be e2 0a 4f 3e
       -0.20195645 -0.33133096 -0.42713922 0.20218995
000160 86 3a 85 be 4a 91 a5 bf db ab 03 3f 92 38 29 bf
       -0.26021212 -1.2934964 0.51434106 -0.66101944
000170 83 89 b8 3e b2 50 8a bd fa fc 97 3f 48 7d 21 bf
       0.36042413 -0.06753673 1.1874077 -0.6308179
000180 ef 4b 1b bf f1 95 a8 bf 0b a4 7f 3f ab 2b 9b bd
       -0.6066274 -1.3170758 0.99859685 -0.075766884
000190 dd b9 b9 3e a9 78 b8 be 4c fd 3f bf 33 12 4d 3f
       0.36274615 -0.36029556 -0.74995875 0.80105895
0001a0 30 6a 82 3e 3b dd 67 bf eb f9 69 bf 4f af 54 be
       0.2547164 -0.90571946 -0.9139697 -0.2077
0001b0 6d 21 f8 be 82 bc 90 3d 58 0a 33 be 20 9a 52 bf
       -0.48463002 0.07067205 -0.17484415 -0.82266426
0001c0 01 73 54 be ae 9e 44 bf be ed 90 3e ed 2e 96 3e
       -0.20746996 -0.76804626 0.28306383 0.29332677
0001d0 45 46 a6 be 5b 9e 05 3f fa 5e 6a 3e 96 42 29 bf
       -0.32475486 0.52194756 0.22887793 -0.6611723
0001e0 97 49 8d 3f 3e da 9b be 50 0d 4c 3f 37 2c c5 3e
       1.1038083 -0.30439943 0.79707813 0.38510296
0001f0 49 a6 24 be b5 65 70 be 60 2f 48 bc 9d 41 45 be
       -0.16079058 -0.23476298 -0.012218326 -0.1926331
000200 d0 52 1c bf d5 79 09 bf fe b3 d8 bd 42 72 26 3f
       -0.6106386 -0.53701526 -0.10581206 0.65018094
000210 5e 75 e5 3d 89 76 0d 3f c3 89 1e bf 38 32 24 bf
       0.11204027 0.55258995 -0.6192896 -0.6413913
000220 4f ea b9 3e 68 0a 0f be 38 65 dc 3e aa 8a 84 bf
       0.36311576 -0.13968813 0.43045974 -1.0354817
000230 9e 4a 43 be 6d 48 3d bf 1a d1 d0 be 9a 62 bc be
       -0.19071433 -0.7393864 -0.40784532 -0.36793977
000240 f9 2d 7e bf d4 45 55 3f 30 a5 52 3f 1d 30 5d be
       -0.992889 0.83309674 0.82283306 -0.21600385
000250 d2 cf 54 3f a3 f2 75 bf 60 1b 7d bf ea 65 1d 3e
       0.8312961 -0.9607336 -0.98869896 0.15370908
000260 7e b9 c8 3c 91 05 3b 3f 66 d3 33 3f b8 aa 6b 3f
       0.024502512 0.7305537 0.70244443 0.9205737
000270 b8 35 d2 3e ed 32 e6 be a6 84 5e bd 6e 9a 54 bf
       0.4105661 -0.44960728 -0.054325722 -0.8304814
000280 18 f7 86 be 85 e6 7b 3f 58 b5 ea bd 9d c6 4e 3f
       -0.26360393 0.9839862 -0.1146037 0.8077181
000290 c0 a3 09 3e ff 42 5f bf 94 81 bd bf 48 35 e7 be
       0.13441372 -0.872116 -1.4805169 -0.45157838
0002a0 67 93 32 bf d7 83 9a bf 22 84 56 bf 3b ce 7c 3e
       -0.6975617 -1.2071484 -0.8379537 0.24688046
0002b0 9e 51 3e bf b0 8e 57 bf ce 0b 24 bf 4f 4e 0a be
       -0.7434329 -0.842021 -0.6408051 -0.13506435
0002c0 2f 50 b8 3e f2 15 8c 3e 07 9a 60 3f 78 95 b8 be
       0.35998675 0.27360493 0.8773503 -0.36051536
0002d0 62 9c ae 3e 0e 0a 8a 3e 8c 9b 8a 3e a5 e9 2c 3f
       0.34103686 0.26960796 0.27071798 0.67544013
0002e0 3d 72 6b bf 42 f3 8a 3f e1 bd 4b bc 19 8f 93 3e
       -0.9197119 1.0855486 -0.012435407 0.28820112
0002f0 b6 ee 8a be e5 2b a1 3e 23 11 ef bd 0d 32 fb 3e
       -0.27135247 0.314788 -0.116731904 0.49061623
000300 dc 04 56 bf 73 55 88 3e 73 64 1e bf fe c6 61 bf
       -0.83601165 0.26627693 -0.61872023 -0.88194263
000310 50 91 46 be bb d7 4d be 29 d9 3a 3e 32 b4 ca be
       -0.1939137 -0.20101826 0.18246903 -0.39590603
000320 fc 4c c7 be 7a 94 01 be fd c5 c8 3e 3b ff f7 3e
       -0.38925922 -0.12654296 0.39213553 0.48436913
000330 4f 5a 94 bf 35 23 d4 3e 11 ec 4f bf 9b b3 8a 3e
       -1.159006 0.4143311 -0.81219584 0.27090153
000340 a0 7a 1e 3f 32 82 25 bf f2 e0 bf be 21 b9 0d be
       0.6190586 -0.6465179 -0.37476307 -0.13840152
000350 b7 30 de 3e a0 68 69 bf 5f c6 65 3c 69 88 a4 be
       0.4339654 -0.9117527 0.014024346 -0.32135323
000360 f4 87 bf 3d 6f 27 e4 bd fb f6 f2 3e b2 5b 83 3e
       0.09352103 -0.11140334 0.47454056 0.25655895
000370 4f dc f0 be a1 72 8f 3d 2c a2 eb 3e 3c ab 9a 3e
       -0.47043082 0.070042856 0.46022165 0.30208766
000380 bc e0 20 3e 43 05 5d bf a0 3a d2 3e 77 0c 73 be
       0.1571073 -0.86336154 0.41060352 -0.23735224
000390 96 aa 55 3f 04 5e f2 be 69 5a 97 3e 06 30 b0 be
       0.8346342 -0.47337353 0.29561165 -0.3441164
0003a0 b2 88 f5 3c 1e 8c 59 bf 8a 4e c4 3e 8f 3c bd be
       0.029972408 -0.84979427 0.3834117 -0.36960265
0003b0 9c 89 26 bf 16 ce 54 be da 23 05 be c7 fd c8 be
       -0.65053725 -0.2078174 -0.13001958 -0.39256117
0003c0 52 af bd bd 83 81 75 bf b8 a8 40 bd a0 44 77 bd
       -0.09261955 -0.95900744 -0.047035903 -0.06036818
0003d0 c0 11 b4 3d 22 e1 e2 3d c4 ff 3e 3f 1e d5 af be
       0.08792448 0.11078097 0.7460902 -0.34342283
0003e0 9d 5a 25 bf e8 21 f9 be d3 73 9a be b3 e2 9d be
       -0.6459139 -0.4865868 -0.30166492 -0.3083702
0003f0 25 51 5b 3f bf 09 55 be c3 ae 8f bd 74 e6 6d be
       0.8567069 -0.20804499 -0.07015755 -0.23232442

net.0.bias f4 [128]
000000 ed ba 10 be 19 71 85 bf d8 a2 e2 bf db fc c7 3f
       -0.14133807 -1.042514 -1.7705946 1.562404
000010 7f b7 c9 bf 66 b0 69 bf 0c b4 80 bf 9d 43 95 3f
       -1.5759124 -0.9128479 -1.0054946 1.1661259
000020 da fb 8c bf 16 cb d0 3f 01 2e 01 bf 33 a9 6b be
       -1.1014359 1.6311977 -0.5046082 -0.23013763
000030 aa 82 80 be cf 5d 4b bf fe 46 d8 be c9 ea 8e 3f
       -0.2509969 -0.79440016 -0.42241663 1.1165401
000040 47 be 36 c0 80 be a5 3e 53 4b 84 3e e6 0e 96 3f
       -2.8553636 0.32371902 0.25838718 1.1723297
000050 29 03 85 be d5 45 8d bf 81 07 55 bf e0 2b a7 bf
       -0.25978974 -1.1036936 -0.83214575 -1.3060265
000060 2c 06 1f 3f e8 90 8e bf b5 dd 4e bf 8b 92 ec 3e
       0.6211879 -1.1137972 -0.8080705 0.46205553
000070 35 06 c9 3f ee bb 12 be bf 79 48 bf 8c 5f b6 be
       1.5705019 -0.14329502 -0.7831077 -0.3561977
000080 c5 89 95 3f 3a de 38 3f 3a 08 53 40 56 58 bb bf
       1.1682669 0.7221409 3.297377 -1.4636333
000090 05 00 5a bf a2 c8 1d be f5 9f 99 3e a6 f4 45 3f
       -0.8515628 -0.15408567 0.3000485 0.7732643
0000a0 92 5c 6b 3f 9b a2 6f 3e 8c 1e e8 3e 1b 7a 9e 3f
       0.91938126 0.23401873 0.45335805 1.2381014
0000b0 62 b5 e1 bf 16 b5 8d 3e 4d dc 60 3f 1e 9b 6f bf
       -1.7633479 0.2767722 0.8783615 -0.93596065
0000c0 e8 41 62 3f e6 b0 c7 bf d2 ff c2 3f b7 f7 5e bf
       0.88381815 -1.560086 1.523432 -0.8709673
0000d0 84 9a b3 bf 91 1e 13 bf 97 bf ae bd c8 f9 34 3f
       -1.403153 -0.57468516 -0.085326366 0.70693636
0000e0 85 10 04 c0 64 4b 83 3f 11 80 89 3f 9b 7d 43 3f
       -2.0635083 1.0257382 1.0742208 0.76363534
0000f0 fe 27 94 3f c9 df 57 3f 90 36 15 3f b2 51 d0 bf
       1.1574705 0.84325844 0.5828638 -1.6274931
000100 bf 8b 09 40 fa 44 19 c0 02 0f 39 be 8c d8 66 3f
       2.1491544 -2.394835 -0.18072131 0.90174174
000110 50 b3 18 bf 67 a9 9c 3e 93 e1 17 bf e8 5f 2c bf
       -0.5964861 0.30597994 -0.59328574 -0.6733384
000120 99 4c 4f bf 84 9a ae bf 68 2e f6 3f d4 7c 94 bf
       -0.80976254 -1.3640904 1.9232912 -1.1600595
000130 e5 58 52 40 fd c2 42 bf b0 72 7c bf 01 bb 03 bf
       3.2866757 -0.7607878 -0.986125 -0.5145722
000140 24 a4 77 bf 74 b1 2e 3f 14 dd f2 be 4c 82 9d 3f
       -0.96734834 0.6823952 -0.47434294 1.2305388
000150 d8 9f 63 be a8 f1 94 bc 52 28 ca be d1 29 8a bd
       -0.22228944 -0.018181637 -0.39483887 -0.06746257
000160 b9 ff 73 be 5a 01 11 bf 34 10 d2 3f 76 25 e3 3d
       -0.23828019 -0.5664269 1.6411195 0.110911295
000170 80 2a 42 bf f2 4f 1a 3d 24 a2 58 bf 0d 09 50 bf
       -0.758461 0.037673898 -0.84622407 -0.8126381
000180 e0 8c 0b 3f 25 b6 6f 3f 0d 78 12 40 c9 e8 81 bf
       0.54511833 0.93637305 2.2885773 -1.0149165
000190 43 c7 32 bf f3 12 9c 3e 7d 8d b6 be 99 9d 24 3f
       -0.698353 0.30483207 -0.35654822 0.64302975
0001a0 a5 d2 1e 3e df 92 91 be 60 07 a8 bf 5c 5d 03 c0
       0.15510042 -0.28432366 -1.3127251 -2.0525732
0001b0 40 75 02 bd a0 cc 8a 3e 16 b6 f9 3f f9 1a 37 3f
       -0.0318501 0.2710924 1.9508693 0.7152553
0001c0 84 44 44 3f cb 18 b0 bf c2 10 5a 3f 68 4c a4 3f
       0.76667047 -1.3757566 0.8518182 1.2835817
0001d0 34 5a a9 bf 4d 49 1a 3e ea 05 0d be 02 5a da 3f
       -1.3230653 0.15067025 -0.13771787 1.7058718
0001e0 bc d8 8f bf f2 a9 55 bf 9b 38 5b 3e ee c0 d0 bf
       -1.1238017 -0.8346244 0.21408312 -1.6308877
0001f0 ef 7f 7a bf d1 63 8f bf 90 18 ee bf f4 19 89 3f
       -0.9785146 -1.1202337 -1.8601246 1.0711045

net.2.weight f4 [128, 128]
000000 d4 a6 7a be 8e 1d 6f be bd 69 33 bf ea c7 02 bf
       -0.24477702 -0.23351118 -0.7008322 -0.51086295
000010 4a e5 9c 3e 0b 43 d3 3d 26 6e 27 3e a9 a5 8a be
       0.30643684 0.10315522 0.16350612 -0.27079514
000020 4d 6b d3 bd 77 c3 86 3e 03 e8 15 be b7 7a 13 be
       -0.103232004 0.26321003 -0.14639287 -0.14402281
000030 fa ad 4d be ff 42 a5 be 96 13 48 bd 74 07 bd be
       -0.20085898 -0.32277676 -0.048846804 -0.3691975
000040 b0 57 a7 ba 8c d6 b6 bd 47 52 27 be b8 8f 52 bf
       -0.0012767222 -0.0892764 -0.1633998 -0.8225055
000050 8c 94 97 3d 49 28 4d be 2c 4d 76 bf 32 df 90 be
       0.0740138 -0.20034899 -0.96211505 -0.28295285
000060 8b d4 78 3e eb aa b8 3e a8 c3 59 be 1f fa dc 3d
       0.24299829 0.360679 -0.21266043 0.10789894
000070 0e f7 2d bf 42 f5 e6 be dd 77 9a 3e 95 6d 3f 3b
       -0.679551 -0.45108992 0.30169573 0.0029209603
000080 db b6 79 3e bd 79 9a be c5 60 3f bd e3 44 b5 be
       0.2438616 -0.30171004 -0.046723146 -0.3540412
000090 9d 4c 82 be 7f b7 d3 be 50 20 db bd 00 39 fc be
       -0.25449076 -0.41350934 -0.106995225 -0.49262238
0000a0 23 ef 79 3d 95 07 8c 3e fe be 97 3e ad d6 bf be
       0.061019074 0.27349535 0.29637903 -0.37468472
0000b0 df 55 81 3d 78 d6 ce be a3 04 92 3e 8c 67 99 be
       0.06315207 -0.40398002 0.28519163 -0.29961812
0000c0 83 d8 69 bf fc b1 41 bd c7 f3 31 bf 01 63 f8 3c
       -0.91345996 -0.04728888 -0.695126 0.030320646
0000d0 8f e5 85 be bc 1b 9c bd 61 af 76 be 51 1b 94 be
       -0.26151702 -0.076224774 -0.24090339 -0.2892709
0000e0 a3 b5 47 be 35 74 8d be 76 24 9d be 73 58 c2 3e
       -0.19502883 -0.2762772 -0.3069188 0.37958106
0000f0 1c a3 f6 be 14 c5 85 be b4 99 85 3e 93 ac dc be
       -0.48171318 -0.2612692 0.2609383 -0.43100414
000100 5f 81 64 bd 4c 23 9d bd a4 2c 5f bf 39 a8 b3 b9
       -0.05578744 -0.07672748 -0.8717749 -0.00034266876
000110 18 66 0b be 98 e2 d6 be 62 ea ba be 72 b5 ce bc
       -0.13613164 -0.41969752 -0.36506945 -0.025233004
000120 d9 20 84 bf b0 7d da be 5c 67 a1 be d2 3f 9f bd
       -1.0322524 -0.42674017 -0.3152417 -0.07775845
000130 df 78 ad be 9a 53 2f 3e ad 3a f8 bd c1 6b c9 bc
       -0.3388128 0.17121735 -0.121205665 -0.024587514
000140 2a 80 ba 3e 18 f1 c8 be 9a 90 fd bd 34 83 be be
       0.36425906 -0.3924644 -0.12381096 -0.37209475
000150 b0 ce b6 be 90 03 54 3d 22 05 ca bd 18 ef ec be
       -0.35704565 0.05176121 -0.0986426 -0.46276164
000160 d8 ff 0d bd e7 98 e9 3e 9a 69 3b bf ea 7c 37 be
       -0.03466782 0.45624468 -0.7320801 -0.17918745
000170 96 45 24 bf 46 67 2f bf 70 01 78 be e4 5a 9d 3d
       -0.6416868 -0.6851696 -0.24219298 0.07683352
000180 db 52 4b 3e 9c 01 0a 3f 85 cf 1d bf bf fb 87 be
       0.19855826 0.53908706 -0.61644775 -0.26559255
000190 68 cb 5d bf 52 85 83 be e4 59 b2 be ab 04 db 3d
       -0.866385 -0.25687653 -0.34834206 0.1069425
0001a0 7c f5 c6 3e ea b7 bd 3e 1d af 90 3d 44 1a 16 3f
       0.38859165 0.37054378 0.0706465 0.5863383
0001b0 4b f8 6e bf 21 48 10 bf 47 9c 44 bf 49 c4 ae 3d
       -0.93347615 -0.5636006 -0.7680096 0.08533532
0001c0 7e 03 b6 be 8a 1b 90 3e 24 00 f1 be 7b 3f 02 bf
       -0.3554954 0.2814601 -0.4707042 -0.50878114
0001d0 76 e1 3a bd e9 f3 d6 bd dc ac 47 be a7 35 21 bf
       -0.045625173 -0.10495741 -0.19499534 -0.6297249
0001e0 59 cc 40 bf fa c9 be 3e a9 d6 72 3e ee 27 ee be
       -0.7531181 0.3726347 0.23714699 -0.4651484
0001f0 39 38 e5 3c 81 4d 52 bd 68 a0 ac be 0c 1a 9f be
       0.02798091 -0.051343445 -0.3371613 -0.3107456
000200 6f f4 3d 3e dc f8 1a 3f 11 da ea 3e 28 3d 45 3e
       0.18550275 0.6053598 0.45869496 0.1926161
000210 77 c3 8f 3f 6f 40 4d bf 08 7c 0b 3f 31 ac 67 3f
       1.1231526 -0.8017644 0.5448613 0.9049712
000220 48 be 64 3e 36 91 99 bf a3 56 c0 bf 6d 6f 14 bf
       0.22338212 -1.199744 -1.502644 -0.5798252
000230 ef e0 6e 3f a7 0a db 3e 53 1a 0b 3f 7b 1d 32 3e
       0.9331197 0.42781565 0.5433704 0.17394058
000240 ab 89 01 bf 01 38 c0 bf f7 43 96 be 78 52 05 ba
       -0.5060069 -1.5017091 -0.29348728 -0.0005085836
000250 60 70 06 3f 82 ca f6 be e6 0e 15 3f 69 93 a3 be
       0.5251522 -0.48201376 0.5822586 -0.31948403
000260 36 92 01 c0 a8 26 89 3e 3b 38 59 bf 10 4c ab 3e
       -2.024549 0.26787305 -0.84851426 0.3345647
000270 41 1e 2e bd 9f 6d b6 bf 4c 1b 94 bf cd 11 b9 3c
       -0.04250932 -1.4252204 -1.157083 0.022591496
000280 89 6e 7d 3f e0 17 44 3f 60 16 8a 3f d8 83 9c 3f
       0.9899679 0.7659893 1.0788078 1.2227736
000290 0c fc 74 bf ba cd c7 3e e3 72 86 3f a2 7d d3 be
       -0.95697093 0.39024144 1.0503811 -0.41306788
0002a0 20 fc 92 be 67 a5 1e bf ad b7 83 be 32 4a e6 bd
       -0.2870798 -0.61971134 -0.2572607 -0.112446204
0002b0 84 35 20 3d 87 5c db bf 81 17 c9 bf d0 76 8a 3f
       0.039113536 -1.7137612 -1.5710298 1.0817509
0002c0 4c 20 ba be 04 d7 d3 3e c6 00 7c 3f 14 07 1e c0
       -0.36352766 0.4137498 0.9843868 -2.469182
0002d0 37 b7 41 bf 11 42 20 c0 6a 66 2f 3f e2 1a 8e bf
       -0.7567019 -2.5040324 0.68515646 -1.1101954
0002e0 47 07 0a 3f 03 ef 22 bf 15 c7 ec bd fe c3 a0 3d
       0.53917354 -0.6364595 -0.115614094 0.078498825
0002f0 90 22 8b ba fd 81 fd 3c 4e 3a b5 3f 61 a5 26 bf
       -0.0010615159 0.030945772 1.4158418 -0.650961
000300 a5 90 81 3d f2 e8 5d 3f 68 c9 4b 3f 6e b8 4b 3f
       0.06326417 0.8668357 0.79604197 0.7957829
000310 d5 a5 40 3f a4 9e 9f 3e bf ec 8b bd 84 57 85 3e
       0.7525304 0.3117572 -0.06832265 0.26043332
000320 ac b1 ef bf 6b f5 64 3f 2c 35 aa bf 2b 2d 0f 3d
       -1.8726096 0.8943698 -1.3297477 0.034955185
000330 d1 10 16 3f 23 1c bf be 73 db 13 bf a8 ba 0e 3f
       0.5861941 -0.37326154 -0.5775673 0.55753565
000340 05 4a 14 be ac 28 c9 3e 6c aa 21 c0 4d 2b 46 3e
       -0.14481361 0.39288843 -2.5260267 0.19352455
000350 dc 18 0a 3d 40 ba 7c 3f d7 c6 03 c0 b8 0f 00 3c
       0.033715114 0.98721695 -2.0590112 0.007816248
000360 1c 5c a6 bf a4 2a 39 3f c2 28 6e bf 6a 7d 83 bf
       -1.299686 0.7233069 -0.9303094 -1.0272648
000370 51 38 a3 bf b5 90 08 bf d0 81 03 3f ff 66 e4 3e
       -1.2751561 -0.53345805 0.51369953 0.4460983
000380 f3 ec c3 3f 94 43 fa bf fe 92 50 3f 93 83 2b bf
       1.5306686 -1.9551873 0.8147429 -0.6699764
000390 35 f0 63 bf b1 79 26 3f 98 3d 64 be da 37 35 3e
       -0.890384 0.65029436 -0.22289121 0.17697087
0003a0 e9 a7 06 3f 3f f7 2d c0 22 81 c5 be 3e 36 37 3f
       0.5259996 -2.7182157 -0.38575083 0.7156714
0003b0 e5 c1 dd bf 65 8c b7 bd 9e 04 9f bf cd 27 50 3d
       -1.7324797 -0.08962325 -1.2423284 0.050819207
0003c0 a6 d8 c0 bf dd 3f 0f 3f 78 44 7f 3f 43 45 ee 3e
       -1.5066116 0.5595682 0.9971385 0.46537217
0003d0 fa 23 61 3f 1c 46 a4 3d cc fe 93 3f 1c 53 56 3e
       0.8794552 0.08021185 1.1562133 0.20930141
0003e0 65 59 e0 bf 89 ee e0 bd 51 fa 9f be d8 29 4b 3f
       -1.7527281 -0.10982997 -0.31245664 0.79360723
0003f0 eb 22 8c 3f b6 99 00 c0 1a 67 71 3f 86 e4 b7 bf
       1.0948156 -2.0093818 0.94297945 -1.4366615

net.2.bias f4 [128]
000000 44 63 92 3f b2 42 12 40 66 ca 5d 3f 97 50 e9 bd
       1.1436543 2.2853208 0.8663696 -0.113923244
000010 b0 51 f3 be 7e 40 d5 3f ae 0b d9 bd a7 fc 33 be
       -0.4752326 1.6660306 -0.10597931 -0.17576848
000020 2b 4b cf be cf 42 5f be 68 3f 3d 3e 36 85 d2 3f
       -0.40487036 -0.21802829 0.18481219 1.6446903
000030 50 09 89 bc 29 92 d8 be 04 38 5f be d4 78 04 40
       -0.016728073 -0.4229901 -0.21798712 2.0698748
000040 54 51 e2 3f d4 67 74 3f 1f 2d 85 3f 9e 3e a4 be
       1.7681069 0.9547093 1.0404395 -0.32079023
000050 4d 73 cb 3f 59 8f a9 be 9d 8b 75 3f 79 7e 4b 3f
       1.5894562 -0.33117178 0.9591616 0.79489857
000060 44 05 c2 3f b7 3b 9b be 62 61 d6 be e7 61 cb 3f
       1.5157857 -0.30318996 -0.41871172 1.5889252
000070 7f b0 e1 3f 4e 56 4c 3f 59 f5 a3 3c 2e 44 00 bd
       1.7631987 0.7981919 0.020014452 -0.03131502
000080 ca 88 e7 3e 8e bf 25 3f 42 6d b0 3f 58 f9 ff be
       0.4522155 0.64745414 1.3783343 -0.49994922
000090 92 58 0b 40 ef 90 32 bf 1f f7 92 3f a4 e6 27 bf
       2.177281 -0.697524 1.1481665 -0.65586305
0000a0 54 2d 07 3f e3 b6 8a be 4f 9a 42 be f2 f5 0c 40
       0.5280354 -0.27092656 -0.19004177 2.2025113
0000b0 80 b7 65 3e f7 a6 e6 3f c5 ae 83 3e a9 b5 bc bf
       0.22433281 1.8019704 0.25719276 -1.4742938
0000c0 25 8d 00 be 1a 8d 40 3e 2e 17 1b bf 7a ea 04 bf
       -0.12553842 0.18803826 -0.60582244 -0.5192028
0000d0 fd ef 27 3f e6 0d 00 40 44 14 28 be 2f 44 0a 40
       0.6560057 2.0008483 -0.1641398 2.1604116
0000e0 cd 4a 39 bd e2 70 85 3d d3 21 07 3f d4 62 d3 3f
       -0.04523735 0.06515671 0.52785987 1.6514535
0000f0 6e 09 1b bd e2 be 8b 3f c7 53 bd bf 87 6d 14 be
       -0.03785079 1.0917628 -1.4791192 -0.14494906
000100 34 53 0f 40 5e e3 df 3f b6 8f e6 bd 53 1c fa 3f
       2.2394533 1.7491262 -0.112578794 1.9539894
000110 29 d1 58 3f 5a 37 a6 bd 4f 24 f2 3f c0 6d f9 bb
       0.84694153 -0.08116026 1.891733 -0.00761196
000120 d8 11 2d 3e d1 ab e7 3e 29 d3 57 bf 96 7c 12 3f
       0.16901338 0.45248273 -0.8430658 0.57221353
000130 36 cb 0d 40 bd a5 0a bd b1 7d dd be 03 b5 eb be
       2.215528 -0.033849467 -0.43259957 -0.46036538
000140 cb 70 97 3f 6c e6 75 3f fe e6 83 be 20 24 af 3f
       1.1831297 0.9605472 -0.2576217 1.36829
000150 a2 d5 3a bf 8c 7d c6 3b 3e 8e 32 40 8c e2 34 bf
       -0.7298223 0.006057447 2.7899318 -0.70658183
000160 97 ec 4a be ce 74 05 bf 66 00 5f bf 08 b8 01 bf
       -0.19816814 -0.52131355 -0.8710998 -0.50671434
000170 2c 36 9c be 23 59 97 3f 3e 74 5b bf 04 01 4c 3f
       -0.3051008 1.1824077 -0.85724247 0.7968905
000180 c1 b9 ed bb 20 89 96 3e ef dc 25 3e 1a 6a 80 3f
       -0.0072548096 0.29401493 0.1619756 1.003238
000190 c4 a6 21 3f 2b 40 b6 3e 09 26 b3 3e 6b d6 3c 3f
       0.6314509 0.3559583 0.34989956 0.73764676
0001a0 7e 1c c5 bb 4f bd f2 3e 56 32 3c 3e 5c a5 f8 be
       -0.0060153594 0.47410056 0.18378577 -0.4856366
0001b0 09 98 03 bf 60 c6 bd bc e4 d2 c9 3e e2 40 a1 3f
       -0.5140386 -0.023165882 0.3941871 1.2597926
0001c0 d1 3a 51 3f 06 a6 17 bd ff d8 b8 3f 75 49 fb be
       0.8173037 -0.037023567 1.4441222 -0.4907948
0001d0 d8 be bf be ad 7f 75 3f be 39 ea be 4e 86 5f 3f
       -0.3745029 0.9589794 -0.4574718 0.8731431
0001e0 57 fd 08 40 56 b2 83 3f a6 4b 60 40 ff 1a 14 40
       2.1404626 1.0288799 3.5046172 2.3141477
0001f0 86 e7 10 3f 53 9a 4b 3f 1f f2 99 be 85 c9 89 bf
       0.56603277 0.79532355 -0.30067536 -1.0764624

net.4.weight f4 [6, 128]
000000 e7 26 e5 3e 01 7a dd 3f e7 76 61 3f 4e de 35 be
       0.44756243 1.7302858 0.88072056 -0.17760584
000010 f9 51 c4 3f 37 b4 b4 3f 47 62 04 3c 0a cd 4f bd
       1.5337516 1.4117497 0.008080072 -0.05073265
000020 22 b9 86 be f7 06 99 be a4 c7 71 3f c3 c9 ae 3f
       -0.2631312 -0.29888126 0.9444525 1.3655323
000030 12 05 12 3a 63 dc ed 3f 16 ea ac 3f 37 41 fa 3f
       0.00055702135 1.8582882 1.3508937 1.9551152
000040 8f f5 6e 3f 5b 7f cf 3f be 9a 7a 3e 8c de d2 bd
       0.9334344 1.6210741 0.24473092 -0.10296354
000050 4c 4a c4 3f 66 d4 75 bb ac a1 21 3f 54 b7 a9 3f
       1.5335174 -0.0037510633 0.63137317 1.3259072
000060 76 e5 be 3e a9 8f 4b bf 1e a8 28 3f db cc 28 3f
       0.3728444 -0.79516083 0.65881526 0.65937585
000070 29 d4 c3 3e b3 1f 6d 3f 4f ba dd 3e 01 4d 02 bd
       0.38247803 0.92626494 0.43306205 -0.031811718
000080 13 1c 10 3f 80 60 d0 3f 0f 22 70 3f 26 07 ec be
       0.5629284 1.627945 0.9380197 -0.46099204
000090 06 c2 49 3f 52 51 6e 3f 0c b6 f0 3e 62 de 1c bf
       0.7881168 0.93092835 0.4701389 -0.6127683
0000a0 54 85 01 40 d2 08 05 3e 89 6b c9 be b2 d1 01 3f
       2.0237627 0.12991646 -0.39339855 0.50710595
0000b0 f9 3e de 3f da 65 96 3d 8f a9 36 3f 6b da 11 3f
       1.7362968 0.073436454 0.71352476 0.56973904
0000c0 80 ca ef bc 77 17 d6 3f 8c 74 38 bf f0 22 22 3f
       -0.029271364 1.6725911 -0.72052836 0.6333456
0000d0 2c e0 c6 3f 1d 57 2f 3f 52 ec 55 3d 2e c9 a1 3f
       1.5537162 0.684923 0.052227326 1.263952
0000e0 fe 30 f4 3c 52 c9 1d 3d 59 06 c7 3f ad 07 0a 40
       0.029808518 0.038522072 1.5548812 2.1567185
0000f0 67 ce 83 bf 83 63 47 3f 61 09 7b be 0c 60 33 3d
       -1.0297364 0.7788622 -0.24515297 0.04379277
000100 a9 51 94 3f 3f 98 13 3f 2a 21 89 3e 2e f5 28 3f
       1.1587421 0.57654184 0.26783115 0.65999115
000110 de 70 fa 3e 8c 3a 0b bd d7 bc 0e 3f 37 8d c4 3c
       0.48914236 -0.03399138 0.55756897 0.023993118
000120 a2 48 6f 3f 79 d6 6e 3f cf fd 59 3f 22 d8 62 3f
       0.93470204 0.9329601 0.85152906 0.8861104
000130 7b cc 24 3f 97 fd ce 3f 8d 88 34 bf 33 05 3e bf
       0.6437451 1.617114 -0.7052086 -0.74226683
000140 1a 17 04 3f 2a b4 40 3e ae 7a 55 be 16 44 46 3e
       0.5159775 0.18818727 -0.2084758 0.1936191
000150 c8 49 50 bf fd 15 99 3e 3a 17 5e 3f ae 5c b0 bf
       -0.8136258 0.29899588 0.8675419 -1.3778284
000160 3d b2 b3 be 13 bb ce bf 4e 56 20 bf 2e 3a 1e 3f
       -0.35096923 -1.615084 -0.6263169 0.61807525
000170 d9 52 dc 3f 00 2c 1e 3f d6 09 85 3f 17 ee f1 be
       1.7212783 0.6178589 1.0393627 -0.4725196
000180 a1 8a 34 bc c2 ea 3f 3f 46 44 81 bd a1 5d b6 3f
       -0.01101938 0.74967587 -0.0631185 1.4247323
000190 a0 e0 cb 3f fb 98 c5 3f e7 6d 5b 3f ee 1d d6 3f
       1.5927925 1.5437311 0.8571457 1.6727884
0001a0 c9 e4 f7 3f df b7 b5 3f dc cb a0 3f 85 de 5a be
       1.9366695 1.4196738 1.2562213 -0.21373947
0001b0 5d 7f 4c 3d eb f3 de 3e 65 13 ac 3f 02 d3 dc 3e
       0.04992615 0.4354547 1.3443419 0.43129736
0001c0 95 96 db 3f 10 a2 ae bd c9 33 e8 3e 94 6e 60 bf
       1.7155329 -0.08527005 0.4535201 -0.8766873
0001d0 f7 7b 04 3f 56 22 08 3f 19 54 95 3f 68 05 78 3e
       0.51751655 0.5317739 1.166629 0.24220812
0001e0 be 94 58 3f d9 e0 6c 3e b9 d7 5f 3f c3 95 8b 3f
       0.8460196 0.23132648 0.8743854 1.0905079
0001f0 55 8b b1 3e fa 8e c4 3f 12 3b da 3f 89 35 2b bf
       0.34676614 1.5356133 1.7049277 -0.66878563
000200 96 a0 de 3e 9a 5a cf 3f 47 02 28 3f e8 4c 7b 3e
       0.43481892 1.6199524 0.65628475 0.24541056
000210 04 b9 f9 3f 12 fc aa 3f 10 19 c9 bb 05 29 0c 3f
       1.9509587 1.3358176 -0.006137021 0.5475009
000220 31 d2 7a 3e 0f 07 ac 3d 20 46 48 bf c5 6f 6c 3f
       0.24494244 0.08399784 -0.78232 0.92358047
000230 29 32 c4 bc 51 7a de 3f 87 f0 cf 3f a3 9c f9 3f
       -0.0239497 1.7381078 1.6245278 1.9500927
000240 87 6f 7e 3f 36 9e ef 3f 97 82 89 3d 85 5a 25 3e
       0.9938893 1.8720157 0.06714361 0.16147812
000250 c1 8a 03 40 78 2d 4f be 44 03 bf 3e d4 05 6b 3f
       2.0553439 -0.20232189 0.3730718 0.9180577
000260 7a 2b 6c 3e dd fa f4 be 59 87 ed bf 3f 35 9c 3f
       0.2306346 -0.47847643 -1.855693 1.220375
000270 b5 38 92 3e 75 bc f1 3e b3 72 c1 3d 53 ad c9 bc
       0.2855889 0.47214094 0.09445705 -0.02461878
000280 87 87 b2 3e 5b c8 ab 3f 16 bc 33 3f 8c be f0 3c
       0.34869024 1.3420519 0.7020887 0.029387735
000290 14 1a 80 3f d0 4e c5 3f fe a8 ba 3e f0 96 d1 3e
       1.0007958 1.5414677 0.36457056 0.4093547
0002a0 39 44 c5 3f 15 f3 79 3e 8a 0a 5b bf 48 6c c3 3e
       1.5411445 0.24409135 -0.85562956 0.3816855
0002b0 5a 29 2c c0 c0 e6 1c 3e 17 b0 45 3f 8b 88 19 bf
       -2.690024 0.15322399 0.77221817 -0.59973973
0002c0 d1 d6 5e 3d 1a ec 0e 40 d7 a1 8b bf da b5 61 3f
       0.054404084 2.2331605 -1.0908765 0.8816811
0002d0 d6 02 aa bd ff 19 63 3f 62 f4 8d bd 19 6a c0 3f
       -0.08301322 0.8871154 -0.06931378 1.5032378
0002e0 1f 96 84 3c bc 6a 90 3c 3c ed f1 3f 2d 3c f3 3f
       0.016184865 0.01762902 1.8900523 1.9002739
0002f0 39 db 91 bc bd 21 29 3f cf 3a 92 be 73 24 dd 3e
       -0.017804729 0.66067106 -0.28560492 0.4319187
000300 84 6e df 3f cd 2f 2d 3f 1c 23 e7 3e 00 35 02 3f
       1.7455602 0.67651063 0.45143974 0.5086212
000310 6a 96 10 3f 66 72 8e 3d d7 71 1c 3f 07 7b b8 bb
       0.56479514 0.069554135 0.61111206 -0.0056299004
000320 5c 8b ba 3f 4e 90 78 3f 07 98 9d 3e 9e f7 87 3f
       1.4573779 0.9709519 0.3078005 1.0622442
000330 25 91 c6 3e 81 5e 3a 3c 74 ba c8 3e a7 f9 b2 be
       0.3878261 0.011375071 0.39204752 -0.34956095
000340 26 48 d0 3e a0 b7 62 3e 0a 61 9f bf 75 ae 1c 3f
       0.40680045 0.2214036 -1.2451489 0.612037
000350 44 7b 21 bf b8 f7 2e bc da fd 4b 3f 98 aa 02 3e
       -0.63078713 -0.010679178 0.7968422 0.12760389
000360 a1 9e 57 3f 9a ae 8d 3e 4c c9 b2 3d e3 5f ff 3e
       0.84226424 0.27672273 0.087298006 0.49877843
000370 e1 88 f7 bd 4c e0 dd 3d 25 ba 19 bf 08 d9 bb 3f
       -0.120866545 0.10833797 -0.6004966 1.4675608
000380 27 08 b5 bb ba c1 1d 3f 7e e2 e9 3e b8 17 a7 3f
       -0.0055246535 0.6162373 0.45680612 1.3054113
000390 8b de cc 3f 93 6f c6 3f 0f bf 87 3f b4 53 04 40
       1.6005415 1.55028 1.0605181 2.0676088
0003a0 53 81 e9 3f 76 5a 9b 3f 13 f4 12 be e1 92 7b 3e
       1.8242592 1.2136981 -0.1435092 0.24567749
0003b0 b2 71 f8 3a 0a cb fd 3e 95 b2 ed 3f 86 05 a9 3e
       0.0018954782 0.4956897 1.8570124 0.33012027
0003c0 e5 09 fc 3f 71 43 a5 bd a8 40 ce 3e eb fd 2a bf
       1.969052 -0.08069504 0.40283704 -0.667937
0003d0 a4 d0 bf be 83 27 c9 3e 7c 54 54 3f 2e 20 a4 3e
       -0.37463868 0.39287958 0.8294141 0.320558
0003e0 77 60 4a 3f 8c a9 0a 3f c9 69 45 3f a2 9b bc 3f
       0.79053444 0.5416496 0.7711454 1.4734995
0003f0 d6 07 33 3e 54 8e 45 3e 41 3b 30 3f 9f 85 17 3e
       0.17483458 0.19292575 0.68840414 0.14797066

net.4.bias f4 [6]
000000 f4 65 93 3f 07 97 dc 3f 98 79 65 3f ca 39 c1 3f
       1.1515489 1.723359 0.8963866 1.5095761
000010 18 47 18 c0 d3 a3 1d c0
       -2.3793392 -2.463124
