results/dqn/seed_22/dqn.pt (torch, 233309 bytes, 7 tensors)

embed.weight f4 [500, 64]
00000000: 26b6 c83e 353b 963d e396 92bb 882c 5bbd
00000010: dc60 71bd 49a4 193f 75b2 0240 a9e3 a93f
00000020: abcb 5ebf 4719 c7bf 20af 5cbf 7910 04be
00000030: 3c49 bb3f 2f23 8a3e 0ddc adbf 8fbb 41bf
00000040: b008 d2be e97f 963e 427f 5cbd 6568 74bf
00000050: 7e2a a8bf a673 dc3e 2cf6 aabf 2794 953f
00000060: 8156 773f 9cbc e1bf f177 fdbf f443 b8bb
00000070: 0315 4e3f 13f2 4a3f 1d57 26bf d430 103d
00000080: 2e66 90bf 2b3e 503f 3ff7 8b3e 5b3b c4be
00000090: 11e2 903f ee00 febd ac20 21bf d82b 13bf
000000a0: 3359 63bf 2266 3c3f caac 1e3f b61a c83e
000000b0: a64d 863f 8b6a b53e 36e8 ec3c a10a 80bf
000000c0: 0193 2fbf 030d 0640 a541 3d3f 938d 3abd
000000d0: 7e54 e2bf a9b0 3cbe 2e5f aabf 4422 173f
000000e0: fd47 5c3f 66db 4c3f 1d06 8b3f 1743 80bd
000000f0: 15be 813f 2c75 4abf a458 0cbf f9fc 923f
00000100: 7877 2c3f 4bfb 953f 567b 81be 95f2 f13d
00000110: 332b be3f b0cb 0140 a30f 943e e4c0 d6bf
00000120: 74df 1dbe a36f 3cbf 8ae3 57bf d3fa 523f
00000130: 5513 68bf ed59 ab3e 69f8 bd3f a0c9 e6bf
00000140: 0552 b7bf 7e16 dc3d c1b2 a1bf 813f 34bf
00000150: 2098 1e3e 5c5d 953f bb37 9d3f 7bbb 92be
00000160: 7e2e 6fbf 05b1 00c0 9f7c 2fbe 5607 7abe
00000170: 399e ebbe 9fba 05bf 8218 023f b492 b73f
00000180: 97db 0f3d 7974 8e3f f791 84bf 35cf f1be
00000190: 8d55 cebe 6714 bfbe 9992 68bf 6b87 6e3f
000001a0: ec92 31be 8c07 26bf 2ceb 56be 0700 34be
000001b0: c1ff 303f 9209 9d3f 593e 883f d350 953e
000001c0: 57a1 0abf 63c1 d4be 89e8 3140 823b e1bf
000001d0: 14c4 27c0 a744 3a3f 8eb3 e23f 30d9 0cc0
000001e0: be70 1f40 40e6 313e 2353 de3e 2082 f3bf
000001f0: 9dff f53f fef5 d8bf 38b7 59be 99f9 9b3f
00000200: efda 573f 1772 dbbf 18c1 f2be a71a 5f3f
00000210: 567b 17c0 4b80 58bf ebea d73f 3f91 8ebc
00000220: 5c2d c3bf ab91 79bf 9757 943d 6d52 0fc0
00000230: e1c9 23bf 8d50 f53e f549 b6be 852c 473f
00000240: 03bb b639 c273 3740 4801 803f 6ec9 b23f
00000250: fea9 3abf 358d ba3d 1c46 a53c 66b1 093f
00000260: 355c 513f a62a 663f 57e0 dfbe ad6b af3f
00000270: 9773 ffbc b2f1 b6bf d71c debe dd34 263e
00000280: 211f fd3f a5fa 32bf dde8 a7bf 70a7 ccbe
00000290: 6152 df3c 8fcd 87bf acd9 a0be 8b7d 10c0
000002a0: 1a63 3fbe 25fd 0940 58f4 0cbf b499 49bf
000002b0: 46a2 b5be 90b0 ca3f 8e06 e3be 8115 0a3e
000002c0: 9527 9cbf 11e9 f8be 66dd 723d 7db5 a0be
000002d0: 57f3 f53e 6782 693f 59ca 4b3f cbf6 db3f
000002e0: a7b8 95bf 9a15 543e 3635 ffbf 4392 c8bd
000002f0: ae10 63bf da5f 473d b5be 1e3f c575 a0be
00000300: 1139 f03f 23a8 823f f8dd 1fbd fa62 70bf
00000310: bfff 7c3e 862c 0640 469b ad3e f2f6 c33f
00000320: f240 2c3f adcc ca3f 1841 9a3f 8f5a 41bd
00000330: 1651 32c0 80f1 2e3f 378d afbf 485f e03f
00000340: 0df6 2e3f e4e2 84bf 56d6 80be 9c67 833e
00000350: a895 52be e4a2 41bf 9df2 c6bf 9547 5fbf
00000360: fe4b d73d b51f a83f e126 843e 4447 41bf
00000370: 3da2 0d40 1800 07bf ff25 65be 74da 8abf
00000380: a470 51bf 49f2 443f 3c13 853f 39a0 563f
00000390: 8b5e b23f 0435 253e 23ad 76bf 0c61 bd3f
000003a0: 51ae bd3d 7ae4 693e b5f5 b23d 2701 21bc
000003b0: 5628 5a3f 9062 c4bf 489c 91bf 8fd7 52bf
000003c0: 7286 553f c306 17c0 c510 ef3f 1cad 98bd
000003d0: ca1e a7bf 5ad5 053f ded6 ca3f d664 e53e
000003e0: 8114 fdbb eb45 e33c f19b bdbf 74df 43c0
000003f0: 3bc0 aebe 841d 6bbf 2ae7 c3bf 6d03 fa3e
0.39201468 0.073355116 -0.0044735535 -0.053509265 -0.058930263 0.60016304 2.0421422 1.3272601
-0.8702952 -1.5554589 -0.8620472 -0.12896909 1.4631724 0.26979968 -1.3582779 -0.75676817
-0.41022253 0.29394463 -0.0538323 -0.95471793 -1.3137968 0.43056983 -1.3356376 1.1685838
0.9661637 -1.7635684 -1.9802228 -0.005623335 0.8050081 0.79275626 -0.64976674 0.035202816
-1.1281183 0.8134486 0.2733707 -0.38326535 1.131899 -0.12402521 -0.6294048 -0.57488775
-0.8880798 0.7359334 0.61982405 0.3908288 1.0492446 0.35432848 0.02891932 -1.0003244
-0.68583685 2.0945442 0.7392829 -0.045545172 -1.7682035 -0.18426766 -1.3310297 0.5903666
0.86047345 0.80022275 1.0861241 -0.06262796 1.0136133 -0.7908504 -0.54822755 1.1483451
0.67369795 1.1717314 -0.2528941 0.11813847 1.4856933 2.028057 0.2891818 -1.6777616
-0.15417272 -0.73607844 -0.8433157 0.8241398 -0.906545 0.33467045 1.4841434 -1.8030281
-1.4321905 0.107464775 -1.2632676 -0.704094 0.15487719 1.1669116 1.2282633 -0.2865866
-0.93430316 -2.0108044 -0.17137383 -0.24416861 -0.46019152 -0.52237886 0.50818646 1.4341645
0.035121527 1.1129295 -1.0357045 -0.472284 -0.40299645 -0.37320253 -0.9084869 0.9317538
-0.17341202 -0.64855266 -0.20988148 -0.17578135 0.6914025 1.2268546 1.0644027 0.29163226
-0.54152435 -0.41553792 2.7798178 -1.7596285 -2.6213427 0.72761005 1.7711046 -2.200756
2.4912562 0.1737299 0.43422803 -1.9024086 1.9218632 -1.6950071 -0.21261299 1.2185546
0.8431844 -1.7144192 -0.47412944 0.87150043 -2.3669028 -0.8457076 1.6868566 -0.017403243
-1.5248218 -0.97487897 0.07243269 -2.2394059 -0.6397992 0.47913018 -0.356033 0.77802306
0.0003485308 2.8664403 1.0000391 1.3967721 -0.7291564 0.09108964 0.020175032 0.53786314
0.8178132 0.89908826 -0.43725845 1.3704735 -0.031183047 -1.429251 -0.43381378 0.16231103
1.9775125 -0.69913703 -1.3117939 -0.39971495 0.027260961 -1.0609607 -0.3141607 -2.2576625
-0.18690148 2.1560757 -0.5506034 -0.7875016 -0.35475367 1.5835133 -0.44340938 0.13484766
-1.219958 -0.48615316 0.059293173 -0.31388465 0.48037216 0.91214603 0.79605633 1.718469
-1.1696976 0.20711365 -1.9938114 -0.09793522 -0.88697326 0.048675396 0.62009746 -0.3133985
1.8767415 1.0207561 -0.039030045 -0.93901026 0.24706934 2.0964675 0.33907527 1.5309737
0.672866 1.5843712 1.2051115 -0.047205504 -2.786199 0.6833725 -1.371497 1.7529078
0.68344194 -1.0381742 -0.25163525 0.25664985 -0.20564902 -0.75639176 -1.554279 -0.872186
0.10512541 1.3134676 0.25810912 -0.7549937 2.2130272 -0.5273452 -0.22377776 -1.0847917
-0.818125 0.769322 1.0396495 0.8383823 1.3935102 0.16133505 -0.96357936 1.4795241
0.09261764 0.22841063 0.08738271 -0.009826935 0.852178 -1.5342579 -1.1375818 -0.82360166
0.8340827 -2.3597877 1.8676993 -0.07454893 -1.3056271 0.52278674 1.5846822 0.44803494
-0.0077233915 0.0277433 -1.4813215 -3.0605135 -0.34131035 -0.9184191 -1.5304921 0.4883074

net.0.weight f4 [128, 64]
00000000: d3d4 e7be b9b6 cfbe a80a cdbd ec1e a9bf
00000010: 2a18 c7bc 065e a0bf 2b98 ca3f 2f32 a2be
00000020: be14 783d f52d e9be 290d 233f 5ed8 913e
00000030: 0bae f4be e139 56bf c98a 94bf 1565 20bc
00000040: a927 713f 7fe1 cf3e 937a 693f 2572 b83e
00000050: e539 05bf eed8 ff3d 4249 69bf 7636 89bf
00000060: 705d 9e3e 3656 f8be 04dd 95bf 0552 8dbf
00000070: 579a dc3d a2b3 acbe acd8 813f 0be9 94be
00000080: dc3e 18be b628 e5bd 2b83 063e e909 a2be
00000090: e2e1 5ebf 055b c5be b8a9 813f 49d7 babf
000000a0: b733 4abf c49a 1bbf 2003 df3f 7555 90bf
000000b0: 5b94 aebd f9c8 603f 5c25 25bf bfd7 833f
000000c0: 83b7 7bbe 6d4c 593e 84e9 41be f6a9 3b3f
000000d0: cd8e 7dbe d7b7 d0be 9f98 b43d 6ef7 a43e
000000e0: 5af6 033f 6455 293f 2271 823f ac76 acbe
000000f0: 6988 5bbd cc6f cabe a74f a5be ed91 a4be
00000100: 72ab cb3d d09f 003e ae06 28bf 35a8 a6be
00000110: 4c13 2dbf 962e 05bf d350 963e dbae 5d3b
00000120: a1c0 99bd bc04 10bd fa55 a63e ba73 ffbe
00000130: 98e9 a53f 1a47 b93f fdfb 8fbf 8c9d 653d
00000140: 879c 2a3f fcf1 0a3f 0f0e 15bd ace7 9cbe
00000150: f50e f53e 429c d4be 5f94 063e 0f2a f03c
00000160: 006a 82bf 5cbb 46bf b97f ffbd c3d3 0ebf
00000170: 5eec 4bbc 86e8 0ebf a716 853f ed97 eebe
00000180: 5e0c d83e 7db6 a73f ae53 ab3f 1853 e5bd
00000190: c794 43bf 58cc 0b3f 89da 52bf dbce c63e
000001a0: 8a6a 2ebf 5e56 e93e a818 823f dc6f 903e
000001b0: 7eb1 1cbf d319 383f 275c b73d 5291 233f
000001c0: 294f c4be e0c0 723f 671d 34bf 5b35 94bf
000001d0: 7109 9e3f 36c2 a73e ef2d 06bf 3074 4fbe
000001e0: 549c b53e 9f27 acbd 2c80 e53e 30ac 353c
000001f0: e523 6b3e 3ab8 903e 262c 03bf e3ec 083f
00000200: 5dad 33bf 9417 253f ba8f 67bf 1e44 cb3e
00000210: bbb0 5e3e cc17 053f ea00 953e 5fcb f0be
00000220: 6ed4 c1be 672a a0bf 2d93 f33e 9ade 633e
00000230: 8449 ce3d cce5 1d3f dd2c 293f 0708 d63e
00000240: 0547 0fbf f1ae 2f3f 56f3 05bf 06ba 99bd
00000250: 3de4 11be 5f96 963d e4c7 90be 7051 b53f
00000260: b81f af3e 6c04 7dbe 0e6b 603f 30ea 80bf
00000270: 13db 673f 1d2b bbbe d4a6 c43b 2bd2 a83e
00000280: f50d ad3d 4d4d 8a3f ecf8 923f 50ef 8ebe
00000290: bd15 823e d497 14bf ee03 bcbe 9d0b a63e
000002a0: 9610 013d 69f8 ee3d 929b ec3d 7312 4cbe
000002b0: 55dc 88bf 0746 723d 64d3 323e 25e9 31bd
000002c0: 99af d93e d8a8 7bbe 4274 7abf 083d 513e
000002d0: 5fc9 1e3e ed2b 3f3e c985 cdbe c077 e83e
000002e0: df0c e9be 3952 543f 9191 473f cf1b 323e
000002f0: eaf5 20bf dde9 ac3d fdb4 3e3c 194b a33e
00000300: 5a5b 0f3f 4419 c93c c65a 9cbe a6c4 173f
00000310: 39ee b4be e291 0abb 71b6 863e 53e7 cfbe
00000320: 2d02 463e ff79 1cbf 5901 81be 37ec 82bf
00000330: 9205 b0be 3816 093f 6bdd bb3e 8395 123f
00000340: c77b 9bbf 964e 1bbf 19b7 d7be 43d0 fc3e
00000350: feec 303f 0829 5b3f 3bdb ec3e fa58 423f
00000360: 0e20 2d3e 9d6d acbd 9705 a83f d44d a7bd
00000370: 74ef 72be b0b5 0037 093f d4be 9ffd 863e
00000380: 0c98 3f3f bb55 b13e 661f 763e d0a8 b4be
00000390: 4f02 903d 75a4 cabf d2c1 6a3d ca87 a5bd
000003a0: f792 29bf d9c9 723f 7c06 fbbe 7edc c3bf
000003b0: 8eb4 2f3e 28bc 823f 6195 24bf 3053 a8be
000003c0: 998b a9be f836 9e3e 18fb dcbe 432a d3bd
000003d0: 138a 8a3e d096 e33e 4d08 0f3f 99eb 423f
000003e0: b047 113f a03b 73bd b1f6 abbc f04d c8be
000003f0: 8254 06be dd73 0d3f c8e7 7fbe 4b6d 383f
-0.4527956 -0.40569094 -0.10011798 -1.3212562 -0.024303515 -1.2528694 1.5827688 -0.31678912
0.060566656 -0.45542875 0.63691956 0.28485388 -0.47789034 -0.83682066 -1.1604854 -0.009789725
0.9420114 0.40601727 0.9120266 0.36024585 -0.52041465 0.12492548 -0.9112741 -1.0719745
0.30930662 -0.48503274 -1.1708074 -1.1040655 0.107716255 -0.337308 1.0144248 -0.29084048
-0.14867729 -0.111894056 0.13135974 -0.31648186 -0.8706342 -0.38546005 1.0129919 -1.459695
-0.7898516 -0.6078303 1.7422829 -1.127608 -0.0852439 0.8780666 -0.6451013 1.0300215
-0.24581723 0.2122056 -0.18936735 0.73306215 -0.24761505 -0.4076526 0.08818173 0.32220024
0.5154778 0.6614592 1.0190775 -0.3368429 -0.053596888 -0.3953842 -0.32287332 -0.32142583
0.0994481 0.12560964 -0.6563519 -0.32550207 -0.6760757 -0.5202421 0.2935854 0.0033826146
-0.07507444 -0.035160765 0.3248747 -0.4989298 1.2961912 1.4474823 -1.1248776 0.05605845
0.6664509 0.5427549 -0.03639036 -0.30645502 0.47862974 -0.41525465 0.13142537 0.02931693
-1.0188599 -0.7762964 -0.12475533 -0.5579187 -0.012446491 -0.5582355 1.0397538 -0.46600285
0.42196935 1.3102566 1.3384912 -0.111974895 -0.7639889 0.5460868 -0.8236471 0.38829693
-0.68131316 0.45573705 1.0163774 0.28210342 -0.6120833 0.71914405 0.089531235 0.63893616
-0.38341644 0.94825554 -0.70357364 -1.1578783 1.2346631 0.3276536 -0.5241384 -0.20259166
0.3547083 -0.084059946 0.4482435 0.011088416 0.22962911 0.28265554 -0.5123924 0.5348646
-0.70186406 0.644891 -0.90453684 0.39700407 0.21747105 0.51989436 0.2910226 -0.4703016
-0.37857383 -1.251294 0.47573224 0.22252885 0.10072616 0.6167877 0.6608408 0.41803
-0.5596774 0.68626314 -0.52324426 -0.07506184 -0.14247222 0.073529 -0.28277504 1.4165478
0.34203887 -0.24708718 0.8766335 -1.0071468 0.90568656 -0.3655633 0.006001333 0.32972845
0.08449928 1.080484 1.1482215 -0.27916956 0.2540721 -0.5804417 -0.36721748 0.32430735
0.03150996 0.11668474 0.1155311 -0.19928913 -1.069224 0.059148815 0.17463452 -0.043435235
0.42516783 -0.24576128 -0.97833645 0.20433438 0.15506504 0.186691 -0.40141132 0.45403862
-0.45517632 0.8293796 0.7795649 0.1739342 -0.62875235 0.084430434 0.011639831 0.31893232
0.55998766 0.02454818 -0.30538005 0.59284437 -0.35338 -0.0021144082 0.26311067 -0.40606174
0.19336767 -0.6112365 -0.2519634 -1.0228337 -0.3437925 0.5354953 0.36692366 0.57259387
-1.2147149 -0.6066679 -0.4213188 0.4937764 0.6911162 0.85609484 0.4626101 0.7591702
0.16906759 -0.084193446 1.3126706 -0.081691414 -0.23724157 7.671697e-06 -0.41454342 0.26365373
0.7484138 0.3463572 0.24035415 -0.35285044 0.0703169 -1.5831438 0.057313748 -0.0808254
-0.66239876 0.94839245 -0.49028385 -1.5301664 0.1715872 1.0213671 -0.64290434 -0.32875967
-0.33114317 0.30901313 -0.4316032 -0.10310795 0.27058467 0.44450998 0.5587204 0.76140743
0.5675001 -0.059383035 -0.020991655 -0.39121962 -0.13118175 0.5525492 -0.24990761 0.7204177

net.0.bias f4 [128]
00000000: 3eca 053f 8074 f8be 0d23 09c0 67d1 a1bf
00000010: 8f38 38bf 7a5d 6dbf a5ff 94be 8943 51bf
00000020: d875 93bc 85cf b1bf e9c3 5bbf d57c 5cbf
00000030: 57b0 10bf f64e 8bbe b88e 21be 4f39 57bf
00000040: 55c1 96bf e669 5abf 61d9 c7be d823 47bf
00000050: 40b8 18bf 1f22 473f 18cc db3e 4d6c e4bf
00000060: a21d 9bbd a5a9 d6be ae6c 8ebf 1b34 b0bf
00000070: 45a7 5dbf 5696 c73e a6bc bebf dd36 68bd
00000080: 80dc d73e 3960 bfbf 6a17 aebf f8b1 19bf
00000090: 9539 50bf 84d7 ccbf 36c5 183f 62cb 11bf
000000a0: 17d9 583f 6b09 a93e 4c5f d7bf 10e3 a4bf
000000b0: a404 b5bf bf93 8abf 9ed2 48bf f118 c4bf
000000c0: e763 d8bf 5909 7dbf 67af 73bf cfb5 25bf
000000d0: bf22 54be 08d1 a43d d252 a9bf 8899 97bf
000000e0: 6599 dcbf 0731 cfbe 7073 a3bf 8a25 83bf
000000f0: a93a 213f 0f60 f2bf 9572 08c0 085c 3bbf
00000100: a612 28bf 2f25 15bf e54e 803d 4bba 48bf
00000110: 05c7 fcbe db1f 43be f3ac 90bf d61a 873f
00000120: 471d 5c3e e5bc bd3e 9f8b c4bf 5ca1 b2bf
00000130: cde5 5bbf 3e03 2fbf bd69 2abf 568c 4fbf
00000140: 4a86 c9bd e03a cebf d4cb 7fbf bcb4 bdbf
00000150: 7578 c2be dd06 0d3f 5c21 1ebe 3e02 19bf
00000160: 7e72 89bf ccc6 a73d 2708 8bbf 9134 dd3d
00000170: 3d25 823e 3df3 86bf 69f4 65bf 43b6 91bf
00000180: b2ba 683f e75b 3bbf 045e 26be 2c43 b0bf
00000190: a7f8 debf 9e62 ce3f 3567 5cbf 56f5 e4bf
000001a0: e3b7 77bf 6c7e 89bf 7510 1740 5ac9 8ebf
000001b0: 23f9 47bf dab8 53bf 321b a2bf bc41 c1bf
000001c0: 62a0 383f 191c ac3e 62dd 1ec0 c42a f1bd
000001d0: 4a58 e9bf af4b e83e 1030 67bf 4214 fdbf
000001e0: c0d6 2fbf ac47 7dbe a3ea e8be 4ece 8a3f
000001f0: 9596 993d f74c 42bf 941b f4be 15f2 84be
0.5226172 -0.48526382 -2.1427643 -1.264203 -0.719613 -0.9272076 -0.2910129 -0.81743675
-0.018000528 -1.3891455 -0.8584581 -0.8612798 -0.56519073 -0.2720868 -0.15777099 -0.8407182
-1.177775 -0.8531784 -0.39033034 -0.7778907 -0.59656143 0.7778644 0.4292915 -1.7845551
-0.075740114 -0.41926304 -1.1126916 -1.3765901 -0.8658336 0.38981885 -1.4901321 -0.056692947
0.42160416 -1.495124 -1.3600895 -0.60037184 -0.81337863 -1.600327 0.5967592 -0.5695096
0.8470625 0.33014998 -1.6825957 -1.2881794 -1.4142041 -1.0826339 -0.78446376 -1.5320112
-1.6905488 -0.9884239 -0.9518952 -0.6473054 -0.2071638 0.08047682 -1.32284 -1.1843729
-1.7234312 -0.40467092 -1.2769604 -1.0245831 0.62980133 -1.8935565 -2.1319935 -0.73187304
-0.65653455 -0.5825986 0.06265048 -0.7840926 -0.4937059 -0.1905512 -1.130278 1.0555065
0.21495543 0.37058178 -1.5355109 -1.3955493 -0.85897523 -0.6836432 -0.66567594 -0.8107351
-0.09840067 -1.6111717 -0.9992039 -1.4820781 -0.37982526 0.550886 -0.15442413 -0.59769046
-1.0738065 0.08192214 -1.0861863 0.10801042 0.25419036 -1.054298 -0.89826065 -1.1383747
0.90909874 -0.73187107 -0.16246802 -1.3770499 -1.7419633 1.6123846 -0.8609498 -1.788737
-0.96764964 -1.0741706 2.3603795 -1.1155198 -0.7811453 -0.82703936 -1.2664549 -1.5098186
0.72119725 0.33615187 -2.4822621 -0.11775735 -1.8230069 0.45370242 -0.9030771 -1.9771807
-0.6868706 -0.24734372 -0.45491514 1.0844209 0.07499424 -0.7589869 -0.4767729 -0.25965944

net.2.weight f4 [128, 128]
00000000: 53a9 993e 6fa2 1f3e b229 613e 771f bd3e
00000010: 3c06 613a 6b1d bf3e 9ae0 183e 7519 ae3e
00000020: e1de 193e 9091 d53e 633b 843d 41be d03e
00000030: 7389 1d3f 0bb3 073e de01 853e 85c9 803f
00000040: ba07 3dbf 61b6 043c d048 0e3f 8aea c03e
00000050: 48ee a83e 562e a83d a2d8 94be 90fd 0abe
00000060: 98ac 97be f218 f9be b182 ac3e 02b5 373f
00000070: 6129 c83e 25c6 06bd 3bd8 8abd 2997 54bf
00000080: 7e3e 133e 4a5c 5e3f 4ea0 c03e 6d98 383e
00000090: d71a ad3e 5139 8c3f 80e7 83be 72f7 f33d
000000a0: 8088 a5bd d246 433e 00a7 723e f24c bd3d
000000b0: 8873 f03e 97da 4c3f 88be f83e eb6e 6c3e
000000c0: 39e1 0a3f 48c8 993e 6b2b ea3d 4f78 a13e
000000d0: 810b 603e b825 5fbe 444c 3d3f 001c 4b3f
000000e0: fa48 6e3f a4cd 013f db3b ae3e 0f4e 6a3f
000000f0: 6000 243e 2eeb d13d 424f 193f ad0b aa3e
00000100: b28a 043f 01a1 48bd 350d e5bd 3fda ab3d
00000110: 7f80 82bd 972f 8b3e ca6a 123f 910f 23be
00000120: 3277 bc3d cc17 0a3e 5f14 173f 24ab 823f
00000130: b83f 853e 1010 8f3e 2f44 df3e d8b0 3a3f
00000140: f7c8 513b b4cd 233d 3bb0 bd3e 535e 893f
00000150: e821 23be 0807 7a3c 6fb1 7dbe 74e5 023f
00000160: 9450 0c3f e26b 12bf 5c06 893f 8bfc 3b3f
00000170: f098 c13e deb1 f9bd e7a5 c33e 6efc efbe
00000180: 8e15 38be 01a1 dfbd 9322 cd3e 09e3 d13e
00000190: af80 573f e812 8abd 7f38 2f3f 255b 0c3f
000001a0: 9ee5 a33e a924 f63e cb9e 33be a149 9a3d
000001b0: b022 5e3f 59e8 3b3f 2dfb 243f c029 c73c
000001c0: 9b2d cc3e 489a 933e c058 3e3f 96f0 1f3f
000001d0: 4afe 1d3f 5145 f6bd bea3 e63d 1ebd 863f
000001e0: 3046 753f f1c6 c13e f2c9 e43d 11b5 aa3e
000001f0: 9acc 1b3e 809b 903e aca2 853e 3856 883e
00000200: ef50 e83d b7d5 bf3e 1766 323f b14c 103f
00000210: 48e1 033f 095a c43c 0c58 7d3e 0bb9 dd3e
00000220: 7d7b 113f 5208 253f d6fe 883f 8164 ea3e
00000230: d607 323f be83 18bd 7496 303f 6ba4 693f
00000240: 5cb7 0f3f e370 823f 69e2 133e 9444 ef3e
00000250: 8ef3 623f 43de f33e 2a9a a93e aea6 8a3e
00000260: e552 9c3e 437a 493f 41d4 513f 0412 263f
00000270: 57dd 983f d31e ed3e 3e65 2f3f 41ba 0d3f
00000280: 0f31 1a3f 2ceb 503f 551e 6d3e e976 483f
00000290: 2f42 8e3e 6bfb 9c3f 858c 9d3e ffde 013f
000002a0: e9d8 38be cb11 823f 44bc 8b3f 9728 4f3f
000002b0: 1989 473f d868 893f 21c8 153f 573d 493f
000002c0: c4d5 6d3f 7c2b fb3e 05e0 843f 7979 e43e
000002d0: e4a7 173f c93d b43e ef23 db3e 5390 bb3e
000002e0: 4ba6 9a3f 8c11 523f 5ce5 a43e 0342 7a3e
000002f0: 1ebb 1c3f 8d34 c03f d6f5 ad3e 4ec9 fd3e
00000300: 11c2 e93e 720f 073f 5e5b 173f 92ee 0a3d
00000310: e33b 623f 217d 193f a760 c43e fdfc 0b3f
00000320: 0cf8 0e3f 8b66 ea3e c753 123f ec0a 313f
00000330: 8e07 6a3f 49b0 873f 0e16 ff3e f01e 933f
00000340: 38f4 473f 94c6 d53e 9104 8a3f 62b1 683f
00000350: fa1b 1a3f f205 4e3f bc1e c13e 95f4 cf3e
00000360: aa56 3c3f 4882 fe3e a313 6f3f 5be1 023f
00000370: 6d0d b73e 84a5 5f3e a42f 843f ccee b43e
00000380: 299e 983e cb15 f73e 199c 683f 22fb 353f
00000390: 856b 193f 0aac 543d 913a 2b3f 2e10 503f
000003a0: 6c03 b43f 7c4e 093f 20ad 5b3f fc8c 013f
000003b0: 6f86 603f 3e26 443f 98f2 403f 5565 313f
000003c0: 922a 4e3f 0ccd 353f 1271 aa3e e1a5 c63e
000003d0: 4910 8a3f df88 aebc 208c 613f 949b 533f
000003e0: 666f 3e3f 8cf4 2e3f a07e a53e a820 033f
000003f0: 4788 db3e a896 b03e 0eb9 133f 0e3e d43e
0.30011997 0.15589307 0.21988562 0.36938068 0.0008583998 0.37327132 0.14929429 0.34003797
0.15026428 0.41712618 0.064566396 0.40770152 0.61537856 0.13251893 0.25977987 1.0061499
-0.73839915 0.008100123 0.55579853 0.3767894 0.32994294 0.08211963 -0.29071528 -0.13573289
-0.29623866 -0.48651844 0.3369346 0.7176057 0.3909407 -0.03290381 -0.06779524 -0.8304315
0.14379308 0.8685957 0.37622303 0.18026896 0.3380954 1.0954992 -0.25762558 0.11912431
-0.08082676 0.19069985 0.23696518 0.09243192 0.46963143 0.8002104 0.48582864 0.23089187
0.5424991 0.30035615 0.114340626 0.315371 0.21879388 -0.21791732 0.739445 0.793396
0.93080103 0.5070441 0.3403004 0.9152536 0.16015768 0.10249935 0.5988656 0.33212033
0.5177413 -0.04898167 -0.1118416 0.083912365 -0.06372165 0.27184746 0.571942 -0.15923907
0.09202422 0.1348564 0.5901546 1.0208478 0.26025176 0.27941942 0.43606707 0.7292609
0.0032010654 0.039991096 0.37048516 1.073191 -0.15930903 0.015260465 -0.24774717 0.5113137
0.5481045 -0.57195866 1.0705066 0.73432225 0.37811995 -0.121921286 0.3821251 -0.46872276
-0.17976972 -0.10919381 0.4006544 0.40993527 0.8418073 -0.06741887 0.6844558 0.54826576
0.32011122 0.48074844 -0.17541043 0.07533575 0.8677168 0.7340141 0.64445764 0.0243119
0.39878544 0.28828645 0.7435417 0.6247648 0.6171614 -0.1202494 0.112617 1.0526464
0.9581022 0.37847093 0.111713305 0.33341268 0.15214768 0.28243637 0.2610067 0.2662828
0.11343562 0.3746774 0.69687027 0.5636702 0.51515627 0.023968713 0.24740618 0.4330524
0.56829053 0.6446582 1.070277 0.45779803 0.69543207 -0.037235014 0.68979573 0.91266507
0.5613916 1.01907 0.14441837 0.46732008 0.88652885 0.4763051 0.3312543 0.27080292
0.30531994 0.7870218 0.819645 0.6487124 1.1942548 0.4631258 0.6851386 0.55362326
0.6023111 0.81608844 0.23156102 0.7830644 0.2778487 1.2264227 0.3077127 0.5073089
-0.18051495 1.016168 1.0916829 0.8092131 0.7794357 1.0735121 0.585085 0.7860922
0.92904305 0.49056613 1.0380865 0.44623926 0.59240556 0.35203388 0.42800853 0.36633548
1.2081999 0.82058024 0.32206237 0.24439244 0.6122302 1.5016037 0.3397662 0.49567646
0.45655873 0.5275794 0.5912379 0.033918925 0.8837263 0.59956557 0.3835499 0.54682904
0.5584724 0.4578136 0.57159084 0.6915729 0.9141778 1.0600673 0.49821514 1.1493816
0.78107023 0.41753066 1.0782644 0.90895665 0.6019894 0.8047782 0.3771876 0.4061629
0.7356974 0.49708772 0.9338934 0.51125115 0.3575243 0.21840483 1.0327039 0.35338438
0.29808167 0.48258814 0.90863186 0.71086323 0.59929687 0.05192188 0.6688624 0.8127469
1.4063544 0.5363538 0.8581104 0.5060575 0.8770513 0.7662085 0.7537017 0.69295245
0.8053371 0.71016 0.3328939 0.3879843 1.078622 -0.0213055 0.8810444 0.8265927
0.7438873 0.683419 0.3232317 0.51221704 0.4287741 0.34489942 0.57704246 0.41453594

net.2.bias f4 [128]
00000000: 657a 48c0 9edc 3140 c3f7 34bf 8e14 aebe
00000010: 6fa5 763d 5b65 bd3f 87f4 29c0 2abb 743f
00000020: cd31 c73e 47b6 9b3f f377 df3e 34e6 9c3e
00000030: 151d 2640 3a3d 69be b86c 2c3e 444f cc3e
00000040: f2c6 7f3f cfde 39be 76d8 40c0 745e d1bd
00000050: 0638 ebbf 7f55 a03f 01ad 3040 907d f83d
00000060: 509f 20c0 4493 993e b8c6 cb3d f1d1 18be
00000070: b500 43c0 c0b2 3bc0 a11a 353f fea4 833f
00000080: abc2 13bf 810d c7bd 62f9 c93f c169 a23f
00000090: a302 9ebf ee02 19c0 e2e7 8f3f 678c d73e
000000a0: cbe0 3340 6146 a9bf 603b 9abf cb4a 623f
000000b0: f333 d6be a7d4 9a3c 7421 0cbe 146c d7bf
000000c0: c342 0e3e 9cf8 9f3f 11a5 5abf afe0 0c3f
000000d0: 0042 c03f 4298 50c0 0d6f 31c0 9fd7 c93f
000000e0: bb0e fc3e 17c2 bc3d a456 a8bf b8aa 0ebe
000000f0: e0b8 983f 2c02 2f3f cf88 d8bf 70a9 91bf
00000100: 95bb ef3e d77c 52c0 a99d c53f b268 3140
00000110: 47c4 563f 69e3 2fc0 26b7 3b40 c7b5 50be
00000120: ae4e c3be 8ed5 b83e 1113 b6bf 8f8d 48be
00000130: 5a64 b0be 2e36 4c3f f2ca 403f 3a66 21c0
00000140: 01bb 3d40 78e6 3b3c 9b3f dcbb a171 f63e
00000150: 353f 33c0 7e2e 5e3e df79 25be 3417 fa3e
00000160: 7d3a 56c0 d523 493e e474 0ebf 66f1 32c0
00000170: 4222 08c0 b9c0 e1bf 4c5e 08bf 53f9 fc3f
00000180: 0144 1340 efb5 33c0 19b7 49c0 b13d d0bf
00000190: 138d 763e 7ecb 413f 0288 3c3f 1769 d6bf
000001a0: ce5d 95bf 535a 713f 0886 3cc0 e304 8fbf
000001b0: 0089 943f 6669 0abf a1ba 3cc0 ced1 53c0
000001c0: d0e6 43c0 5a21 34c0 0d2b 4940 f95d 0bc0
000001d0: ac3f 38c0 797c 4dc0 a77e 933f 68ef 0f40
000001e0: 79a3 21c0 d5ac 2240 5cf9 36c0 7ec3 343e
000001f0: 1ce3 41c0 de30 26c0 1f13 663e a61e 1a40
-3.1324704 2.7790904 -0.70690554 -0.34000057 0.060216364 1.4796556 -2.6555498 0.9559809
0.38905182 1.2165002 0.43646201 0.3064438 2.595525 -0.22777262 0.16838348 0.39904225
0.9991294 -0.18151401 -3.0132117 -0.10223094 -1.8376472 1.2526091 2.7605593 0.12133324
-2.5097237 0.29995167 0.09950012 -0.14923836 -3.0469182 -2.932785 0.7074376 1.0284727
-0.57718915 -0.097193725 1.577923 1.2688524 -1.2344555 -2.3908038 1.124264 0.42099306
2.8105953 -1.3224603 -1.204937 0.88395375 -0.4183651 0.018900229 -0.13684636 -1.6829858
0.13892655 1.2497745 -0.8540812 0.5503034 1.5020142 -3.259293 -2.772403 1.5768927
0.49229988 0.09216707 -1.3151441 -0.13932312 1.1931419 0.6836269 -1.6916751 -1.1379833
0.468228 -3.2888696 1.5438739 2.772015 0.83893245 -2.748255 2.9330535 -0.20381843
-0.38145965 0.3610043 -1.4224569 -0.1958525 -0.34451562 0.7977017 0.7530967 -2.5218644
2.9645388 0.011468522 -0.0067214496 0.48133567 -2.8007329 0.21697423 -0.16159771 0.48845828
-3.3473198 0.19642575 -0.5564711 -2.7959838 -2.127091 -1.7636939 -0.53268886 1.9763588
2.3010256 -2.8079793 -3.1518004 -1.6268827 0.24077253 0.7570113 0.7364503 -1.6750821
-1.1669252 0.9427845 -2.9456806 -1.1173366 1.1604309 -0.54067075 -2.948891 -3.3096805
-3.0609627 -2.8145356 3.1432526 -2.1776106 -2.8788862 -3.2107222 1.1523026 2.2489872
-2.5256026 2.5417988 -2.8589697 0.176527 -3.0294867 -2.5967326 0.22468232 2.4081206

net.4.weight f4 [6, 128]
00000000: e80a ccbe 05ae 0d3f d817 abbe ba99 c23f
00000010: 4bb6 9c3f dfd5 d23f 70a0 adbe a546 cc3f
00000020: 31e5 bc3f c0b8 0340 6fd2 563f c88d 303f
00000030: 2e5c 473f dd54 58bf 25bb c33f 7ee6 d33f
00000040: bee0 fd3f 71a7 e63c 3873 4dbe 1a5b d53b
00000050: 2eaf 0bbf eeed 1c40 4efd 033f a995 3c3f
00000060: 5d17 38bf 8a39 a93f b041 dc3f b9a4 b53f
00000070: d4d1 b8bd 7c4a adbe 9a82 7e3f be4b f73f
00000080: 6d97 843f 1761 2e3f 2bd5 0c40 eb0f c63f
00000090: c890 a2be d445 b8be c0b1 e43f b4f1 0940
000000a0: 6852 ed3e 44d4 0bbf d883 26c0 557a fc3f
000000b0: 1f48 7e3f a40a 873f 563a 153d cedb 8dbc
000000c0: f7f1 2e3f 89fa 423f 243a b23f 2e35 bc3f
000000d0: 625a 803f 07f5 8ebe a3ea 03bf e434 bb3f
000000e0: 320e ae3f c1e2 2d40 8531 2dbe 2cff 4dbd
000000f0: bdbc 2d3f 24c0 473f 0dba 0a3f 0899 253e
00000100: 109b 0540 1ab1 96be f587 813f 0a55 583f
00000110: bdac 0a40 a55e 84be 9295 043f dd2d bc3f
00000120: 7ae2 bcbf e2ef 2140 e662 5dbf fbf8 61bb
00000130: 7acf b63f d498 a03f 21f2 c13f 2147 d0be
00000140: a409 133f b14c b33e 056c 723e aa8d 413f
00000150: f81c 6ebf d232 7c3f 86cf 3cbd ef23 bb3f
00000160: 8030 b1be 66db a83e 324b a63f 8953 14bf
00000170: 108d ea3d 5114 96be bd55 1dbd 6a81 853f
00000180: aee7 d43e cb1d 6cbe 4f87 10bf 3867 d13e
00000190: 2f38 2d3f fc9d a43e 76bf 583f 3e32 de3f
000001a0: 1a52 943f 552f 793f 6d77 5ebe 6be1 c13f
000001b0: 3d22 e33f 654f d23f 72f4 1dbe 514c b2be
000001c0: 54c0 1bbf 0872 99be 86be 223f 2514 06be
000001d0: c8f6 41be 6769 c3be 3409 0e3f c492 883e
000001e0: 95a7 86be 3c4d d43e bef2 c3be 1c93 c13f
000001f0: dd05 debe 2363 52bf 3811 e63f 843f 913e
00000200: 5f1e b8be 7b73 ab3e 89df c8bf ea30 8e3f
00000210: 949f 8d3f be22 bd3f f5fd 79be c5b2 953f
00000220: f2ad c33f 7c7f 1a40 f236 9f3f b5a7 9b3f
00000230: ab40 173f 0c88 e43f fcca 973f 68d0 943f
00000240: 1740 0140 be79 543d bdbc 22bd 5886 833c
00000250: d33b e7be f44f d03f 4f45 c23e bd46 103f
00000260: 9af6 02bf 9902 203f 345f b53f ffca 943f
00000270: 8111 87be 6fb6 bcbe edc2 5c3f a372 d83f
00000280: e4a6 873e d6b8 393f e7a0 1b40 6f84 553f
00000290: c6d0 503f 8ec8 e3be e614 e53f 77de f63f
000002a0: fa6e 0c3f 3efd 5bbf 960c 23bf 8e4e c23f
000002b0: 6f62 90bf 1f5e 8d3f 0a06 573c f546 d73d
000002c0: c55e 4c3f 4fa1 bb3f 4af5 2b3f 4be1 ce3f
000002d0: 8f60 863f edd7 5ebe 01f4 c9be eaae 813f
000002e0: 9429 c73f 71f7 ff3f 19aa c7be fc04 e4bd
000002f0: e851 9d3f 46a7 663f 9a46 e63d dbe9 c6bf
00000300: 5227 dd3f 97c1 e5be e7b0 b53f 3e8b 173f
00000310: 7a3a 3740 843f ccbd 9f33 f83e c171 863f
00000320: 7420 123f 4dc5 cb3f d1a4 b8bc 4734 e6bd
00000330: 7868 b43f e960 bf3f 73b9 bd3f 29be 93be
00000340: 2db0 1b3f a8e9 3e3f bcb1 9d3f 9883 5d3f
00000350: cf78 50bf afb3 713f 8e6f 02be 2ba8 0e40
00000360: 207f 87be 0f30 ed3f 7a83 803f 2d44 9ebe
00000370: 85b6 39be fba2 55be 3034 a53f d6d1 cc3f
00000380: e62f 9b3e 6621 dfbe a947 16bf db36 cfbe
00000390: d36f 883f cd7f e43f 8deb c93f 628a 333f
000003a0: dd6d 4ebf 56ab a13f f3e3 6dbe 7673 f6bf
000003b0: c714 fd3f f4d8 a03f ed14 86be 8bbc d3be
000003c0: b391 0cbf afa6 8cbe 0c97 623f fd90 9fbe
000003d0: b996 9fbe 55bf 6ebe bee6 4a3f 7113 bb3e
000003e0: 353e 44bd e300 2c3f bfc2 01bf 916c cf3f
000003f0: 0227 e4be a3d5 1cbf 55e6 b03f 85fd 8a3e
-0.3985207 0.5534366 -0.3341663 1.5203164 1.2243131 1.6471518 -0.33911467 1.5959059
1.4757444 2.0581512 0.83914846 0.6896634 0.7787503 -0.8450449 1.5291487 1.6554716
1.9834211 0.028156014 -0.20063484 0.0065111043 -0.5456418 2.452022 0.5155839 0.73665863
-0.7191065 1.3220685 1.7207546 1.4190894 -0.090243965 -0.3384589 0.9941803 1.931999
1.0358711 0.681169 2.2005107 1.5473608 -0.31751084 -0.35990775 1.7866745 2.1553774
0.46351933 -0.54620767 -2.601797 1.9724833 0.993288 1.0550122 0.036432587 -0.017316725
0.6833796 0.76163536 1.3923993 1.4703729 1.0027583 -0.27921316 -0.515299 1.4625516
1.3598082 2.716965 -0.16913421 -0.05029218 0.67866117 0.7802756 0.5419014 0.16171658
2.0875893 -0.29431993 1.0119616 0.8450476 2.166793 -0.25853458 0.51790726 1.4701496
-1.4756615 2.5302663 -0.8647903 -0.003448068 1.4282067 1.254664 1.5152017 -0.40679267
0.57436585 0.35019448 0.23674019 0.7560679 -0.9301295 0.98515046 -0.046096347 1.4620341
-0.34607315 0.32979888 1.2991698 -0.57939965 0.11452687 -0.29312375 -0.038411845 1.0430119
0.41583008 -0.2305824 -0.56456465 0.40899062 0.67663854 0.32151783 0.84667146 1.7359083
1.1587555 0.9733785 -0.21725245 1.5146917 1.7744824 1.6430479 -0.1542528 -0.3482385
-0.60840344 -0.2996981 0.63571966 -0.13093622 -0.18941796 -0.38166353 0.5548279 0.26674473
-0.2629973 0.41465175 -0.38271135 1.5123019 -0.43363848 -0.8218252 1.7974005 0.2836877
-0.3596067 0.33486542 -1.5693218 1.1108677 1.1064324 1.4776227 -0.24413283 1.1695181
1.5287459 2.414031 1.2438643 1.2160555 0.5908305 1.7854018 1.1858821 1.16261
2.0195367 0.051873915 -0.039730776 0.016055271 -0.4516283 1.62744 0.37943503 0.5635794
-0.51157534 0.62503964 1.4169679 1.162445 -0.26380542 -0.36857936 0.86234933 1.6909984
0.26494515 0.7254766 2.4316957 0.834052 0.81568563 -0.4448895 1.7897003 1.9286641
0.54856837 -0.8593329 -0.6369108 1.5180223 -1.128004 1.1044348 0.013123998 0.10511581
0.79832107 1.4658602 0.67171156 1.6162504 1.0498217 -0.21762057 -0.39443973 1.0131505
1.5559564 1.9997388 -0.38996962 -0.11133763 1.2290621 0.9009899 0.11243935 -1.5540117
1.7277625 -0.4487426 1.4194611 0.5919684 2.8629441 -0.09973052 0.48476884 1.0503465
0.5708077 1.5919586 -0.022539528 -0.1124044 1.4094381 1.495145 1.482222 -0.28856018
0.608157 0.7457528 1.2319865 0.8652892 -0.8143434 0.944148 -0.12737867 2.2290142
-0.26464176 1.8530291 1.0040123 -0.3091139 -0.18136032 -0.20862953 1.2906551 1.6001537
0.3030998 -0.43580168 -0.58703095 -0.4047154 1.0659126 1.7851502 1.5775009 0.7013303
-0.8063639 1.2630413 -0.23231487 -1.9253986 1.9771966 1.2566209 -0.2618784 -0.41354784
-0.5490982 -0.2747092 0.8851173 -0.31165305 -0.3116968 -0.23315175 0.79258335 0.3653827
-0.047910888 0.67188853 -0.50687784 1.6205007 -0.4456101 -0.61263484 1.3820292 0.27146545

net.4.bias f4 [6]
00000000: 2bea 0640 b97e 2740 ed8d 0740 8c7a f13f
00000010: 7a0b 47c0 8237 9bc0
2.1080425 2.6171095 2.1180375 1.8865523 -3.1100755 -4.850526
