results/double_dqn/seed_44/double_dqn_target.pt (torch, 233875 bytes, 7 tensors)

embed.weight f4 [500, 64]
00000000: 7608 cb3f ed09 903f c850 ea3f 0032 e73d
00000010: ddc6 fe3e ac1f c03f 9ab5 10be e850 b4be
00000020: ad3b 28be e620 95bf 3e58 d1be 7971 06bf
00000030: 785a a8bf 5966 1a3f 12f9 4fbf e88a 173f
00000040: 1600 9dbf 7cb3 75bf 2d1c db3f 817f 6ebc
00000050: d5b4 d93e 781a acbf cb42 ce3f ca63 173f
00000060: 3662 283e fe2d a03f a46d 043f cdca 4ebf
00000070: bb0a 05c0 6e10 233f 33f2 b03f e466 6abf
00000080: a9bd 933f 65ea ec3d 4a61 99bf 140a b93e
00000090: f0f7 83bf f396 923f d7f7 d5be 53c4 4dbf
000000a0: 17bf 593e 44c1 6fbf 34ab 92bf c1e2 673e
000000b0: 828e ff3e 5497 573e 3fe9 cabf b501 193f
000000c0: dd13 e53e 0b58 96bf fd10 d8bc 4691 e4bf
000000d0: 55b7 09be ac75 41be 264f a5be 5a7f ab3f
000000e0: 4b72 ca3e 112e 8bbf 79c9 2bbf c9de e0bd
000000f0: fa67 f63f a7f0 dabc 14c4 afbe afad 8fbf
00000100: 981a d03f ad2b a7be 2b19 34bf f82b 3ebf
00000110: a1b3 963f 5522 ae3f 8297 3a3f 8e8b 1abf
00000120: b34e a13f 7df0 82bf 5e2d 22bf 90e0 f6bd
00000130: c84f 633e 1b72 bdbe ab99 193f 02ba e13d
00000140: 9f8e 06bc ad9e 903e 0fce 993e 14cb 4cbf
00000150: 9b64 2cc0 a241 9dbf f7b0 4c3f eae3 1cc0
00000160: 1d1f cc3e ff99 633f 249d 54bf 558d 1840
00000170: 0f1f 62be c0f0 cbbe 4897 383f 8395 973f
00000180: 66c3 0d3f edab c9be d79b 94be 4ce7 d3be
00000190: 5a84 d53f 496a 463e e1ce 0cbf 4184 11be
000001a0: aa5a 3abf a875 de3f 0775 5e3e d79c e33e
000001b0: e07d b7be 4cd9 2a3e c9c3 653e b71c 11c0
000001c0: f08d 1fbf f426 04bf 5711 083f f292 1dbe
000001d0: 1f06 e3bd e952 94be a851 28bf 9fd9 8b3f
000001e0: 1984 88bf 252b a3bf 14e7 a93e 748f 82be
000001f0: 1a29 d4bf 00ea a2be 268a cd3e e3a0 c4bf
00000200: 02a7 453e c411 dc3e 0013 713f 6332 b5bc
00000210: 53a2 9abf bd11 35bf 1594 e73e ea45 593f
00000220: 5248 a2be 0bb0 e23f 86a9 003f c413 983d
00000230: 1b40 4ebf d84a 013f 5c3d 37bb d096 053f
00000240: 4ce2 15be a0ed 3ebe f869 3d3e f2af 3dbe
00000250: 7336 23bf 85a3 cb3f 9628 0abe 5626 51bf
00000260: a464 913f d4b6 043f fe8c 023d bf18 a5be
00000270: 2029 953f 5f3b 333f 8ae9 77be 413b ef3d
00000280: 1d43 0ebf 1c0b 703f cc9e 4d3f b845 803e
00000290: bdaf fd3e ad52 68bf c287 f0bf 2b09 78bf
000002a0: 7106 8bbf 9405 c3bf 4059 f0bf 5b2e 123f
000002b0: 2bf0 6cbf 019e 123f b865 633f 6184 91be
000002c0: 75e6 c53e 9d81 5e3d 09b2 acbf ead1 90be
000002d0: 1b28 b0bf f45b 9dbe b1a5 873f b4a9 80bf
000002e0: b092 3abe 8165 b0bf e0e1 a93e 4221 143f
000002f0: 9494 8abf 2aa1 18bf f48c 793f 9dc6 7a3e
00000300: bafa 13bf 74c4 f33c 9c4e 683e e642 d53d
00000310: 01bb 8cbf f659 6abf 7f3a c7be 4e07 cf3d
00000320: 48aa c03f 2148 113f 9231 123f b4a0 933e
00000330: 1bcc 4f3e 4b46 7fbe 612f 65bf f297 6fbf
00000340: 99d8 22bf 5f5e 09bd 459f 44bf d4df 5bbf
00000350: aef7 ae3f 4d9c d23e eb43 053f 438f 3f3e
00000360: fa80 79bf 7084 ef3d d76a 113f ebb9 b03c
00000370: 15e6 de3f 1690 673f 5546 84bf 9a36 aa3e
00000380: 6c86 5e3f 5046 a1bd ccf1 37bf a40d 1e3f
00000390: 82ea 0a3f f208 183e b144 88bf 3683 393e
000003a0: 122d 413f 404f 79bf 8485 0d3c dfb8 ae3f
000003b0: 389f 85bf e6dd 45bf cf6c 003f 67d4 6c3d
000003c0: 48a8 9b3d ccc3 1f40 2681 333f befa bfbf
000003d0: 11ea bfbe 49f0 9bbf 383a 0140 d111 083f
000003e0: 7f0c dc3e ee88 5bbf e9da 68bd f025 823e
000003f0: ab6c 95bf c9a0 de3e 707f e73e 8ac3 8fbd
1.5861957 1.1253029 1.8305902 0.112888336 0.49761096 1.5009665 -0.14131775 -0.35217977
-0.16429015 -1.1650665 -0.40887636 -0.52516896 -1.3152609 0.6031242 -0.81239426 0.5919633
-1.2265651 -0.95976996 1.7117974 -0.0145567665 0.42520776 -1.3445578 1.6114134 0.5913664
0.16443714 1.2514036 0.517298 -0.807782 -2.07878 0.63696945 1.3823913 -0.9156325
1.1542255 0.11568145 -1.1982815 0.36140501 -1.031004 1.1452316 -0.4179065 -0.8037769
0.21264301 -0.93654275 -1.1458497 0.22645094 0.49913412 0.21053821 -1.5852431 0.5976823
0.44741717 -1.1745619 -0.026375288 -1.7856834 -0.13448842 -0.18892545 -0.32286948 1.339824
0.39540324 -1.0873433 -0.671043 -0.10979993 1.9250481 -0.02672608 -0.34329283 -1.1224879
1.6258116 -0.3265051 -0.70350903 -0.7428584 1.1773568 1.3604227 0.7288743 -0.60369194
1.2602142 -1.0229641 -0.63350475 -0.12054551 0.22198403 -0.37001118 0.60000104 0.11021806
-0.008212714 0.2824606 0.30040023 -0.7999737 -2.6936405 -1.2285655 0.79957527 -2.4514108
0.39867488 0.88906854 -0.8305228 2.3836262 -0.2208216 -0.39832115 0.72105837 1.1842502
0.5537628 -0.3938898 -0.29025146 -0.41387403 1.6681015 0.19376482 -0.5500317 -0.14210607
-0.7279459 1.7379656 0.2172433 0.44455597 -0.35838223 0.16684455 0.22437967 -2.2673776
-0.62325954 -0.5162194 0.5315146 -0.15388086 -0.11085152 -0.28969505 -0.657496 1.0925788
-1.0665313 -1.2747542 0.3318411 -0.2550007 -1.6575043 -0.31819153 0.4014446 -1.5361599
0.1930199 0.42982304 0.94169617 -0.022118753 -1.2080787 -0.7073019 0.45230165 0.84872305
-0.316958 1.7709974 0.5025867 0.07425645 -0.8056657 0.5050483 -0.0027960157 0.52183247
-0.14637107 -0.18645334 0.18497455 -0.18524149 -0.6375496 1.5909277 -0.13492045 -0.8169912
1.1358838 0.51841474 0.031872742 -0.32245442 1.1653175 0.7001247 -0.24210182 0.11681224
-0.55571157 0.9376695 0.8032043 0.2505319 0.4954814 -0.90751153 -1.879143 -0.9688899
-1.0861341 -1.5236077 -1.8777237 0.5710198 -0.9255397 0.57272345 0.88827085 -0.2842131
0.38652387 0.054322828 -1.3491832 -0.28285152 -1.3762239 -0.30734217 1.059744 -1.0051789
-0.1822002 -1.3780977 0.3318014 0.5786325 -1.0826592 -0.59620917 0.974807 0.24489827
-0.57804453 0.029756762 0.22686237 0.104131505 -1.0994569 -0.9154352 -0.38911816 0.10108815
1.5051966 0.56750685 0.5710689 0.28833544 0.20292704 -0.24929158 -0.8952542 -0.93591225
-0.6361175 -0.033537265 -0.76805526 -0.8588841 1.3669336 0.41134873 0.5205676 0.18706994
-0.9746243 0.11695182 0.5680365 0.021573028 1.7413965 0.9045423 -1.0333964 0.33244783
0.8692386 -0.07874739 -0.7185333 0.61739564 0.5426408 0.14847162 -1.0645963 0.18116459
0.75459397 -0.9738655 0.00863779 1.3650168 -1.0439215 -0.77291715 0.5016603 0.05781975
0.076004565 2.4963255 0.7011894 -1.4998395 -0.37483266 -1.2182704 2.0191784 0.53152186
0.42978284 -0.85755813 -0.056849394 0.2541957 -1.1673788 0.43482044 0.45214415 -0.07019718

net.0.weight f4 [128, 64]
00000000: e963 e33d e2d4 4f3e 80ab e13d 2f10 373d
00000010: e63c 0a3f 7c0a 713e 59a6 21bd 12b9 d23c
00000020: 4d1d 1c3d a0b8 493e 94aa 3abd 6788 f7bd
00000030: 61b0 c2bd 90d9 8cbe 4b31 553e 673b f5be
00000040: 3e00 303e 2688 be3d 2e05 b33d bab7 793e
00000050: 4aef abbe 6627 323d 3c0c 15be 08d6 a6bd
00000060: 0217 82bd 2964 08be ff7d aabd 48ed 573e
00000070: 6a85 8c3d 5d34 58be 3476 4f3d c06c 2b3e
00000080: fc33 88bc 09c5 b7bb 5299 503d 1e04 8fbd
00000090: fa1a 173e 01e9 95be 9b8b 31be b852 af39
000000a0: 821e e6be b8a1 8ebd 50be a4be a4c9 1a3e
000000b0: d5b0 1bbe 74c3 0bbe f567 adbe 83c7 003d
000000c0: 0c37 0a3e cb5a 453e ca96 073f 4df8 06bc
000000d0: b1a4 03be fed0 4e3c 5b9f a0bd 7a0d 39be
000000e0: 1be8 90be b39a c9bd 83d0 d3bd 7fbd b33e
000000f0: 1df4 aebe b9b7 0b3e 0695 0f3d b016 a33d
00000100: 00d2 5bbe ce1b fd3a 329b 9d3e 1041 433d
00000110: 8a3d 60bd a48d 433d 5525 1f3e f59f e3be
00000120: fa87 7c3e eb17 123b f14c a53d 17a7 8f3e
00000130: c304 c9bc 4bc9 eb3d 8e9b 0c3d cf95 fdbd
00000140: a694 4e3e 85d4 393d d556 02bd 79cf 623e
00000150: 1f93 8f3e c0d2 543d 4962 623e b8f4 3e3e
00000160: 191e a6bc 28b9 0fbe 2ff0 583e bec4 be3e
00000170: 7fa4 1d3e 1584 a8bd 0e67 ed3e d55d bdbd
00000180: 9615 db3e 1384 f63d f91c 06be 9194 3dbe
00000190: 4332 03bf a740 14be 9e0a a3be 0cae 0fbe
000001a0: 4c4e ae3d 1603 60bd 5796 f7be 3ade 02be
000001b0: aed1 a2be 5759 8a3e 92bc ec3e 0c15 163e
000001c0: 28d5 ec3d de8e 28be c2be b33e 412a 643e
000001d0: 9773 e3bd 7658 e2bd b5ca 82be 3291 21be
000001e0: 0cda cbbb bfa1 a13e c924 853d a1b9 2a3e
000001f0: e77e 84be be04 603d 753d cf3c 8a0d a23d
00000200: 100c 2abc cd85 81bd 7d53 b6bc 6f69 5d3e
00000210: 1a9a 85be 326c 2fbe 0d5a 883d eee5 423e
00000220: 8b90 70bc c1ba 8f3e 5d3c 173e 0358 09bd
00000230: 5a2a 21bd 275e 18be c645 993e 0a41 1a3e
00000240: 7c88 a4bc 8d37 eb3c a75f 193e 12ff 783e
00000250: 50cc 6d3d bc22 d43d ca64 46bc cd6b 6cbe
00000260: d9c5 043d a9b6 463e e4ff d93c cedf 49be
00000270: fefc 033e 9153 933e 175e 19bd f5a5 f9bd
00000280: dfd1 d2bd 06d4 b23d 1a69 98bd 216e 3c3e
00000290: b9fc dabc feba 8a3d 2fac 1cbe 669b e4bc
000002a0: 530d 543e f0bf 9cbe 235f 433d 8096 113d
000002b0: 76ee 9bbd 5a03 133e 6619 ee3d f0db bc3d
000002c0: 190e 4a3d 622b 873d 5e23 743b 3542 b1bd
000002d0: a7db a6bd 80e5 82be 9fba b43e cbc8 04bd
000002e0: 257b 5f3d df42 16be 556a cbbd b5a0 1ebe
000002f0: 04ef 21be 6f89 18be bdf0 c7bd dda2 c73d
00000300: ce11 913c a927 3f3e 33d0 31be 4df9 bbbe
00000310: f34a 5cbd 1405 d83d 371d ab3c 6833 393e
00000320: 15ed 68bc 4b89 e33c ca0a 46be bce9 3ebd
00000330: 973d d13d 8e7a a7be 53e0 143c 441d 36be
00000340: f47a 4e3e 0797 84be f982 8cbd 9f4d f1bd
00000350: 571c a5bc 6dde 37bd 78e5 42be d3f0 893b
00000360: 6e56 353e 8c5c 773c 8b10 8abd 6696 5bbe
00000370: 4ac4 fd3c 412c 0c3e 2029 e43e 1fbc 8ebb
00000380: b9ce 593d 23f5 6b3d fbc4 523e 7225 ef3d
00000390: a95e 48be f41d 7f3d 2f58 edbd a56a 4cbe
000003a0: 53ab 053e ae90 debe 78ac 273e 6618 d7be
000003b0: 5859 6b3e 4fd1 2cbe 2377 1bbb 81fb 763e
000003c0: bd42 603e 74a1 78bc 60c1 f3bc 4862 cfbd
000003d0: f591 c5bd 33ff 0d3e 20a0 2dbe 36c0 b93d
000003e0: 884c 0a3e 8830 ccbe 7a6c 91be 92c6 4dbe
000003f0: f1f7 283e 549c c6bd 89a3 b2bd 0e19 4e3e
0.11103041 0.20296052 0.11019039 0.04469317 0.53999174 0.23539156 -0.039465282 0.025723014
0.03811388 0.19699335 -0.045572832 -0.120865636 -0.09506298 -0.27509737 0.20819585 -0.47896883
0.17187592 0.09303312 0.08741222 0.24386492 -0.33581 0.043494605 -0.14555448 -0.08146292
-0.06352045 -0.13319458 -0.08324813 0.2108661 0.06861384 -0.21113725 0.050649837 0.16740704
-0.01662635 -0.005608205 0.050927468 -0.06983207 0.14756384 -0.2927933 -0.17338412 0.0003344023
-0.4494515 -0.06964439 -0.32176447 0.15115982 -0.15204175 -0.13648778 -0.33868375 0.03144027
0.13497561 0.19272916 0.5296446 -0.00823791 -0.12855794 0.01262307 -0.07842895 -0.18071547
-0.28302082 -0.0984396 -0.10342505 0.35105512 -0.3417062 0.13644303 0.03505423 0.07963312
-0.21466827 0.0019310655 0.30782467 0.04766947 -0.05474619 0.0477425 0.15541585 -0.44457975
0.24661246 0.0022292088 0.08071316 0.28057167 -0.024538403 0.11513003 0.034328036 -0.12382089
0.20173892 0.04536869 -0.03182109 0.22149457 0.28041932 0.0519588 0.22107805 0.1864804
-0.020278024 -0.14035475 0.21185373 0.37259477 0.15394782 -0.08228318 0.46367687 -0.09246413
0.42789906 0.1203691 -0.1309699 -0.18513705 -0.5124857 -0.14477788 -0.31844038 -0.14031237
0.08511028 -0.054690443 -0.48356888 -0.12780085 -0.31800598 0.27021286 0.46237618 0.14656466
0.11564094 -0.1646075 0.35106474 0.22281744 -0.111060314 -0.11052029 -0.25545278 -0.15778044
-0.0062210616 0.31568715 0.06501157 0.16672374 -0.2587807 0.054692023 0.02529786 0.079127386
-0.0103788525 -0.063243486 -0.022256607 0.21622251 -0.26094133 -0.17131117 0.06657801 0.19033024
-0.014682899 0.2807217 0.1476912 -0.0335312 -0.03934703 -0.14879666 0.29936045 0.15063873
-0.020084612 0.028713012 0.14977895 0.24316052 0.058056176 0.103581876 -0.012108991 -0.23087998
0.032415245 0.19405617 0.026611276 -0.19714281 0.12889478 0.28774694 -0.037443247 -0.12189857
-0.10293936 0.087318465 -0.074419215 0.18401386 -0.026731836 0.06773947 -0.15300058 -0.027906131
0.20708208 -0.30615187 0.04769815 0.03554392 -0.07613842 0.14356747 0.11625938 0.09221637
0.04932985 0.066000715 0.0037252526 -0.08655206 -0.08147364 -0.2556572 0.3529863 -0.032418054
0.0545608 -0.14673947 -0.099323906 -0.15490992 -0.15813833 -0.14896177 -0.09762714 0.097478606
0.017708685 0.18667473 -0.17364578 -0.3671364 -0.053782415 0.105478436 0.020887954 0.18086016
-0.014216681 0.027775427 -0.19340053 -0.046609625 0.102168255 -0.3271069 0.009086686 -0.17784601
0.2016409 -0.25896475 -0.068609186 -0.11782383 -0.020155115 -0.044889856 -0.19032848 0.0042096167
0.17708752 0.0150977485 -0.067414366 -0.21444091 0.030977387 0.13688757 0.44562626 -0.004355922
0.05317566 0.057606827 0.20582955 0.11677064 -0.1956736 0.062284425 -0.11589085 -0.19962557
0.13053636 -0.43469757 0.16374385 -0.42010802 0.229833 -0.1687672 -0.0023722134 0.24119379
0.21900459 -0.015175212 -0.029755294 -0.101261675 -0.0964698 0.13866882 -0.16955614 0.090698645
0.13505757 -0.39880776 -0.28403074 -0.2009528 0.16500832 -0.09697786 -0.08722598 0.20126745

net.0.bias f4 [128]
00000000: 3bf2 9abd 9a63 023e fa35 1ebf 1b86 05bf
00000010: fa02 90bd cee8 51be e671 f5be e9a9 1fbe
00000020: 7d49 1c3f c315 2dbe 28c3 c9bc 5b18 9abd
00000030: f851 b7bd ad6f a03d 6982 e8be aba9 713e
00000040: ed49 1cbf 54a4 33be 955a f93e 5216 9ebd
00000050: 553d 6bbf 8ebe 97be a009 a93d 9e40 32be
00000060: 873c a03d afb1 063e aa3a cebe 33f8 2ebe
00000070: 1033 2bbe 5c38 55be 01e5 a23d 0fbc 9fbe
00000080: 8b99 36bf 4c38 c7be 3058 203e 281f 09be
00000090: 74dd 03bf 072b cb3c 2484 66be 3e9f f2be
000000a0: 8e02 14be 2a31 debe 5d3f d23c 0514 ddbd
000000b0: 7cb4 bfbc b184 dcbe 87c6 853e f70a 8a3a
000000c0: 9509 10be 4249 ef3d c8fd 2a3e 8e5c b7be
000000d0: c7b7 b8be 7907 82bd 7584 01bf e2b7 aabe
000000e0: 5142 3a3e 9974 3d3f ad1e 323d cd51 74be
000000f0: f314 bdbc 3d56 903e c89a 05bf f069 043e
00000100: 24a0 bcbe 2870 99be cbc4 69be 0c3c a83e
00000110: 8a24 37be 29a0 4dbe 1c33 b3be f980 a1bc
00000120: 2b5a dabe 2d54 37bd 5dce 10be 321d 15bf
00000130: 2bd5 babd b695 89be b70a 193c 9dcd e8bd
00000140: 25a0 d43d fb50 88be 1a1c debe 29d9 8cbe
00000150: ed2f 05be c159 c8be 44a2 623e 0788 ca3d
00000160: 47e5 b2be c73d 30bf c017 a2be aadb 7bbe
00000170: b990 b9be a74d e9be 7439 dfbe 812c 13bd
00000180: b668 fabe c3cf c7be 0140 c2be 566c 01be
00000190: 1fe6 0abe 557c 6c3e 4d49 d1be 7db3 283e
000001a0: 5fee c2bd 824e aebe 18c3 0ebf 6f8f 45bf
000001b0: b517 a0be d631 a7bd 0a6b 15be 5455 d9be
000001c0: 62bf 23be d780 01be 84fa 09be 9a76 94bd
000001d0: cfca a7be f2f8 5c3e 3463 b9be 579b 10bf
000001e0: d532 a8bd 022c f6bc ab6e b3be 4dc3 08be
000001f0: 4f30 853e 8dd1 39bf a0ee f2be 0346 0e3e
-0.07565733 0.12733307 -0.6180111 -0.52157754 -0.07031818 -0.20498964 -0.4793846 -0.1559216
0.61049634 -0.16902833 -0.02462919 -0.07524177 -0.08951181 0.078338005 -0.45411995 0.2359988
-0.610503 -0.17543155 0.4870192 -0.07719101 -0.9189046 -0.2963757 0.08253789 -0.17407462
0.07824045 0.13153718 -0.40279132 -0.17086868 -0.16718698 -0.2082228 0.07953835 -0.31198165
-0.7132804 -0.3891014 0.15658641 -0.13390791 -0.51509786 0.02480079 -0.22511345 -0.47387117
-0.144541 -0.43396884 0.02566498 -0.10794834 -0.023401491 -0.43069986 0.26128027 0.0010531832
-0.14066155 0.11683895 0.16698372 -0.358128 -0.3607771 -0.063490815 -0.5059274 -0.33343416
0.1818936 0.7400604 0.043486286 -0.2385933 -0.023081278 0.28190795 -0.521893 0.12931037
-0.36840928 -0.2996838 -0.22828977 0.32858312 -0.17885032 -0.20080628 -0.3499993 -0.01971482
-0.42646918 -0.04475801 -0.14141221 -0.58247674 -0.0912269 -0.26872033 0.0093409335 -0.113673426
0.10382108 -0.26624283 -0.43380815 -0.2750943 -0.13006563 -0.39130977 0.22132212 0.098892264
-0.3494055 -0.68844265 -0.31658745 -0.24595514 -0.36243227 -0.45567057 -0.4359852 -0.035931114
-0.48908013 -0.39025697 -0.37939456 -0.12638983 -0.13564347 0.23094304 -0.40876237 0.1647472
-0.09518122 -0.34044272 -0.5576644 -0.7717199 -0.31268087 -0.08163802 -0.14591613 -0.42447913
-0.15990975 -0.12646805 -0.1347447 -0.07249184 -0.32771918 0.2157934 -0.36208498 -0.5648703
-0.082128204 -0.030050281 -0.3504537 -0.13355751 0.2601342 -0.72585374 -0.4744768 0.13893895

net.2.weight f4 [128, 128]
00000000: ed9d acbc 137a dbba 63ab 23bd ef8e 27bc
00000010: 8fac d7bd 23c8 6cbc 5eb0 6dbe 2c94 bfbd
00000020: 9849 1fbf 1f83 403e 5e54 33bc 4828 2dbe
00000030: f549 d9bd 7aab ebbe 2949 ccbe e17b 55be
00000040: a249 47be 71c4 a5bd 059a f6bd b944 a3bd
00000050: c611 5b3d 59fa 95bd 9eac 593c 103e a5bb
00000060: a04a 61be 376f 71be 9c91 82be da64 0fbd
00000070: 1f7b f9bd c734 fbbd 4316 92bd b40e 11be
00000080: 241f 873c 6ccc 683e a396 463c 5da3 48be
00000090: d03a 75bd 5454 4cbe f209 b8be 2491 5c3e
000000a0: b8e6 b7be 4024 b2be 5205 92be 43cd e9bd
000000b0: 1170 f63d 028e 93bd 3ef2 a9be 892b 8abe
000000c0: b12d 9ebe 403c 9bbe a6b0 a2be b29d 95be
000000d0: c9a4 03bf 6311 fdbd 9e4c 803d 8f3f 123e
000000e0: 6cde 2b3d d0a5 e9be 5550 bdbe 423e 8d3d
000000f0: a14a f3bd 1485 1abf c448 93bc b18b 8bbe
00000100: 8f03 5c3c cef3 363d 1e64 3cbe db19 97be
00000110: 1df9 55be 8ba0 ffbe ab42 103c faf5 a7be
00000120: 55c9 12be c71d f0bd 6b77 edbe 3a88 10be
00000130: 9e32 a93c 9b2d 1cbe 20a2 cdbe 6e5b 513e
00000140: 76e9 34be ae83 bfbe ac68 48bd 6c05 143d
00000150: f254 91bc 302e 973d 0845 9fbb 31cc 8fbe
00000160: ed13 9b3c 508f e83d 2d24 f5be 027b 34be
00000170: 6965 efbc cd2b c0bb 30ff f2bc b18d 85be
00000180: e901 90bd 7b8e 3b3e c08d 09bd 361b e0be
00000190: 9cb6 11be e1bc babe 06a8 dabd 256b b7be
000001a0: 1fc8 4fbe d8a4 0d3e 3417 ef3d 4207 ab3d
000001b0: 52f5 a2be a5dd 48bd 8a8a d6bd 9404 9abd
000001c0: c9d4 6ebe 7c75 c9ba a6e2 db3d 3b2f 96be
000001d0: 9ee4 44be c7f3 92be 720f a2be 95fe aebe
000001e0: 5419 843c 8635 87be 4187 7abe 890b e4be
000001f0: bdcc 0dbf 55eb 9fbd 0570 f9bd 844f 09bf
00000200: 2042 8d3c 7de5 02be f9bb cfbd fae9 e4bd
00000210: c243 94bd 03db 84bd bd9a 66bd 011e 1cbd
00000220: 7a8b 413c 49ef 1bbe 9e67 df3c 3655 13be
00000230: 5b99 3d3d 7c49 94bd 6e5c 5abd fbe1 613c
00000240: 7634 92bc 03f9 1abe e1e8 36bd f780 1abd
00000250: b82e 93bd f64b b7bc c32a 02be a5cb eabd
00000260: 040b 68bd 38b6 dfbd aa20 8bbd f753 93bd
00000270: 4e7a 06bc 2793 9f3c a61f 943d 1284 0a3d
00000280: 50df 21bc 75bf 843d 1afe 24bd e0fe c5bd
00000290: 439a f63a b07e 01be c804 713c da90 773c
000002a0: edf8 c3bc bb91 9bbd e3d0 c4bd eff8 14be
000002b0: 47b9 37bc 3559 10be 0179 9cbc bfdd 273d
000002c0: 0811 b93c e175 98bd 095f 1fbe d32a c0bd
000002d0: 6545 f2bd 03b6 bdbd 1554 9fbc 1dc4 223d
000002e0: 9aba 78bb 8756 0bbe d16d bdbd 4627 2dbd
000002f0: 72fe b4bc f61c 73bc cace 11be 7488 9e3d
00000300: aa40 ccbd 7d62 e83c d0cc dcbd 366a 35be
00000310: 66a9 21be 5b5b bfbd 4971 b5bc 3a5a 763d
00000320: 2d32 68bd 8995 833c 3e65 8abd 02a4 db3c
00000330: 14f5 163c e454 d43c 1e56 11be 1bee 1c3c
00000340: c7c6 ff3c 2aea 9e3b 748e bbbd 77aa e1bd
00000350: b523 0c3d a667 b33d 1b7d 03bd f54c 23bd
00000360: 9250 21bd ca05 35bd 8033 bbbd abe5 adbd
00000370: b64b f9bd 94b7 bc3c 3169 c13d 202c 25bd
00000380: 72ec 0a3d bf1b c8bd 04ef e4bd eb5c c23c
00000390: c888 dbbd 3e0a 87bd fcc1 e4bd a555 a2bc
000003a0: a3d4 de3c 78b0 38bd 07d9 2f3d 650b 32bd
000003b0: c70c 9dbc 2711 003c 7304 663d e8b0 6d3a
000003c0: 7d9e cabd 4de4 c5bc f66c 82bd c12b fcbd
000003d0: 1659 19bd 1dbb 19be 7035 28bd bc40 6bbc
000003e0: fb6f 70bd dfd6 5abc d8e9 f7bd d22c d43c
000003f0: 671c e7bd 70e6 b2bd b9ee c8bc f88c 9b3b
-0.021071399 -0.0016744755 -0.03995837 -0.010226949 -0.1053096 -0.014452013 -0.2321181 -0.093544334
-0.6222167 0.18800019 -0.010945408 -0.16909897 -0.10609809 -0.46029264 -0.39899567 -0.20848037
-0.19461682 -0.08094109 -0.12041096 -0.07972092 0.053483747 -0.07323141 0.013285784 -0.005042799
-0.22001123 -0.23577581 -0.25501716 -0.03500829 -0.121816866 -0.12265926 -0.07133152 -0.14165765
0.016494341 0.22734231 0.0121208755 -0.19593568 -0.05987054 -0.19954044 -0.35945088 0.21539742
-0.35918212 -0.34793282 -0.28519684 -0.11416104 0.12033094 -0.0720482 -0.3319263 -0.2698634
-0.30894235 -0.30319405 -0.31775397 -0.29221874 -0.5142332 -0.12356832 0.062646136 0.14282058
0.041960165 -0.45634317 -0.3697535 0.0689664 -0.11879469 -0.6035931 -0.017979033 -0.27255014
0.013428583 0.044666104 -0.18397567 -0.29511914 -0.2089581 -0.49927172 0.008804957 -0.32804853
-0.14334615 -0.117244296 -0.4638017 -0.14114466 0.020654019 -0.15251772 -0.40162754 0.20445034
-0.17667183 -0.3740515 -0.048927948 0.036137983 -0.0177407 0.073818564 -0.004860524 -0.28085473
0.0189304 0.1135546 -0.47879162 -0.17625049 -0.02922316 -0.0058645965 -0.029662699 -0.26084664
-0.07031614 0.1831607 -0.03358245 -0.4377076 -0.14229816 -0.36472228 -0.10676579 -0.35823932
-0.20291184 0.13832414 0.116743475 0.08350994 -0.3182779 -0.0490395 -0.10475643 -0.075204045
-0.23323359 -0.0015370096 0.10736589 -0.2933291 -0.19227836 -0.28701612 -0.3165241 -0.34178606
0.016125359 -0.26408023 -0.24465658 -0.4454005 -0.5539053 -0.07808558 -0.12179569 -0.53636956
0.017243445 -0.12782855 -0.10143275 -0.1117744 -0.07239486 -0.06487086 -0.056299914 -0.03811455
0.011813039 -0.15227999 0.027271088 -0.14387974 0.04628883 -0.072405785 -0.053310804 0.013786788
-0.017847281 -0.15134053 -0.044655684 -0.037720647 -0.07186645 -0.022375088 -0.12711625 -0.11464623
-0.05665113 -0.10923427 -0.067933396 -0.071937494 -0.008207871 0.019479347 0.07232599 0.03381736
-0.009879902 0.0648183 -0.040281393 -0.09667754 0.0018814284 -0.12645984 0.014710613 0.015110219
-0.023922408 -0.07596155 -0.096101545 -0.14548086 -0.011213607 -0.1409653 -0.019100668 0.040982958
0.022591129 -0.074443586 -0.15563597 -0.09383168 -0.11829642 -0.092632316 -0.019449273 0.03973781
-0.003795302 -0.13607226 -0.092494614 -0.042273782 -0.022093985 -0.014838448 -0.1423904 0.0774087
-0.09973271 0.028367275 -0.107812524 -0.17716298 -0.15787277 -0.093435965 -0.022148745 0.06014464
-0.056688476 0.016062515 -0.06757592 0.026811603 0.009213705 0.025919385 -0.14193007 0.009578253
0.031222714 0.004849692 -0.0915803 -0.11018842 0.03421374 0.08760004 -0.03210173 -0.039868314
-0.03938348 -0.044194974 -0.09140682 -0.08491071 -0.12172644 0.023036756 0.09443892 -0.040325284
0.033916898 -0.09770917 -0.11178401 0.023725947 -0.10719448 -0.065937504 -0.11169812 -0.01981623
0.027201002 -0.04509017 0.042931583 -0.043467898 -0.019171132 0.007816589 0.056156587 0.00090671936
-0.098935105 -0.024156714 -0.06368439 -0.12313033 -0.037438475 -0.15012784 -0.041066587 -0.014358696
-0.058700543 -0.013356893 -0.12105149 0.025900278 -0.11284714 -0.08735359 -0.024527894 0.0047470294

net.2.bias f4 [128]
00000000: 049a 9f3d 1ad8 f5bd d48a 72bd 2a7e 633e
00000010: 700f 113f 4b08 a33e 52eb 0a3e a812 2d3f
00000020: 02e6 493c 1f5b 8f3d de2a 613d e817 29be
00000030: e551 da3c 1342 543d 21ad 6b3d 28b0 2fbe
00000040: a339 48bd 49f0 513f 8796 3bbe 73f0 1d3e
00000050: 7a58 003f 8de0 ac3d 7c09 d33d 98c1 343d
00000060: d5f8 593e 7d9c 97b8 d4b8 b43a a396 b83e
00000070: 7698 123e 8efb 2bbd 93e9 0cbe 925d a93e
00000080: b247 09be 9901 d0bd 7128 a7bc d0d6 9b3d
00000090: 0650 c63d 3953 bebd 083e cdbd 8f73 a73e
000000a0: 163b bcbd e800 02be 9da6 a03e c574 a7bd
000000b0: d2f8 ba3e e448 003f c0b1 eebd 5a2b 9d3d
000000c0: cc49 2d3e 1349 223e a361 acbc 3096 093e
000000d0: cf1b fb3d 1bb6 38be bb96 59be 583b 853e
000000e0: 637a bf3e c859 183c 7e30 8b3e b496 423f
000000f0: 6724 fc3d 04d2 4bbe a31d f53c 9d12 b83b
00000100: 018f 8c3e 7b2d 113e 1ff0 5e3d 954d 2abd
00000110: 0f93 06bd f92d 273e 89bc b1bc a923 29bd
00000120: dd3c 0a3e a247 473f 206e 813e d16c 3a3d
00000130: 2173 f33d 3777 dd3d 089b ddbd 2812 663e
00000140: 70ee 003c cfae a3be a5f6 8bbd 2a67 f83d
00000150: acb8 213e 03be 6d3e 987c 6c3d 65fc 893e
00000160: f498 0bbe 25d9 413e 104d 0d3e 9138 ec3e
00000170: f1ff 84be 9fa6 603f 77cb f43e dc1b 423d
00000180: cfcd 5cbe 217c 3fbd 6ffd bebd 54d2 62bd
00000190: d98e 6a3d e116 203e fddb 373f 53d0 c3bd
000001a0: 6281 953e 666e c33d d8f7 3b3e 1f69 8e3d
000001b0: 5759 67bd b7f8 153f 7d1a 643e 4395 47bc
000001c0: 081f 183f c0b0 febd 9248 1d3f 987d 3b3f
000001d0: 6705 dfbc a492 16be 7bd5 5fbc 15e9 78be
000001e0: a618 bc3e 3505 773e 31c0 98bc 9632 f23e
000001f0: 1cd5 cd3e 266c c8bd bdcd 23bd e57a 743e
0.07793048 -0.12004109 -0.059214428 0.22216097 0.5666418 0.31842265 0.1356633 0.6760659
0.012322905 0.06999802 0.054972522 -0.16513026 0.026650378 0.051820826 0.057538155 -0.17157042
-0.04888309 0.8200727 -0.1831914 0.15423755 0.50135005 0.08441267 0.103045434 0.044129938
0.21286328 -7.229389e-05 0.0013787993 0.36052427 0.14315972 -0.041987948 -0.13760976 0.330792
-0.13406256 -0.10156555 -0.020405026 0.076093316 0.09683232 -0.09293217 -0.10021597 0.32705352
-0.09190957 -0.12695658 0.31377116 -0.08176569 0.3651796 0.5011122 -0.11654997 0.07674284
0.16922683 0.15848188 -0.02104265 0.13436198 0.122611634 -0.18038218 -0.21248905 0.26021838
0.3739806 0.009298749 0.27185434 0.76011205 0.12311631 -0.19904333 0.029921358 0.0056174533
0.27452853 0.14177506 0.054428216 -0.041577894 -0.03285509 0.16326131 -0.021696346 -0.041293774
0.1349978 0.7784368 0.2527933 0.04551393 0.118871935 0.10813754 -0.108205855 0.22467864
0.007869348 -0.31969306 -0.06834153 0.12129052 0.15793103 0.23217015 0.05773601 0.26950374
-0.13632566 0.1893049 0.13798928 0.46136907 -0.25976518 0.87754244 0.4781148 0.04738985
-0.21562885 -0.046749238 -0.09325682 -0.055376366 0.057265136 0.15633728 0.7182005 -0.09561219
0.29200274 0.09542541 0.18356264 0.06953644 -0.056481685 0.58582634 0.2227573 -0.012181583
0.5942235 -0.12436056 0.6143886 0.73238516 -0.027224256 -0.14704376 -0.013661738 -0.24307664
0.36737555 0.2412308 -0.018646332 0.4730422 0.40201652 -0.09786253 -0.03999113 0.23875006

net.4.weight f4 [6, 128]
00000000: 60a3 36be 9f21 f1bc 942b 33bb 362b e3bd
00000010: 9441 b2bd 902c 203d 1dec 893e 8903 3b3e
00000020: 2734 86bb 0768 f1bd 5fb1 143e 4f6f b8bd
00000030: 3052 8f3b d9f1 93bd 6438 c73d 8226 323e
00000040: 1c55 0abd ca57 a4bc f6b9 463e 57ce e0bc
00000050: 0dc8 493d b965 11be 9dcd 983d 22e2 0bbe
00000060: 7ea7 fd3d 224f 733d b093 b1bc b8da 58bd
00000070: 7700 593d f693 fd3d d91a 81bd d501 6b3c
00000080: f853 45be eb26 b6bd a06e 90bd 910c 8abd
00000090: b111 6ebc 6d60 0bbd fee8 b4bd c94f 3a3d
000000a0: bd8a 59be f166 f8bd 126f 503e a968 c1bd
000000b0: d51d 4f3e fd58 513e 40d4 073d 1254 2e3e
000000c0: 48c7 183d e5c2 933d 2435 0d3c 3031 c23d
000000d0: b8a3 da3d 715a 27bc 638c 17be 9fce 153e
000000e0: eff6 593e efaa 213c 7422 ac3e 5714 b1bc
000000f0: c128 eabb ef6a d43d 275c 87bd f655 3e3d
00000100: 4389 663d 9c27 063e 985f 993e ceff 3abd
00000110: 131d d93d 5f41 85bd 8e7e 47be 3977 d7be
00000120: 60d2 17bd 11b8 0d3e 62d1 a83d 4ccf 5d3e
00000130: 866b f83d 95d3 30bd 3d27 05bd 3a5b b63b
00000140: ae4f 533d caa0 7abe cbad a3bc 02ab 0a3e
00000150: 8168 a838 5bb1 00be a306 25bc c56a a3bc
00000160: 7a4f 603e d44d 74bd e22d 19bd 2def 86bd
00000170: e99e 44bc d92a 803e 6aa9 34bc 9ced 24bc
00000180: 0603 29be 71f4 96bd 9fd2 d53d 4401 0bbc
00000190: 2b9a a8bd c210 823b e471 033d af81 8d3e
000001a0: 9190 28bb e412 3dbd 9959 0ebe 7a60 da3d
000001b0: bb48 813d 9e2c 823d a05a 5dbc e046 3abd
000001c0: 9e5b 803d 3908 873d 6fef 8c3d 5109 bc3d
000001d0: cbd8 213e b4d9 61bd 2418 b33d 6498 ad3d
000001e0: a115 7abd 2f25 bcbe 0ccd 14be a795 00bd
000001f0: edc0 b93c dee8 a5bd f5c9 893d c281 a0bc
00000200: 752d 143e 0512 a0bd cf1e 3a3e 7b93 293e
00000210: 70b9 dd3b 7b3a f53c 0f59 99be ecbc 603e
00000220: 02aa b43d c768 5c3d 109e e2bd b949 48bd
00000230: 77a5 893d 422d d8bd 51c6 df3d 3838 59be
00000240: 2dd9 17bc 43c0 8c3a 46fc 9b3d 2e0d bd3d
00000250: a769 b83c 344c 25be 88f3 423e 4309 e83d
00000260: a8ac c63d 07fd d1bc 02fc 213d ef7b 763e
00000270: b7ff 593e e09a d8be 734a 633d 8f84 aa3d
00000280: 85af 373e 686e 52bc 2170 b4bd 0f80 353e
00000290: fedb 2a3d 4594 973d da28 b03d ec59 87bd
000002a0: d8d9 7dbc fea3 e43d 0b60 a83d 8708 253c
000002b0: 894a 11be 14d5 babd 7653 4abd 17bb 963e
000002c0: 2542 b33d 2e03 a93d 3a9f e03e 9ffa 713d
000002d0: 9bd0 e9bd 4fbd 98be f81f d03d 6269 1abb
000002e0: fae3 cb3d 6e16 f73d 0d52 883d ce40 063e
000002f0: cbb2 d3bd d41e a6bd 274e 83bd 7967 4f3e
00000300: 5acf 943d ada9 b6bc da39 923e 74fe acbd
00000310: 6aab 3f3d 5866 68bd 5145 393e 9d71 36bd
00000320: bf95 083e ccd6 453d a07b a73d 5cbb a5bd
00000330: 6493 fc3d 0a5a 343d b788 463d bb3f ec3c
00000340: c1a5 46be 3808 44be a3b4 63bd 532c 31bd
00000350: e19d 0d3e 7c17 993d a49c 92be 7f3b 2e3d
00000360: cbb0 88bc 4d2d e7bd 2669 fdbd 7dff 92bc
00000370: 5bd0 28be f2ac 9a3e cc99 bcbb bd39 4cbd
00000380: 1e39 b8bd 053d 7bbe 42f7 09bf 4151 b5bc
00000390: 96d4 4f39 f2ef fb3d 4780 ee3c a2d3 24be
000003a0: 7c7d bc3c bba2 05be d32a 5abd 33d9 09be
000003b0: 6678 223e 6577 373e 1c44 a33c e358 293d
000003c0: 922e 3e3e 1dab 9e3d 159f a13d bbe7 503a
000003d0: 0250 57bc ff03 c83d 7a12 93bc 7c1d 4b3d
000003e0: 2d27 b13b 655a 813d 5fce be3d 2429 1dbe
000003f0: f878 143c 5784 fcbd 3f50 b23d 7a0f be3d
-0.1783576 -0.029434977 -0.0027339207 -0.11092226 -0.08703914 0.039104998 0.26937953 0.18263067
-0.0040955725 -0.1178742 0.14520787 -0.090056054 0.004373811 -0.07223863 0.097275525 0.17397502
-0.033772573 -0.020061392 0.19406876 -0.02744214 0.04926305 -0.1419896 0.074610926 -0.13660482
0.12385462 0.05940164 -0.021676868 -0.05294296 0.05297896 0.12381737 -0.06303949 0.0143436985
-0.19270313 -0.08894142 -0.0705235 -0.06740678 -0.014530585 -0.034027506 -0.08833502 0.045486245
-0.2124433 -0.121290095 0.2035487 -0.094437905 0.20226224 0.20444103 0.0331614 0.17024258
0.037299424 0.072149076 0.008618627 0.09482038 0.10675758 -0.010214434 -0.14799647 0.14629601
0.21285604 0.009867414 0.33620036 -0.021616144 -0.0071459715 0.103719585 -0.066093735 0.046468697
0.056283247 0.13101047 0.29955745 -0.04565411 0.106012486 -0.06506609 -0.1948187 -0.42083147
-0.037065864 0.13839747 0.082430616 0.21661109 0.121298835 -0.04317053 -0.032508124 0.0055650743
0.05158966 -0.24475399 -0.019980332 0.13541797 8.0303296e-05 -0.12567656 -0.010072383 -0.019948373
0.21905318 -0.059644535 -0.037397273 -0.06588588 -0.012000778 0.2503269 -0.01102672 -0.010066416
-0.1650506 -0.07370842 0.104405634 -0.0084841885 -0.0823253 0.003969283 0.032091036 0.27638003
-0.0025720934 -0.046160594 -0.13901366 0.10662933 0.063127 0.06356166 -0.013510376 -0.045477748
0.062674746 0.06593365 0.06881606 0.091814645 0.15805356 -0.05513926 0.08744839 0.08476332
-0.061055783 -0.3674712 -0.14531344 -0.03139272 0.022675002 -0.081010565 0.06727973 -0.019593123
0.14470465 -0.07815937 0.18175815 0.16560166 0.0067664906 0.029935112 -0.2995076 0.21947068
0.08821489 0.05381086 -0.11065304 -0.048898432 0.06721013 -0.10555507 0.10926498 -0.21212852
-0.009268087 0.0010738451 0.07616477 0.092310295 0.022511316 -0.1614235 0.19038212 0.113298915
0.097009 -0.025633348 0.039546974 0.24070714 0.21288954 -0.4230566 0.055490922 0.08326065
0.17938049 -0.012843706 -0.088104494 0.17724632 0.041713707 0.07401327 0.08601542 -0.06608948
-0.0154938325 0.111640915 0.08221444 0.010072834 -0.14188589 -0.09122673 -0.049396 0.29439613
0.087528504 0.082525596 0.4387148 0.0590769 -0.114167415 -0.2983193 0.101623476 -0.0023561348
0.099555925 0.12064825 0.06656275 0.13110659 -0.103368364 -0.08111349 -0.06411391 0.20254315
0.07266112 -0.022297705 0.28559762 -0.084469706 0.046794333 -0.056738228 0.18092848 -0.044541944
0.13338374 0.04830055 0.081778765 -0.080923766 0.123328 0.04403118 0.048470225 0.028838983
-0.19399168 -0.1914376 -0.05559219 -0.04325516 0.13829757 0.074751824 -0.28635132 0.04253721
-0.016685864 -0.11287937 -0.12373571 -0.017944092 -0.16485731 0.30210072 -0.0057556387 -0.04985975
-0.08995269 -0.24534996 -0.5389291 -0.022133471 0.00019820253 0.12301625 0.029113902 -0.16096357
0.023009054 -0.13050358 -0.053263497 -0.13461761 0.15866241 0.17916639 0.019929938 0.041344535
0.18572453 0.07747481 0.078916706 0.0007969101 -0.013141634 0.09766387 -0.017953146 0.049588665
0.0054062814 0.063160695 0.09316706 -0.15347725 0.009062044 -0.12329929 0.08706712 0.09280296

net.4.bias f4 [6]
00000000: da6e bb3e c977 813d 8cd8 063e 432d 283e
00000010: fe69 62bf e602 4abf
0.3660801 0.06321675 0.13168544 0.16423516 -0.8844298 -0.7891067
