results/double_dqn/seed_44/double_dqn.pt (torch, 233784 bytes, 7 tensors)

embed.weight f4 [500, 64]
1.5861957 1.1253029 1.8305902 0.112888336 0.49761096 1.5009665 -0.14131775 -0.35217977
-0.16429015 -1.1650665 -0.40887636 -0.52516896 -1.3152609 0.6031242 -0.81239426 0.5919633
-1.2265651 -0.95976996 1.7117974 -0.0145567665 0.42520776 -1.3445578 1.6114134 0.5913664
0.16443714 1.2514036 0.517298 -0.807782 -2.07878 0.63696945 1.3823913 -0.9156325
1.1542255 0.11568145 -1.1982815 0.36140501 -1.031004 1.1452316 -0.4179065 -0.8037769
0.21264301 -0.93654275 -1.1458497 0.22645094 0.49913412 0.21053821 -1.5852431 0.5976823
0.44741717 -1.1745619 -0.026375288 -1.7856834 -0.13448842 -0.18892545 -0.32286948 1.339824
0.39540324 -1.0873433 -0.671043 -0.10979993 1.9250481 -0.02672608 -0.34329283 -1.1224879
1.6222507 -0.32030272 -0.6997362 -0.7336055 1.17476 1.361929 0.739659 -0.6079416
1.2605255 -1.0223143 -0.62724143 -0.1318648 0.22100504 -0.3598685 0.6076987 0.09535072
-0.00017961624 0.2803164 0.29521257 -0.79552853 -2.6948667 -1.2275084 0.817617 -2.449704
0.40252876 0.8902209 -0.83802736 2.383545 -0.20289718 -0.39895874 0.70436126 1.1734533
0.555321 -0.4283207 -0.27991632 -0.40725794 1.6671295 0.1979939 -0.54985154 -0.14378665
-0.72954035 1.7323258 0.22635879 0.4658624 -0.3549951 0.15606569 0.22471978 -2.2477748
-0.6094914 -0.52518797 0.53741676 -0.14974637 -0.10935087 -0.29044348 -0.6609117 1.0716187
-1.0547955 -1.2597692 0.34165728 -0.26148865 -1.6598415 -0.30531043 0.39906892 -1.5408545
0.18968244 0.45322597 0.93030167 -0.005366376 -1.2080756 -0.71461266 0.47940567 0.8500691
-0.32075027 1.7651567 0.5111359 0.084617704 -0.76904315 0.49995574 -0.013134286 0.5135669
-0.15127692 -0.1871973 0.17272156 -0.18057907 -0.6307856 1.58675 -0.127486 -0.8086936
1.1176959 0.5158134 0.010741662 -0.33760518 1.1620728 0.707119 -0.27053642 0.11014867
-0.57155555 0.9417759 0.80093086 0.28007337 0.50880814 -0.8812131 -1.8734826 -0.97948456
-1.0724149 -1.5228187 -1.8740337 0.56457675 -0.91729814 0.54988694 0.8812015 -0.28443342
0.38522875 0.055118293 -1.3560971 -0.2817888 -1.3678235 -0.30406383 1.0588107 -0.99101025
-0.18003105 -1.3811301 0.35890275 0.5648869 -1.0867938 -0.5713879 0.9691586 0.26622534
-0.5787026 0.035979275 0.2300271 0.14600019 -1.0689065 -0.9217611 -0.3776171 0.10568491
1.5081503 0.56749827 0.54103017 0.2789879 0.18395798 -0.25553876 -0.8399836 -0.95039654
-0.6209931 -0.030331867 -0.77552474 -0.8607872 1.3615721 0.4171962 0.54314935 0.18206978
-0.984842 0.124377005 0.55275065 -0.013477287 1.745581 0.892589 -0.98442453 0.3368326
0.88606775 -0.07893055 -0.71269095 0.63586587 0.5417977 0.16305526 -1.0667809 0.16812596
0.7463069 -0.97765243 0.0033571268 1.3652765 -1.0488242 -0.7781898 0.51212454 0.05578541
0.07874961 2.499745 0.70158595 -1.5047752 -0.38452026 -1.2163851 2.0060103 0.5361134
0.41599074 -0.86945266 -0.046172835 0.22372584 -1.1732682 0.4550977 0.45185262 -0.051209543
00000000: 7608 cb3f ed09 903f c850 ea3f 0032 e73d
00000010: ddc6 fe3e ac1f c03f 9ab5 10be e850 b4be
00000020: ad3b 28be e620 95bf 3e58 d1be 7971 06bf
00000030: 785a a8bf 5966 1a3f 12f9 4fbf e88a 173f
00000040: 1600 9dbf 7cb3 75bf 2d1c db3f 817f 6ebc
00000050: d5b4 d93e 781a acbf cb42 ce3f ca63 173f
00000060: 3662 283e fe2d a03f a46d 043f cdca 4ebf
00000070: bb0a 05c0 6e10 233f 33f2 b03f e466 6abf
00000080: a9bd 933f 65ea ec3d 4a61 99bf 140a b93e
00000090: f0f7 83bf f396 923f d7f7 d5be 53c4 4dbf
000000a0: 17bf 593e 44c1 6fbf 34ab 92bf c1e2 673e
000000b0: 828e ff3e 5497 573e 3fe9 cabf b501 193f
000000c0: dd13 e53e 0b58 96bf fd10 d8bc 4691 e4bf
000000d0: 55b7 09be ac75 41be 264f a5be 5a7f ab3f
000000e0: 4b72 ca3e 112e 8bbf 79c9 2bbf c9de e0bd
000000f0: fa67 f63f a7f0 dabc 14c4 afbe afad 8fbf
00000100: e9a5 cf3f b8fe a3be e921 33bf 92cd 3bbf
00000110: 895e 963f b153 ae3f 4b5a 3d3f 10a2 1bbf
00000120: e658 a13f 32db 82bf e592 20bf 9107 07be
00000130: 254f 623e af40 b8be 2492 1b3f 3d47 c33d
00000140: 5e57 3cb9 a285 8f3e 1a26 973e c2a7 4bbf
00000150: b278 2cc0 ff1e 9dbf 594f 513f f3c7 1cc0
00000160: 4018 ce3e 84e5 633f f688 56bf 008c 1840
00000170: 47c4 4fbe 5244 ccbe 0551 343f b833 963f
00000180: 8429 0e3f da4c dbbe 3151 8fbe 1d84 d0be
00000190: 8064 d53f eabe 4a3e 12c3 0cbf cf3c 13be
000001a0: 28c3 3abf dabc dd3f 99ca 673e 8485 ee3e
000001b0: ebc1 b5be afcf 1f3e f11c 663e 8bdb 0fc0
000001c0: a107 1cbf b872 06bf 2594 093f 1d57 19be
000001d0: 59f3 dfbd 02b5 94be 8231 29bf cd2a 893f
000001e0: 8a03 87bf 1e40 a1bf b4ed ae3e d7e1 85be
000001f0: b075 d4bf a651 9cbe c352 cc3e b83a c5bf
00000200: 1d3c 423e 3c0d e83e 4028 6e3f 6dd8 afbb
00000210: 39a2 9abf dbf0 36bf a974 f53e 219e 593f
00000220: 6139 a4be a8f0 e13f cdd9 023f 0c4c ad3d
00000230: 03e0 44bf 33fa ff3e 3031 57bc 1f79 033f
00000240: 56e8 1abe a6b0 3fbe ecdd 303e b8e9 38be
00000250: 2a7b 21bf a01a cb3f b18b 02be 8b06 4fbf
00000260: a910 8f3f 590c 043f ccfd 2f3c 96da acbe
00000270: cdbe 943f c005 353f c083 8abe a095 e13d
00000280: 7751 12bf 3a18 713f ce09 4d3f c765 8f3e
00000290: 4041 023f 2f97 61bf 47ce efbf 80bf 7abf
000002a0: e444 89bf b9eb c2bf 56e0 efbf 1a88 103f
000002b0: 0dd4 6abf 64c5 0c3f 6c96 613f 42a1 91be
000002c0: b43c c53e b8c3 613d 9794 adbf 9f46 90be
000002d0: d714 afbf 41ae 9bbe 1c87 873f d9b2 7dbf
000002e0: 0f5a 38be dfc8 b0bf 1ac2 b73e 6e9c 103f
000002f0: 0f1c 8bbf 7a46 12bf c71a 783f b04e 883e
00000300: db25 14bf 015f 133d 398c 6b3e 1381 153e
00000310: eed1 88bf 89f8 6bbf 0757 c1be 5571 d83d
00000320: 120b c13f 9147 113f f480 0a3f 81d7 8e3e
00000330: 7b5f 3c3e fad5 82be 2a09 57bf 304d 73bf
00000340: 67f9 1ebf 897a f8bc ca88 46bf 8d5c 5cbf
00000350: ff47 ae3f be9a d53e d60b 0b3f 8070 3a3e
00000360: 9b1e 7cbf 5fb9 fe3d 1181 0d3f d7cf 5cbc
00000370: 336f df3f b680 643f 3f03 7cbf 5375 ac3e
00000380: 56d5 623f 57a6 a1bd ea72 36bf 1bc8 223f
00000390: 41b3 0a3f f5f7 263e 478c 88bf 3629 2c3e
000003a0: f80d 3f3f 6e47 7abf 3e03 5c3b 61c1 ae3f
000003b0: df3f 86bf 7237 47bf 981a 033f 3e7f 643d
000003c0: 7a47 a13d d2fb 1f40 239b 333f 799c c0bf
000003d0: d7df c4be 82b2 9bbf 7962 0040 ba3e 093f
000003e0: bdfc d43e 7394 5ebf ba1f 3dbd 6318 653e
000003f0: a72d 96bf 9102 e93e 3a59 e73e 19c1 51bd

net.0.weight f4 [128, 64]
0.09548643 0.22187434 0.09537165 0.0656978 0.5516599 0.22919057 -0.040098287 0.033003833
0.019946529 0.17670068 -0.054983534 -0.123980336 -0.105411746 -0.2807926 0.2093784 -0.4852073
0.1886453 0.09344782 0.08318798 0.2393281 -0.34011987 0.014903487 -0.14242433 -0.07477794
-0.0716954 -0.13369463 -0.0824635 0.22664124 0.0483769 -0.19387364 0.055849407 0.16557129
-0.013283491 -0.0012611402 0.025384542 -0.055540666 0.1488476 -0.28879303 -0.16185986 -0.006935705
-0.44074386 -0.07506311 -0.31510168 0.1489316 -0.14362931 -0.13477217 -0.34218344 0.027649676
0.121975206 0.19227587 0.53601193 -0.01809952 -0.13405515 0.018738596 -0.088284045 -0.18528646
-0.29522702 -0.10515457 -0.09961402 0.32654878 -0.32350668 0.15197878 0.05457926 0.0931268
-0.20747222 0.00296508 0.31554756 0.034893986 -0.053231806 0.05105007 0.15556124 -0.438843
0.24388176 0.0044174567 0.0782828 0.27565873 -0.022114621 0.11705531 0.025688037 -0.1360953
0.19597343 0.044410437 -0.036235504 0.22043063 0.2754424 0.056851134 0.22658344 0.17609283
-0.010122435 -0.14138167 0.20651948 0.37091267 0.16265093 -0.094531655 0.45300817 -0.07713219
0.42476422 0.122367136 -0.13193864 -0.18705505 -0.5094999 -0.1459442 -0.32573473 -0.14304456
0.08671705 -0.055946942 -0.48660472 -0.13714555 -0.31168273 0.27436432 0.45996732 0.15564644
0.11739115 -0.17068534 0.356691 0.22194232 -0.108756535 -0.11345398 -0.24294633 -0.1637169
0.0070739924 0.31572452 0.071054 0.17081062 -0.2674045 0.06717352 0.018210087 0.079640344
-0.024367591 -0.042545404 -0.014047461 0.15615949 -0.2662023 -0.15763961 0.049262993 0.18037985
-0.0068246583 0.27014896 0.15910539 -0.045539286 -0.02902869 -0.14484067 0.2878232 0.14963727
-0.026392546 0.06996165 0.16649042 0.24258214 0.060816262 0.101322174 0.024022317 -0.20402904
0.027213966 0.20594856 0.04300929 -0.20548904 0.124208815 0.28898844 -0.0439711 -0.1522326
-0.08214639 0.089770764 -0.08420488 0.20036101 -0.014844114 0.088870116 -0.16233216 -0.013659445
0.2038414 -0.30968305 0.048795372 0.016114336 -0.05909005 0.15342186 0.11006505 0.074748755
0.022036964 0.077284984 0.020807588 -0.105646126 -0.09285789 -0.2747516 0.36443216 -0.04856981
0.031663008 -0.15085287 -0.083672106 -0.12743329 -0.1451659 -0.15258545 -0.08230948 0.07224576
-0.0048147487 0.20465694 -0.15584558 -0.36324632 -0.08255402 0.110561855 0.041194834 0.13996103
0.0051908847 0.024621943 -0.18585931 -0.05804762 0.10110263 -0.36181194 0.009495444 -0.14660862
0.20737335 -0.23762143 -0.035321895 -0.12291817 -0.02377484 -0.0263951 -0.19088148 -0.035754118
0.16796318 0.013950988 -0.11653847 -0.23381877 0.008522782 0.1448629 0.4327683 0.020001177
0.05948017 0.055442285 0.20066911 0.080399275 -0.20076375 0.06107268 -0.14428182 -0.20993033
0.065794766 -0.45704597 0.17458676 -0.4253193 0.23108004 -0.14725557 -0.014396584 0.18250522
0.22229458 0.00079256174 0.0036071902 -0.10116728 -0.12980722 0.14491172 -0.13995023 0.10741803
0.104565024 -0.41978604 -0.29436535 -0.17969048 0.17728004 -0.08412471 -0.031768896 0.12225081
00000000: 648e c33d 0733 633e 3652 c33d 918c 863d
00000010: 9539 0d3f efb0 6a3e 1a3e 24bd 072f 073d
00000020: e766 a33c 06f1 343e 6a36 61bd 67e9 fdbd
00000030: 1de2 d7bd 0cc4 8fbe 4b67 563e 176d f8be
00000040: 3c2c 413e 9261 bf3d 765e aa3d 6d12 753e
00000050: 3124 aebe c12d 743c afd7 11be 2d25 99bd
00000060: 0ad5 92bd 3fe7 08be a0e2 a8bd a414 683e
00000070: db26 463d d086 46be 59c2 643d 858b 293e
00000080: 00a3 59bc d84c a5ba 3ef3 cf3c 9c7e 63bd
00000090: 816b 183e aedc 93be 97be 25be e944 e3bb
000000a0: 2ea9 e1be b0ba 99bd 0255 a1be 8681 183e
000000b0: 9013 13be b701 0abe ab32 afbe 9381 e23c
000000c0: 23ce f93d f7e3 443e 1438 093f 7245 94bc
000000d0: c145 09be af81 993c 44ce b4bd bcbb 3dbe
000000e0: ff27 97be 475b d7bd 6f02 ccbd 6731 a73e
000000f0: aba2 a5be 53a0 1b3e 818e 5f3d 44b9 be3d
00000100: 9973 54be ca51 423b 738f a13e ffec 0e3d
00000110: 9809 5abd e119 513d 724b 1f3e 08b0 e0be
00000120: 24bc 793e 50c0 903b bc52 a03d 2423 8d3e
00000130: b929 b5bc b2ba ef3d b86f d23c 915c 0bbe
00000140: 42ad 483e b8e7 353d ae6b 14bd 91b8 613e
00000150: c906 8d3e bcdc 683d 7d05 683e ae51 343e
00000160: 92d8 25bc 5bc6 10be d879 533e 44e8 bd3e
00000170: f78d 263e d099 c1bd b0f0 e73e 7bf7 9dbd
00000180: b27a d93e 9f9b fa3d ec1a 07be 5c8b 3fbe
00000190: 966e 02bf 6572 15be b4c6 a6be 467a 12be
000001a0: b598 b13d 9f28 65bd 4124 f9be e26f 0cbe
000001b0: e194 9fbe 7b79 8c3e d680 eb3e c861 1f3e
000001c0: c56a f03d 23c8 2ebe 34a0 b63e d944 633e
000001d0: bfbb debd 8f5a e8bd ecc6 78be 67a5 27be
000001e0: f3cc e73b a5a6 a13e c284 913d fbe8 2e3e
000001f0: 3ee9 88be 4592 893d 522d 953c 7a1a a33d
00000200: 8b9e c7bc 1744 2ebd 5227 66bc 46e8 1f3e
00000210: ab4b 88be 476c 21be fec7 493d 7fb5 383e
00000220: 62a1 dfbb f750 8a3e 86ec 223e 6787 3abd
00000230: 93cd edbc 1d51 14be 905d 933e 833a 193e
00000240: 2e35 d8bc 0e48 8f3d 777c 2a3e 7467 783e
00000250: 791a 793d 0082 cf3d 73ca c43c fdec 50be
00000260: d3ef de3c 2ee4 523e 822a 303d b86b 52be
00000270: 3161 fe3d 4bf6 933e 0a1b 34bd dde2 1bbe
00000280: 5e3c a8bd bcd9 b73d 9c73 acbd 702b 4d3e
00000290: ba34 73bc 8901 b63d 673a 26be ddcb 5fbc
000002a0: cdbb 503e c78e 9ebe a8dd 473d 3602 843c
000002b0: 6908 72bd 9f1a 1d3e c969 e13d e015 993d
000002c0: dd86 b43c 9747 9e3d ad74 aa3c ff5c d8bd
000002d0: 472c bebd 3eac 8cbe da96 ba3e 23f1 46bd
000002e0: 12b1 013d 2d79 1abe 485c abbd df7d 02be
000002f0: 5fa6 14be 5c3f 1cbe df91 a8bd 96f5 933d
00000300: 0ac5 9dbb 9791 513e fc95 1fbe 6cfb b9be
00000310: 1512 a9bd 416e e23d eabb 283d f251 0f3e
00000320: 4c18 aa3b f5b3 c93c e751 3ebe 57c3 6dbd
00000330: e50e cf3d 6a3f b9be c792 1b3c 9220 16be
00000340: ae59 543e 0853 73be b1ad 10bd 86bc fbbd
00000350: 74c3 c2bc 893a d8bc 6f76 43be e972 12bd
00000360: 8afe 2b3e af92 643c b9ab eebd 306e 6fbe
00000370: 23a3 0b3c f156 143e ce93 dd3e 82d9 a33c
00000380: 7ba1 733d 7317 633d 347c 4d3e 60a8 a43d
00000390: 0395 4dbe 5927 7a3d 9dbe 13be faf7 56be
000003a0: 68bf 863d ee01 eabe dfc6 323e 74c3 d9be
000003b0: 3fa0 6c3e 2aca 16be a6df 6bbc a6e2 3a3e
000003c0: 31a1 633e ebc3 4f3a 9c66 6c3b ca30 cfbd
000003d0: 2fec 04be bd63 143e 1d4f 0fbe fcfd db3d
000003e0: 3026 d63d 32ee d6be 0eb7 96be c800 38be
000003f0: e688 353e 9349 acbd 1a20 02bd a25e fa3d

net.0.bias f4 [128]
-0.078653626 0.12763608 -0.617553 -0.54143137 -0.07358776 -0.21306457 -0.47749987 -0.15008059
0.6141701 -0.17803377 -0.042661786 -0.089787185 -0.102961525 0.071051225 -0.46482465 0.23039427
-0.6290906 -0.18319972 0.48617026 -0.09765549 -0.9269142 -0.34370267 0.08359892 -0.1724079
0.056966856 0.12883407 -0.39015532 -0.17925793 -0.16628417 -0.20690459 0.07238129 -0.31164446
-0.69252145 -0.4080514 0.16079493 -0.12406404 -0.51391435 0.01978827 -0.23457521 -0.46720955
-0.14585848 -0.43842256 0.019371979 -0.1033155 -0.026806869 -0.46456638 0.26930913 0.0098068835
-0.12841979 0.120219484 0.1616907 -0.37351415 -0.3335356 -0.056948993 -0.5006311 -0.31659818
0.19782493 0.74370074 0.031335846 -0.2403732 -0.03453676 0.26874655 -0.5297027 0.11798072
-0.3603041 -0.311838 -0.22112285 0.3303059 -0.17705144 -0.18881288 -0.35057047 -0.015629323
-0.42450535 -0.055563014 -0.13575216 -0.6001747 -0.0962506 -0.26775143 0.005678972 -0.11627786
0.10370385 -0.27019003 -0.41161245 -0.28022113 -0.1371566 -0.4103201 0.23072638 0.1107479
-0.36585432 -0.678542 -0.31186238 -0.24104367 -0.3735363 -0.44755462 -0.46285322 -0.0288211
-0.4860719 -0.38907188 -0.36120448 -0.12196045 -0.15093715 0.22459622 -0.4002189 0.1714541
-0.10206151 -0.35216093 -0.55512637 -0.79811156 -0.3084816 -0.08860635 -0.14844371 -0.44008422
-0.15213111 -0.13701665 -0.14027269 -0.07191899 -0.32824132 0.20893516 -0.35746542 -0.57447755
-0.07240473 -0.037230294 -0.35309115 -0.13823193 0.24991202 -0.7340222 -0.48790082 0.14823118
00000000: 2715 a1bd 08b3 023e f417 1ebf 3f9b 0abf
00000010: 2eb5 96bd 992d 5abe dd7a f4be baae 19be
00000020: 403a 1d3f 7c4e 36be 20be 2ebd 58e2 b7bd
00000030: 7edd d2bd 4e83 913d 7ffd edbe 7aec 6b3e
00000040: 150c 21bf b598 3bbe 4feb f83e 9aff c7bd
00000050: 404a 6dbf ccf9 afbe e935 ab3d b28b 30be
00000060: 1456 693d 14ed 033e 70c2 c7be 648f 37be
00000070: 6646 2abe ccde 53be a43c 943d dd8f 9fbe
00000080: 1649 31bf 1dec d0be 6da7 243e 4a15 febd
00000090: e48f 03bf 031b a23c 7c34 70be 1736 efbe
000000a0: ed5b 15be ec78 e0be fcb1 9e3c 1497 d3bd
000000b0: 149a dbbc a5db edbe e3e2 893e 0dad 203c
000000c0: 7a80 03be a235 f63d 3f92 253e 3f3d bfbe
000000d0: 2ec5 aabe 5943 69bd 5c29 00bf 2819 a2be
000000e0: 9e92 4a3e 2c63 3e3f 045a 003d 6424 76be
000000f0: 6b76 0dbd 2699 893e 999a 07bf e09f f13d
00000100: c779 b8be 3ba9 9fbe 076e 62be db1d a93e
00000110: f94c 35be 2a58 41be f97d b3be 1109 80bc
00000120: c458 d9be 0b96 63bd 9d02 0bbe 0da5 19bf
00000130: 091f c5bd b716 89be ac16 ba3b 1623 eebd
00000140: af62 d43d 5956 8abe debe d2be 2579 8fbe
00000150: c872 0cbe 7a15 d2be 8943 6c3e cccf e23d
00000160: 4251 bbbe eeb4 2dbf 6dac 9fbe 27d4 76be
00000170: 2640 bfbe e125 e5be 19fb ecbe 3a1a ecbc
00000180: 6bde f8be 6e34 c7be cbef b8be 67c6 f9bd
00000190: 458f 1abe 8dfc 653e 7ee9 ccbe aa91 2f3e
000001a0: a005 d1bd 704e b4be c31c 0ebf 0a51 4cbf
000001b0: 4df1 9dbe 3f77 b5bd a101 18be b852 e1be
000001c0: 42c8 1bbe 184e 0cbe a5a3 0fbe 434a 93bd
000001d0: 3f0f a8be 19f3 553e b505 b7be f610 13bf
000001e0: ee48 94bd cb7e 18bd 5dc8 b4be ac8c 0dbe
000001f0: f0e8 7f3e e1e8 3bbf 23ce f9be eac9 173e

net.2.weight f4 [128, 128]
-0.021071399 -0.0016744755 -0.03995837 -0.010226949 -0.1053096 -0.014452013 -0.2321181 -0.093544334
-0.6222167 0.18800019 -0.010945408 -0.16909897 -0.10609809 -0.46029264 -0.39899567 -0.20848037
-0.19461682 -0.08094109 -0.12041096 -0.07972092 0.053483747 -0.07323141 0.013285784 -0.005042799
-0.22001123 -0.23577581 -0.25501716 -0.03500829 -0.121816866 -0.12265926 -0.07133152 -0.14165765
0.016494341 0.22734231 0.0121208755 -0.19593568 -0.05987054 -0.19954044 -0.35945088 0.21539742
-0.35918212 -0.34793282 -0.28519684 -0.11416104 0.12033094 -0.0720482 -0.3319263 -0.2698634
-0.30894235 -0.30319405 -0.31775397 -0.29221874 -0.5142332 -0.12356832 0.062646136 0.14282058
0.041960165 -0.45634317 -0.3697535 0.0689664 -0.11879469 -0.6035931 -0.017979033 -0.27255014
0.013428583 0.044666104 -0.18397567 -0.29511914 -0.2089581 -0.49927172 0.008804957 -0.32804853
-0.14334615 -0.117244296 -0.4638017 -0.14114466 0.020654019 -0.15251772 -0.40162754 0.20445034
-0.17667183 -0.3740515 -0.048927948 0.036137983 -0.0177407 0.073818564 -0.004860524 -0.28085473
0.0189304 0.1135546 -0.47879162 -0.17625049 -0.02922316 -0.0058645965 -0.029662699 -0.26084664
-0.07031614 0.1831607 -0.03358245 -0.4377076 -0.14229816 -0.36472228 -0.10676579 -0.35823932
-0.20291184 0.13832414 0.116743475 0.08350994 -0.3182779 -0.0490395 -0.10475643 -0.075204045
-0.23323359 -0.0015370096 0.10736589 -0.2933291 -0.19227836 -0.28701612 -0.3165241 -0.34178606
0.016125359 -0.26408023 -0.24465658 -0.4454005 -0.5539053 -0.07808558 -0.12179569 -0.53636956
0.017243445 -0.12782855 -0.10143275 -0.1117744 -0.07239486 -0.06487086 -0.056299914 -0.03811455
0.011813039 -0.15227999 0.027271088 -0.14387974 0.04628883 -0.072405785 -0.053310804 0.013786788
-0.017847281 -0.15134053 -0.044655684 -0.037720647 -0.07186645 -0.022375088 -0.12711625 -0.11464623
-0.05665113 -0.10923427 -0.067933396 -0.071937494 -0.008207871 0.019479347 0.07232599 0.03381736
-0.009879902 0.0648183 -0.040281393 -0.09667754 0.0018814284 -0.12645984 0.014710613 0.015110219
-0.023922408 -0.07596155 -0.096101545 -0.14548086 -0.011213607 -0.1409653 -0.019100668 0.040982958
0.022591129 -0.074443586 -0.15563597 -0.09383168 -0.11829642 -0.092632316 -0.019449273 0.03973781
-0.003795302 -0.13607226 -0.092494614 -0.042273782 -0.022093985 -0.014838448 -0.1423904 0.0774087
-0.09973271 0.028367275 -0.107812524 -0.17716298 -0.15787277 -0.093435965 -0.022148745 0.06014464
-0.056688476 0.016062515 -0.06757592 0.026811603 0.009213705 0.025919385 -0.14193007 0.009578253
0.031222714 0.004849692 -0.0915803 -0.11018842 0.03421374 0.08760004 -0.03210173 -0.039868314
-0.03938348 -0.044194974 -0.09140682 -0.08491071 -0.12172644 0.023036756 0.09443892 -0.040325284
0.033916898 -0.09770917 -0.11178401 0.023725947 -0.10719448 -0.065937504 -0.11169812 -0.01981623
0.027201002 -0.04509017 0.042931583 -0.043467898 -0.019171132 0.007816589 0.056156587 0.00090671936
-0.098935105 -0.024156714 -0.06368439 -0.12313033 -0.037438475 -0.15012784 -0.041066587 -0.014358696
-0.058700543 -0.013356893 -0.12105149 0.025900278 -0.11284714 -0.08735359 -0.024527894 0.0047470294
00000000: ed9d acbc 137a dbba 63ab 23bd ef8e 27bc
00000010: 8fac d7bd 23c8 6cbc 5eb0 6dbe 2c94 bfbd
00000020: 9849 1fbf 1f83 403e 5e54 33bc 4828 2dbe
00000030: f549 d9bd 7aab ebbe 2949 ccbe e17b 55be
00000040: a249 47be 71c4 a5bd 059a f6bd b944 a3bd
00000050: c611 5b3d 59fa 95bd 9eac 593c 103e a5bb
00000060: a04a 61be 376f 71be 9c91 82be da64 0fbd
00000070: 1f7b f9bd c734 fbbd 4316 92bd b40e 11be
00000080: 241f 873c 6ccc 683e a396 463c 5da3 48be
00000090: d03a 75bd 5454 4cbe f209 b8be 2491 5c3e
000000a0: b8e6 b7be 4024 b2be 5205 92be 43cd e9bd
000000b0: 1170 f63d 028e 93bd 3ef2 a9be 892b 8abe
000000c0: b12d 9ebe 403c 9bbe a6b0 a2be b29d 95be
000000d0: c9a4 03bf 6311 fdbd 9e4c 803d 8f3f 123e
000000e0: 6cde 2b3d d0a5 e9be 5550 bdbe 423e 8d3d
000000f0: a14a f3bd 1485 1abf c448 93bc b18b 8bbe
00000100: 8f03 5c3c cef3 363d 1e64 3cbe db19 97be
00000110: 1df9 55be 8ba0 ffbe ab42 103c faf5 a7be
00000120: 55c9 12be c71d f0bd 6b77 edbe 3a88 10be
00000130: 9e32 a93c 9b2d 1cbe 20a2 cdbe 6e5b 513e
00000140: 76e9 34be ae83 bfbe ac68 48bd 6c05 143d
00000150: f254 91bc 302e 973d 0845 9fbb 31cc 8fbe
00000160: ed13 9b3c 508f e83d 2d24 f5be 027b 34be
00000170: 6965 efbc cd2b c0bb 30ff f2bc b18d 85be
00000180: e901 90bd 7b8e 3b3e c08d 09bd 361b e0be
00000190: 9cb6 11be e1bc babe 06a8 dabd 256b b7be
000001a0: 1fc8 4fbe d8a4 0d3e 3417 ef3d 4207 ab3d
000001b0: 52f5 a2be a5dd 48bd 8a8a d6bd 9404 9abd
000001c0: c9d4 6ebe 7c75 c9ba a6e2 db3d 3b2f 96be
000001d0: 9ee4 44be c7f3 92be 720f a2be 95fe aebe
000001e0: 5419 843c 8635 87be 4187 7abe 890b e4be
000001f0: bdcc 0dbf 55eb 9fbd 0570 f9bd 844f 09bf
00000200: 2042 8d3c 7de5 02be f9bb cfbd fae9 e4bd
00000210: c243 94bd 03db 84bd bd9a 66bd 011e 1cbd
00000220: 7a8b 413c 49ef 1bbe 9e67 df3c 3655 13be
00000230: 5b99 3d3d 7c49 94bd 6e5c 5abd fbe1 613c
00000240: 7634 92bc 03f9 1abe e1e8 36bd f780 1abd
00000250: b82e 93bd f64b b7bc c32a 02be a5cb eabd
00000260: 040b 68bd 38b6 dfbd aa20 8bbd f753 93bd
00000270: 4e7a 06bc 2793 9f3c a61f 943d 1284 0a3d
00000280: 50df 21bc 75bf 843d 1afe 24bd e0fe c5bd
00000290: 439a f63a b07e 01be c804 713c da90 773c
000002a0: edf8 c3bc bb91 9bbd e3d0 c4bd eff8 14be
000002b0: 47b9 37bc 3559 10be 0179 9cbc bfdd 273d
000002c0: 0811 b93c e175 98bd 095f 1fbe d32a c0bd
000002d0: 6545 f2bd 03b6 bdbd 1554 9fbc 1dc4 223d
000002e0: 9aba 78bb 8756 0bbe d16d bdbd 4627 2dbd
000002f0: 72fe b4bc f61c 73bc cace 11be 7488 9e3d
00000300: aa40 ccbd 7d62 e83c d0cc dcbd 366a 35be
00000310: 66a9 21be 5b5b bfbd 4971 b5bc 3a5a 763d
00000320: 2d32 68bd 8995 833c 3e65 8abd 02a4 db3c
00000330: 14f5 163c e454 d43c 1e56 11be 1bee 1c3c
00000340: c7c6 ff3c 2aea 9e3b 748e bbbd 77aa e1bd
00000350: b523 0c3d a667 b33d 1b7d 03bd f54c 23bd
00000360: 9250 21bd ca05 35bd 8033 bbbd abe5 adbd
00000370: b64b f9bd 94b7 bc3c 3169 c13d 202c 25bd
00000380: 72ec 0a3d bf1b c8bd 04ef e4bd eb5c c23c
00000390: c888 dbbd 3e0a 87bd fcc1 e4bd a555 a2bc
000003a0: a3d4 de3c 78b0 38bd 07d9 2f3d 650b 32bd
000003b0: c70c 9dbc 2711 003c 7304 663d e8b0 6d3a
000003c0: 7d9e cabd 4de4 c5bc f66c 82bd c12b fcbd
000003d0: 1659 19bd 1dbb 19be 7035 28bd bc40 6bbc
000003e0: fb6f 70bd dfd6 5abc d8e9 f7bd d22c d43c
000003f0: 671c e7bd 70e6 b2bd b9ee c8bc f88c 9b3b

net.2.bias f4 [128]
0.07793048 -0.12004109 -0.059214428 0.22216097 0.5566342 0.3150266 0.1356633 0.67728776
0.012322905 0.06999802 0.055787332 -0.16513026 0.032250017 0.051820826 0.053190738 -0.17157042
-0.04888309 0.8242962 -0.1831914 0.15423755 0.5103081 0.08441267 0.10258059 0.044129938
0.21286328 -7.229389e-05 0.0013787993 0.3660776 0.13696386 -0.041987948 -0.13760976 0.32958457
-0.13406256 -0.10156555 -0.020405026 0.076093316 0.09683232 -0.09293217 -0.10021597 0.30052707
-0.09190957 -0.12695658 0.3128553 -0.08176569 0.36894605 0.5031865 -0.11654997 0.07674284
0.1740107 0.15848188 -0.008148455 0.13436198 0.122611634 -0.18038218 -0.22577305 0.26896226
0.3833394 0.009298749 0.27338427 0.761599 0.12311631 -0.19904333 0.029921358 0.0056174533
0.27605322 0.14080966 0.04854039 -0.041577894 -0.03285509 0.16326131 -0.021696346 -0.05846953
0.1349978 0.78351086 0.2589312 0.051129885 0.123483434 0.10813754 -0.10976774 0.22467864
0.007869348 -0.31969306 -0.06834153 0.12129052 0.15793103 0.2177286 0.05773601 0.26496065
-0.13632566 0.1992476 0.13205437 0.46339422 -0.25976518 0.88061976 0.4817316 0.04738985
-0.21906003 -0.046749238 -0.09325682 -0.055376366 0.0588353 0.15633728 0.71917856 -0.09561219
0.28904295 0.09542541 0.18356264 0.034087885 -0.056481685 0.5920382 0.22897173 -0.012181583
0.59683824 -0.12436056 0.61320823 0.7332584 -0.027224256 -0.14273518 -0.024476591 -0.24307664
0.33892977 0.2412308 -0.018646332 0.47564116 0.38918564 -0.09786253 -0.03999113 0.24742243
00000000: 049a 9f3d 1ad8 f5bd d48a 72bd 2a7e 633e
00000010: 947f 0e3f 2b4b a13e 52eb 0a3e bb62 2d3f
00000020: 02e6 493c 1f5b 8f3d 4281 643d e817 29be
00000030: 9818 043d 1342 543d 88de 593d 28b0 2fbe
00000040: a339 48bd 1305 533f 8796 3bbe 73f0 1d3e
00000050: 8da3 023f 8de0 ac3d c615 d23d 98c1 343d
00000060: d5f8 593e 7d9c 97b8 d4b8 b43a 866e bb3e
00000070: 4140 0c3e 8efb 2bbd 93e9 0cbe 4fbf a83e
00000080: b247 09be 9901 d0bd 7128 a7bc d0d6 9b3d
00000090: 0650 c63d 3953 bebd 083e cdbd afde 993e
000000a0: 163b bcbd e800 02be 922e a03e c574 a7bd
000000b0: 7fe6 bc3e d5d0 003f c0b1 eebd 5a2b 9d3d
000000c0: dc2f 323e 1349 223e 1981 05bc 3096 093e
000000d0: cf1b fb3d 1bb6 38be 0d31 67be 6cb5 893e
000000e0: 1045 c43e c859 183c 06f9 8b3e 27f8 423f
000000f0: 6724 fc3d 04d2 4bbe a31d f53c 9d12 b83b
00000100: d956 8d3e 6830 103e 4ad2 463d 954d 2abd
00000110: 0f93 06bd f92d 273e 89bc b1bc bf7d 6fbd
00000120: dd3c 0a3e 2b94 483f a192 843e 926d 513d
00000130: e2e4 fc3d 3777 dd3d e9cd e0bd 2812 663e
00000140: 70ee 003c cfae a3be a5f6 8bbd 2a67 f83d
00000150: acb8 213e 3ff4 5e3e 987c 6c3d eca8 873e
00000160: f498 0bbe 9007 4c3e 4339 073e 0242 ed3e
00000170: f1ff 84be 4c70 613f 86a5 f63e dc1b 423d
00000180: 4651 60be 217c 3fbd 6ffd bebd 54d2 62bd
00000190: 49fd 703d e116 203e 161c 383f 53d0 c3bd
000001a0: 70fd 933e 666e c33d d8f7 3b3e bd9f 0b3d
000001b0: 5759 67bd d18f 173f 9177 6a3e 4395 47bc
000001c0: 64ca 183f c0b0 febd 37fb 1c3f d3b6 3b3f
000001d0: 6705 dfbc 2c29 12be 2283 c8bc 15e9 78be
000001e0: 3488 ad3e 3505 773e 31c0 98bc 3d87 f33e
000001f0: 5743 c73e 266c c8bd bdcd 23bd 4e5c 7d3e

net.4.weight f4 [6, 128]
-0.1783576 -0.029434977 -0.0027339207 -0.11092226 -0.08626149 0.03067356 0.26937953 0.183054
-0.0040955725 -0.1178742 0.14349131 -0.090056054 -0.023337008 -0.07223863 0.090630874 0.17397502
-0.033772573 -0.014200159 0.19406876 -0.02744214 0.05282054 -0.1419896 0.07960712 -0.13660482
0.12385462 0.05940164 -0.021676868 -0.055793963 0.0540838 0.12381737 -0.06303949 -0.009004185
-0.19270313 -0.08894142 -0.0705235 -0.06740678 -0.014530585 -0.034027506 -0.08833502 0.007262211
-0.2124433 -0.121290095 0.21477962 -0.094437905 0.20515177 0.20206262 0.0331614 0.17024258
0.019826325 0.072149076 0.027350063 0.09482038 0.10675758 -0.010214434 -0.14698452 0.14282902
0.21201023 0.009867414 0.33644223 -0.016752223 -0.0071459715 0.103719585 -0.066093735 0.046468697
0.049501006 0.1289684 0.27199414 -0.04565411 0.106012486 -0.06506609 -0.1948187 -0.39024675
-0.037065864 0.13584355 0.08630972 0.21442229 0.12597021 -0.04317053 -0.034662087 0.0055650743
0.05158966 -0.24475399 -0.019980332 0.13541797 8.0303296e-05 -0.08071923 -0.010072383 -0.015582268
0.21905318 -0.09163228 -0.061972897 -0.060404133 -0.012000778 0.25105408 0.000501067 -0.010066416
-0.15802428 -0.07370842 0.104405634 -0.0084841885 -0.08700678 0.003969283 0.026659789 0.27638003
0.0013752014 -0.046160594 -0.13901366 0.05143049 0.063127 0.06830661 -0.025765382 -0.045477748
0.055413816 0.06593365 0.06288066 0.09372768 0.15805356 -0.03057914 0.09631857 0.08476332
-0.033416692 -0.3674712 -0.14531344 -0.028371932 0.022109652 -0.081010565 0.06727973 -0.014598145
0.14470465 -0.07815937 0.18175815 0.16560166 -0.009022201 0.02892494 -0.2995076 0.21799445
0.08821489 0.05381086 -0.11108957 -0.048898432 0.036523093 -0.10555507 0.12956518 -0.21212852
-0.009268087 0.0038457531 0.07616477 0.092310295 0.022357551 -0.1614235 0.18969446 0.113298915
0.097009 -0.025633348 0.039546974 0.24560514 0.2066934 -0.4230566 0.055490922 0.10875632
0.17938049 -0.012843706 -0.088104494 0.17724632 0.041713707 0.07401327 0.08601542 -0.04110771
-0.0154938325 0.111640915 0.08142443 0.010072834 -0.13482457 -0.09034846 -0.049396 0.29439613
0.08211093 0.082525596 0.43636993 0.0590769 -0.114167415 -0.2983193 0.06622959 -0.018565066
0.0937686 0.12064825 0.06407122 0.13272643 -0.103368364 -0.08111349 -0.06411391 0.20254315
0.07578603 -0.009166046 0.28740534 -0.084469706 0.046794333 -0.056738228 0.18092848 -0.015616727
0.13338374 0.053040616 0.059893295 -0.08457811 0.120652676 0.04403118 0.10550164 0.028838983
-0.19399168 -0.1914376 -0.05559219 -0.04325516 0.13829757 0.08315689 -0.28635132 0.03733544
-0.016685864 -0.106686704 -0.12984154 -0.014765202 -0.16485731 0.30189383 0.0010580445 -0.04985975
-0.096174374 -0.24534996 -0.5389291 -0.022133471 0.00884409 0.12301625 0.051613856 -0.16096357
0.032858547 -0.13050358 -0.053263497 -0.1261924 0.15866241 0.17428471 0.011851484 0.041344535
0.18267202 0.07747481 0.07707711 -0.0010860403 -0.013141634 0.105677105 -0.026031002 0.049588665
0.0057154037 0.063160695 0.09316706 -0.13462937 0.00058397074 -0.12329929 0.08706712 0.10737774
00000000: 60a3 36be 9f21 f1bc 942b 33bb 362b e3bd
00000010: dda9 b0bd 1e47 fb3c 1dec 893e 8272 3b3e
00000020: 2734 86bb 0768 f1bd 63ef 123e 4f6f b8bd
00000030: 412d bfbc d9f1 93bd ae9c b93d 8226 323e
00000040: 1c55 0abd c9a7 68bc f6b9 463e 57ce e0bc
00000050: 5a5a 583d b965 11be 0f09 a33d 22e2 0bbe
00000060: 7ea7 fd3d 224f 733d b093 b1bc 3688 64bd
00000070: fa86 5d3d f693 fd3d d91a 81bd 4a86 13bc
00000080: f853 45be eb26 b6bd a06e 90bd 910c 8abd
00000090: b111 6ebc 6d60 0bbd fee8 b4bd d7f7 ed3b
000000a0: bd8a 59be f166 f8bd 30ef 5b3e a968 c1bd
000000b0: 4e13 523e 81e9 4e3e 40d4 073d 1254 2e3e
000000c0: d16a a23c e5c2 933d 3d0d e03c 3031 c23d
000000d0: b8a3 da3d 715a 27bc 1c83 16be c541 123e
000000e0: 3619 593e efaa 213c 2842 ac3e f53b 89bc
000000f0: c128 eabb ef6a d43d 275c 87bd f655 3e3d
00000100: 91c1 4a3d 4b10 043e d142 8b3e ceff 3abd
00000110: 131d d93d 5f41 85bd 8e7e 47be 6cce c7be
00000120: 60d2 17bd 921a 0b3e 27c3 b03d 8491 5b3e
00000130: 56fe 003e 95d3 30bd d5f9 0dbd 3a5b b63b
00000140: ae4f 533d caa0 7abe cbad a3bc 02ab 0a3e
00000150: 8168 a838 2050 a5bd a306 25bc c54c 7fbc
00000160: 7a4f 603e b4a9 bbbd 4bd7 7dbd 536a 77bd
00000170: e99e 44bc 298a 803e 0a5a 033a 9ced 24bc
00000180: 1ed1 21be 71f4 96bd 9fd2 d53d 4401 0bbc
00000190: 9c30 b2bd c210 823b a165 da3c af81 8d3e
000001a0: 1a40 b43a e412 3dbd 9959 0ebe c7a8 523d
000001b0: bb48 813d 56e4 8b3d ec11 d3bc e046 3abd
000001c0: 99f9 623d 3908 873d 93c7 803d 4cf4 bf3d
000001d0: cbd8 213e 1b81 fabc ac42 c53d 6498 ad3d
000001e0: f1df 08bd 2f25 bcbe 0ccd 14be 416c e8bc
000001f0: 4d1f b53c dee8 a5bd f5c9 893d 0f2d 6fbc
00000200: 752d 143e 0512 a0bd cf1e 3a3e 7b93 293e
00000210: dbd1 13bc fff3 ec3c 0f59 99be f039 5f3e
00000220: 02aa b43d c768 5c3d ee82 e3bd b949 48bd
00000230: 3d99 153d 422d d8bd bcac 043e 3838 59be
00000240: 2dd9 17bc 0809 7c3b 46fc 9b3d 2e0d bd3d
00000250: 2f27 b73c 344c 25be 443f 423e 4309 e83d
00000260: a8ac c63d 07fd d1bc 02fc 213d ea7f 7b3e
00000270: 6fa7 533e e09a d8be 734a 633d a2bb de3d
00000280: 85af 373e 686e 52bc 2170 b4bd 0f80 353e
00000290: fedb 2a3d 4594 973d da28 b03d 8f60 28bd
000002a0: d8d9 7dbc fea3 e43d dac1 a63d 8708 253c
000002b0: 740f 0abe 9d08 b9bd 7653 4abd 17bb 963e
000002c0: c629 a83d 2e03 a93d e16b df3e 9ffa 713d
000002d0: 9bd0 e9bd 4fbd 98be 61a3 873d c415 98bc
000002e0: c009 c03d 6e16 f73d c637 833d 70e9 073e
000002f0: cbb2 d3bd d41e a6bd 274e 83bd 7967 4f3e
00000300: b535 9b3d 2f2d 16bc cb26 933e 74fe acbd
00000310: 6aab 3f3d 5866 68bd 5145 393e 4ddd 7fbc
00000320: bf95 083e 1e41 593d ac52 753d 4a37 adbd
00000330: c018 f73d 0a5a 343d 3e11 d83d bb3f ec3c
00000340: c1a5 46be 3808 44be a3b4 63bd 532c 31bd
00000350: e19d 0d3e 294e aa3d a49c 92be 0ced 183d
00000360: cbb0 88bc 8f7e dabd 2ef5 04be bfe9 71bc
00000370: 5bd0 28be d491 9a3e 15ae 8a3a bd39 4cbd
00000380: 12f7 c4bd 053d 7bbe 42f7 09bf 4151 b5bc
00000390: cde6 103c f2ef fb3d 0d69 533d a2d3 24be
000003a0: af96 063d bba2 05be d32a 5abd 9538 01be
000003b0: 6678 223e b177 323e ba2c 423c e358 293d
000003c0: 600e 3b3e 1dab 9e3d 9bda 9d3d 7759 8eba
000003d0: 0250 57bc 3d6d d83d f83e d5bc 7c1d 4b3d
000003e0: 4848 bb3b 655a 813d 5fce be3d 48dc 09be
000003f0: 9d15 193a 5784 fcbd 3f50 b23d dce8 db3d

net.4.bias f4 [6]
0.37512112 0.068294175 0.13579793 0.16547124 -0.8917006 -0.79251766
00000000: e00f c03e d1dd 8b3d 9d0e 0b3e 4b71 293e
00000010: 7e46 64bf 70e2 4abf
