results/double_dqn/seed_33/double_dqn.pt (torch, 233784 bytes, 7 tensors)

embed.weight f4 [500, 64]
000000 a9 f3 19 3f c8 b3 de 3d 08 56 e6 be da bd 48 3f
       0.6013742 0.10874134 -0.44987512 0.7841469
000010 2d ae 27 3f 90 c1 9c be ad 5d b2 3f 61 24 81 3d
       0.65500146 -0.30616426 1.3934838 0.06305767
000020 76 2f a0 bf a1 23 a3 3f b5 99 f4 3e e5 3c e7 be
       -1.2514484 1.2745248 0.4777352 -0.45163646
000030 84 87 0e 3e a3 df c1 bf 40 d7 93 3e a4 76 0e 3f
       0.13918883 -1.5146374 0.2887516 0.5564978
000040 0a 07 e2 be 60 1e c0 bf bf 63 a0 3f 30 ae 30 bf
       -0.44145995 -1.500927 1.253044 -0.6901579
000050 5d 3a 75 3e 09 14 ab 3f e1 a2 12 bf e7 69 09 3f
       0.23948045 1.3365489 -0.57279783 0.5367722
000060 f5 cc fa 3e 68 61 a1 bf fa 6d a3 be 14 2d a4 3e
       0.48984495 -1.2607851 -0.31919843 0.32065642
000070 fd 50 49 be 74 d8 46 bf f0 9a bb bf 15 22 8b bf
       -0.19659801 -0.7767403 -1.4656658 -1.0869776
000080 af a8 84 bf 5e 0e a4 3e 60 fa 83 bf 8e 8d 49 3f
       -1.0363978 0.3204221 -1.0310783 0.7873162
000090 48 a0 a7 bf f8 45 ac be ce 08 9a bf b3 a6 c0 3f
       -1.3095789 -0.33647132 -1.2033937 1.5050873
0000a0 12 42 98 be b5 1b cc 3e 39 c8 fd 3e d4 22 60 3f
       -0.29737908 0.3986489 0.4956682 0.87553144
0000b0 77 7c 19 3f 5a 20 03 3e 12 09 82 3e 9d 5d 9f be
       0.59955543 0.1280531 0.25397545 -0.3112611
0000c0 df ea 95 bf 4f 0e 89 bf 87 68 c1 3f b6 af b8 bf
       -1.1712302 -1.0707492 1.5110024 -1.4428623
0000d0 ec de ad be 09 a4 d8 bf 81 aa b0 be 0f 81 a9 3f
       -0.33959138 -1.692506 -0.34505084 1.324251
0000e0 71 43 0d 3e 2c dc 45 bf d8 af 6c 3f 0d 41 12 3f
       0.13795258 -0.7728908 0.92455816 0.5713051
0000f0 54 54 88 3e e0 26 c4 be 65 64 36 3f 76 cd 2e c0
       0.26626837 -0.3831091 0.7124694 -2.7312903
000100 04 d4 c2 be a1 8d 04 c0 3a 22 8f bf 06 ec fa 3e
       -0.3805238 -2.0711443 -1.118232 0.49008197
000110 bd 44 b3 bf 49 72 2b 3f b2 0e 66 bd 37 76 6c 3f
       -1.4005352 0.6697126 -0.05616636 0.9236788
000120 1c 6b 07 3e e3 c3 f9 3e b4 e3 51 3f 79 6f 59 be
       0.13224453 0.48782262 0.8198807 -0.2123393
000130 da 6f 80 bf a3 29 d2 be 6c ef 26 3f e1 51 ce be
       -1.0034134 -0.4104739 0.6520908 -0.40296844
000140 65 4e 7e 3f b7 a4 9c bf a1 82 24 3e 4d 02 4e 3f
       0.9933837 -1.2237767 0.16065456 0.8047226
000150 87 cd 9c 3f 15 29 42 be 6c 83 36 be a0 62 9e bf
       1.2250222 -0.18960984 -0.17823571 -1.2373848
000160 df 2e 1a bf 54 17 08 3e cc 43 ea 3e d1 8f 8e bf
       -0.6022777 0.13290149 0.4575485 -1.1137639
000170 fb d4 e8 be aa bc 4c bf 32 15 6c 3d 8e 36 85 bf
       -0.4547499 -0.7997538 0.0576374 -1.0407274
000180 eb 98 15 bf 3e ce 3f bf a0 02 e3 3f ca 9c db 3f
       -0.5843646 -0.74924076 1.7735176 1.7157223
000190 d0 be 15 3f 4b ab 91 be c1 2a a4 be ee 93 8b bd
       0.5849428 -0.28451 -0.3206387 -0.06815325
0001a0 fb d8 37 3f 3c 4f 61 3f 08 57 03 3f 08 92 89 be
       0.7181546 0.8801153 0.51304674 -0.26869226
0001b0 72 9c 96 3f b2 ff ba bd 12 a5 bb 3f b8 2a 0b be
       1.1766493 -0.09130801 1.465975 -0.13590515
0001c0 2d ad cc bf fe bc 80 3f 89 51 f6 bd 84 58 bd be
       -1.5990349 1.0057676 -0.1202727 -0.36981595
0001d0 31 04 4e 3f 48 bb ac 3f b5 78 4c bf 5e cd 01 bf
       0.80475146 1.3494654 -0.79871684 -0.5070399
0001e0 81 2e 1d bf 64 56 8c 3f 22 47 10 bf 82 04 f3 be
       -0.61399084 1.0963864 -0.5635854 -0.47464377
0001f0 09 bb 36 3f 7e c5 83 bf 20 50 65 bf 3c c4 2f 3f
       0.71379143 -1.0294645 -0.89575386 0.68658805
000200 19 76 6f 3e 96 54 2f bf 17 95 e1 bf 9d 3a 53 be
       0.23384894 -0.6848844 -1.7623624 -0.20627828
000210 01 76 5c 3d ec 53 71 3f 0a 40 7f bf 62 eb d8 3f
       0.053823475 0.9426868 -0.9970709 1.6946833
000220 59 e2 19 3f eb 40 1d 3f d0 17 38 3f da 57 09 bf
       0.60111004 0.6142718 0.71911335 -0.53649676
000230 97 1b c8 bf 6f 39 e4 bf a0 a6 d1 be 3e bb 2b bf
       -1.563342 -1.7830027 -0.40947437 -0.67082584
000240 0f 44 5d be 7b 2c 20 be cf 9f 4a 3f 07 64 5b 3f
       -0.21607994 -0.15641968 0.791501 0.85699505
000250 4b 6b b8 3e 18 92 5d 3f d6 85 89 bf 04 f0 d3 3f
       0.36019358 0.86551046 -1.0743968 1.6557622
000260 bd 34 10 bf 0e f6 6a 3e c6 32 98 3f 1d 52 6c bf
       -0.5633047 0.22945425 1.1890495 -0.92312795
000270 c8 b3 a7 3f fa f1 c8 3e c9 6f 85 bf 51 47 65 bf
       1.310174 0.39247113 -1.0424739 -0.89561945
000280 d3 d4 5c bf 19 e8 2a bd 5b db 3f 3f c0 4f 0f 3f
       -0.86262244 -0.04172525 0.74944085 0.55981064
000290 80 9c 82 be ca b5 c7 3e b5 97 b0 bf b7 13 ac bf
       -0.25510025 0.39005882 -1.3796297 -1.3443516
0002a0 96 ab d9 3e 75 83 a3 bf 7c 3b 2c 3f f0 19 70 3f
       0.42513722 -1.2774493 0.67278266 0.9378958
0002b0 62 60 dc bf 99 73 ab 3e 2c 04 96 3f e7 a4 75 bd
       -1.7216914 0.33486632 1.1720023 -0.059971716
0002c0 54 59 aa bf 48 29 e7 3e 88 2f a9 3f 13 0e 8a be
       -1.3308511 0.45148683 1.321763 -0.26963863
0002d0 f0 99 f5 bd a7 4a 67 be 2f 83 68 be d9 34 e4 be
       -0.11992252 -0.22587071 -0.22706293 -0.4457157
0002e0 e1 6a 3c 3f 80 b7 8f 3f 53 ff 92 be d1 ff d2 bf
       0.73600584 1.1227875 -0.28710422 -1.6484319
0002f0 2d ea 55 3f 54 62 3a bf a1 86 c0 bf b2 c1 0f 3e
       0.8356045 -0.72806287 -1.5041085 0.14038733
000300 5c 6e 05 bf b2 75 3b bf cb 76 d5 be 2c a1 d4 bf
       -0.5212152 -0.73226464 -0.41692194 -1.6611686
000310 cb aa c1 3c bf 17 f3 3c 86 70 a9 3f e3 8e f4 3f
       0.02364101 0.029674409 1.3237464 1.9106106
000320 e7 1e e0 3e 70 2d 82 3e 33 4f 28 3e be 11 2d bf
       0.43773577 0.2542529 0.16436462 -0.676052
000330 3e e1 22 be 88 03 0b c0 5e e0 81 bf f6 6f 00 bf
       -0.15906236 -2.1720905 -1.0146596 -0.5017084
000340 f6 fe cc 3d 5f 84 06 3d 80 84 3f bf 52 96 d8 bd
       0.100095674 0.032841083 -0.74811554 -0.10575546
000350 d0 a7 ef be a4 e4 1e bf 70 8c b7 be aa 46 92 3f
       -0.46807718 -0.6206763 -0.35849333 1.1427815
000360 7a 49 e6 bf 77 4c f0 be 3a 4f 25 bf 5c 8d d1 be
       -1.7991173 -0.46933338 -0.64574015 -0.4092816
000370 6d c5 87 3f 14 eb 94 be 5e 74 0a 3f 44 7a 2a bc
       1.0607125 -0.290856 0.5408381 -0.010405127
000380 a2 37 31 bf fb 05 d2 bc 9f e9 c3 be cc f1 01 bf
       -0.69225514 -0.025637617 -0.38264176 -0.5075958
000390 ed e2 e4 bf f3 ec 96 be 6c e7 81 bf a2 eb 51 be
       -1.7881752 -0.29477653 -1.0148749 -0.20500043
0003a0 7d 72 aa 3e db 4e dd 3e a5 07 ea 3f 18 ce 6b be
       0.33290473 0.43224224 1.8283583 -0.23027837
0003b0 04 c4 1e 3f bc 0b a9 3e 86 03 88 be 4f 1b a8 3f
       0.62017846 0.33016765 -0.26565188 1.3133334
0003c0 c5 c4 4f bf 24 75 32 bf f9 2a 06 3e a2 f3 8a bf
       -0.8115962 -0.6970999 0.1310233 -1.0855601
0003d0 a0 a2 dc be 54 4f 18 3f ed a1 c2 be c4 29 00 c0
       -0.43092823 0.59496045 -0.38014165 -2.0025492
0003e0 06 69 1e 3e 3a 6c a8 3f f5 6b 26 bf 17 1e fd 3e
       0.15469751 1.3158028 -0.6500848 0.4943702
0003f0 fa 20 c7 bf 2f 60 d2 be e9 89 78 bf fe 83 df bc
       -1.5556939 -0.41089007 -0.97085434 -0.027284618

net.0.weight f4 [128, 64]
000000 30 29 64 3d 7d 29 da 3d 01 d7 d5 be 7c 96 49 be
       0.055703342 0.106524445 -0.41765597 -0.19686311
000010 39 c5 4a 3e 7e 7e 47 3d 50 60 a6 be 21 ab ed bc
       0.19801797 0.048704617 -0.32495356 -0.029012265
000020 69 47 d9 be 48 4c 8d be f2 d6 59 be 6f 3f 7a be
       -0.42437294 -0.2759726 -0.21273401 -0.2443826
000030 11 46 30 3e 90 ee 98 be ba ea f9 3e 61 ff 29 3e
       0.17214228 -0.2986951 0.48811895 0.16601326
000040 ed 42 54 be 29 a3 06 be 3d be c2 bb 94 7e 43 bd
       -0.20728655 -0.13148178 -0.0059430883 -0.047728136
000050 d0 5b b5 be 78 d6 ab 3b 43 3e 16 3d ef 1f ca 3d
       -0.3542161 0.0052440725 0.03668047 0.09869372
000060 fe 41 1c 3e 87 09 80 be 59 d9 d1 be 2f 20 26 3d
       0.15259549 -0.2500727 -0.40986136 0.040558036
000070 c7 8d 9c be 41 e2 15 3e f7 ff d7 bd 7d 58 1a bf
       -0.30576918 0.1463709 -0.10546868 -0.6029127
000080 10 0d f0 3e 0a a6 d7 3d d5 21 50 3d 46 92 f1 be
       0.46884966 0.10529716 0.050813515 -0.4718191
000090 8a 05 ec 3e d8 20 61 3c ab e0 d2 3e 02 2d d8 bd
       0.46097976 0.013740741 0.41187033 -0.105554596
0000a0 ba 75 e7 bb c0 8e 8f bb 41 c0 79 be 9a 9f 80 be
       -0.0070635946 -0.004381031 -0.24389745 -0.25121766
0000b0 20 82 6c bd 2e 5b 99 3e 11 cf 2d be 9f 02 9c 3e
       -0.057741284 0.29952377 -0.16973521 0.3047075
0000c0 2c 4a ae bd 5d 68 c5 bd 1f 23 ed 3d 37 ac 5f be
       -0.08510241 -0.09639046 0.115789644 -0.21843038
0000d0 07 e8 75 3e 0c cd 8a bd 93 df 0e 3e 54 fe 83 3e
       0.24014293 -0.06777391 0.13952474 0.25779974
0000e0 3f 52 07 3f 4d 98 eb be 18 f1 15 3e 56 88 58 bd
       0.5285987 -0.46014634 0.14642751 -0.052864395
0000f0 c0 fc 25 bd d7 28 76 3d 02 73 57 bd d3 52 db bd
       -0.040524244 0.06009754 -0.052599914 -0.10709157
000100 b9 9f ee be 55 ea 88 3e 7d 91 52 be 29 70 54 be
       -0.46606234 0.2674128 -0.20563312 -0.2074591
000110 7f bd b9 be ee 9f ab 3e db 14 d5 bd c3 7f 75 3e
       -0.36277387 0.33520454 -0.104043685 0.23974518
000120 8c 48 cb be 4f 98 82 3d ba 4b 02 bf e3 da 76 3e
       -0.39703786 0.06376707 -0.508968 0.24106936
000130 d1 8b 7e be b4 63 e3 3e 38 ca 3a 3e 39 37 29 3e
       -0.24858023 0.44412005 0.18241203 0.16524972
000140 c0 5b a5 3e 42 91 13 bf 97 f0 c7 be 41 99 30 be
       0.32296562 -0.5764352 -0.39050743 -0.17245962
000150 2e d2 89 be 0d 4d 84 3e c8 42 66 3e da 3d 87 be
       -0.26918167 0.25840035 0.22486413 -0.26414376
000160 71 1d 2b be 61 2f 8e be 49 c4 45 bd 2b fe d2 be
       -0.1671045 -0.27770522 -0.048282895 -0.4120954
000170 1c ba 24 bd 49 bf 7e be 09 f0 38 be 9c e3 b4 3e
       -0.04021655 -0.24877657 -0.18060316 0.35329902
000180 29 f5 b8 be 29 2c ff bd a7 bc f3 3d 52 1d 32 3e
       -0.36124542 -0.12459595 0.11901217 0.17393997
000190 f6 8b cd 3d 96 47 af 3e ed 77 9e 3d 11 be d0 3e
       0.10036461 0.34234303 0.07737718 0.4077001
0001a0 5b 63 b1 be 21 08 78 bc d8 de 66 3e 10 99 8b 3e
       -0.34646115 -0.015138657 0.22545946 0.27265215
0001b0 61 c7 65 3e 22 e7 a7 3d 8a a9 87 be 44 77 34 3d
       0.22439338 0.08198382 -0.26496536 0.044059053
0001c0 51 c9 72 3e fc d1 72 3e 02 7d 04 3d 73 59 3a be
       0.23709609 0.23712915 0.03234578 -0.18198185
0001d0 f1 7f 76 3e 47 29 a1 be 26 69 0e be c0 4d ca 3c
       0.24072243 -0.31476805 -0.13907298 0.024695277
0001e0 86 ef 28 3d 6d 00 e4 be 83 32 fa bd da d9 ca be
       0.041244052 -0.44531575 -0.122166656 -0.39619333
0001f0 88 ff f0 3e 15 88 c0 bd e7 f7 9c 3d f6 97 0c bf
       0.47069955 -0.094009556 0.07664471 -0.54919374
000200 40 7e b3 be 2c ff de bd b0 73 a3 bc 08 75 c7 bd
       -0.3505726 -0.10888514 -0.019952625 -0.09739119
000210 02 ca 83 3d 70 00 cd 3e b7 17 a6 be fe 67 02 3e
       0.06435014 0.40039396 -0.32439968 0.12734982
000220 61 cd 4c be 4f 24 92 be 83 41 ff bd 44 ac 9a 3e
       -0.20000221 -0.28543326 -0.12463667 0.30209553
000230 6d bf 95 be 16 c4 99 3d 5c a0 92 3d 4f c8 7b 3e
       -0.2924761 0.075081035 0.071594924 0.2458813
000240 18 29 ba be 83 ce d2 bc 46 a4 74 be 50 94 cf 3c
       -0.36359477 -0.025733238 -0.2389079 0.025339276
000250 43 3a 56 bc fe a0 6e 3e 1e 72 ec 3e da 16 e1 3c
       -0.013075414 0.23303601 0.46180815 0.027476717
000260 5a 92 10 3f 1e f2 4d be c7 f9 d2 3e 89 0b 3a be
       0.56473315 -0.20111892 0.4120619 -0.18168463
000270 df 99 34 3e d1 76 52 3e 1b 8c f2 bc 12 a2 17 3e
       0.17636822 0.20553137 -0.029607823 0.14807919
000280 8f cf ec be d7 8d d9 be b4 1f 83 bf b5 82 0a 3e
       -0.46252105 -0.42491028 -1.024405 0.13526423
000290 ad 9e 82 3e e4 7c aa 3e 8d b2 19 3d ab e4 4f 3e
       0.25511685 0.3329841 0.037523795 0.20302074
0002a0 d8 77 c6 bc c3 83 31 3d a8 8e 55 be 8d c7 e1 bd
       -0.024227068 0.04333855 -0.208552 -0.110243894
0002b0 69 b9 af 3e b8 59 3d be 06 6e bf 3c 8d e1 b2 3e
       0.34321144 -0.18491256 0.023367893 0.34937707
0002c0 5e 1b 82 bd dc 8c f1 3e 04 c3 77 3e e8 65 ad 3e
       -0.06352876 0.4717778 0.24195486 0.3386681
0002d0 25 1e a3 be af b8 c8 be cc 8f 10 bf 93 d0 07 3f
       -0.31858936 -0.39203402 -0.56469417 0.53052634
0002e0 34 13 68 be 5a 30 30 be cc 98 b9 be de 8e 92 3e
       -0.22663575 -0.17205945 -0.36249387 0.28624624
0002f0 ae ca 7f 3d 84 4d a3 3e 3b 52 86 be 4b 88 82 3b
       0.06244915 0.31895077 -0.26234612 0.0039835325
000300 e1 f2 76 3d da b0 41 be 5e 94 9f be 9e ed ea 3e
       0.06029022 -0.1891512 -0.31167883 0.45884413
000310 0e 8b 03 bd c8 6f 82 3d 29 e0 69 be 3d 03 48 be
       -0.032115035 0.06368977 -0.22839417 -0.19532485
000320 12 b1 75 3d 9c e7 a6 be 96 c7 83 3e 26 cf 2c be
       0.05998332 -0.3259858 0.2573821 -0.16875896
000330 f8 2e 83 bd c1 59 5f be 57 3a ac b8 6f f7 49 3e
       -0.06405443 -0.21811582 -8.212466e-05 0.19723295
000340 ea 8e 06 3e 7f 93 43 3e 05 59 8b 3e f4 e4 d0 be
       0.13140455 0.19099234 0.27216354 -0.40799677
000350 cd 5f 32 3e 01 49 e0 bd 11 41 5b be 0e 9d 35 bc
       0.17419358 -0.109514244 -0.2141154 -0.011084808
000360 7a d0 ff bd 5c de d1 3d e4 e1 bb bc 77 f0 a4 bd
       -0.124909356 0.1024749 -0.022934861 -0.080536775
000370 4a 9c a1 bd 5a a4 ba be 29 de bd 3d f9 e7 eb 3d
       -0.07891138 -0.36453515 0.09270889 0.11518855
000380 e9 18 d7 3e af 5b e8 bd 97 73 a4 be 76 12 20 be
       0.42011192 -0.11345612 -0.32119438 -0.15632042
000390 05 c5 cf 3c b6 81 31 3c 08 ba a4 3e ff eb 49 be
       0.0253625 0.010834148 0.3217318 -0.19718932
0003a0 a9 9e 39 3d 35 60 0a 3e b3 64 19 be 6d ad 79 be
       0.045317326 0.13513263 -0.1497982 -0.24382563
0003b0 3d de 1f 3e 4d b6 55 be b2 b7 21 bd 02 e5 61 be
       0.15612121 -0.20870323 -0.039481826 -0.22060016
0003c0 4d 9e 08 be 4b 37 d7 3d 62 36 54 3e d3 4b 00 be
       -0.13341637 0.10508593 0.2072387 -0.12528925
0003d0 bf 24 df 3e ba a3 10 be 63 38 a4 bc a7 60 f9 3d
       0.43582723 -0.14124957 -0.020046419 0.12176638
0003e0 ee 95 47 3d 01 2d 56 be 05 23 91 3e dc fa 83 bc
       0.04872697 -0.20915605 0.2834703 -0.01611083
0003f0 fb d1 03 3f 30 e8 a4 be 48 24 1c 3e f8 f0 2a 3c
       0.5149228 -0.32208395 0.15248215 0.010433428

net.0.bias f4 [128]
000000 d5 f8 24 bf dc 9e 97 3e 0e df eb 3e fd 17 50 bd
       -0.6444219 0.29613388 0.46068615 -0.050804127
000010 77 aa 9f bf 65 8f 60 bf ac 1d 2c bf e0 eb 90 bf
       -1.2473897 -0.877188 -0.67232776 -1.1321983
000020 61 0d 60 bf 70 22 1f 3d 97 0c 92 be 4c 14 23 3e
       -0.87520415 0.0388512 -0.2852523 0.15925711
000030 7d 3d f1 3e 8d e4 05 bd 4f 9f c7 be 00 2b 4d bf
       0.47117224 -0.032688666 -0.3898873 -0.8014374
000040 5c b0 54 be ad 86 8d bf c7 e3 a3 bd 6d c6 1e be
       -0.20770401 -1.1056725 -0.080024295 -0.15505381
000050 7e 93 3b bf 23 bb a5 be 0d 3d 99 bf e3 2a 68 3e
       -0.7327193 -0.32369336 -1.1971756 0.2267261
000060 05 2f 2f bf 01 da 08 bf 77 ac 9a bd 01 18 c7 3c
       -0.6843112 -0.5345765 -0.07552426 0.024303438
000070 fc 2d 56 be 01 eb fd be 95 8b d3 3d e1 f4 41 bd
       -0.20915979 -0.49593356 0.103293575 -0.047352675
000080 f1 94 e0 be 2f 5a 0d bf ea 14 32 3d 74 e5 bc 3d
       -0.43863633 -0.55215734 0.043476976 0.09223452
000090 c2 dd eb be a1 b9 84 be 06 d8 91 bf 43 c4 4c 3d
       -0.46067625 -0.25922874 -1.139405 0.049991857
0000a0 89 16 95 be 53 6d 0f bf 55 6f b3 3e 2e e1 14 3f
       -0.29118755 -0.5602619 0.35045877 0.58156097
0000b0 bb 18 9b be 8b 2e 3e bf 0a db 81 3e 54 a0 da 3e
       -0.30292305 -0.7428977 0.25362426 0.42700446
0000c0 45 ba 36 3e 8d 9b 1d bf 3a f5 17 bf 21 1d df be
       0.17844494 -0.61565477 -0.5935856 -0.4357691
0000d0 1d c3 f2 be 38 21 34 bf 54 a9 58 be b0 63 b1 3e
       -0.47414485 -0.7036319 -0.21158344 0.34646368
0000e0 c4 4e 23 bf 2e 09 a6 be cd 77 80 bf dd a1 aa 3e
       -0.6379206 -0.3242888 -1.003656 0.33326617
0000f0 2e 64 67 3e dc a9 35 bf 08 2e 75 be 0e 2a 32 3c
       0.2259681 -0.7096231 -0.23943341 0.010874284
000100 ea 26 91 be 6b ae 03 bf e3 7c a8 bf ae f1 06 bf
       -0.28350002 -0.51438016 -1.3163112 -0.52712524
000110 b2 1b 83 bf 6d d4 26 3d 4f 12 18 bf 88 11 d9 be
       -1.0242827 0.04072993 -0.59402937 -0.42396188
000120 77 82 80 bf 9f a8 f4 bd af e7 96 bf 07 3d bd 3d
       -1.0039815 -0.119462244 -1.1789454 0.09240156
000130 97 7a 57 bc 42 de ab 3e 03 69 3d bf 48 6d e1 be
       -0.013151786 0.33568007 -0.7398836 -0.44028687
000140 b3 e0 54 3d 26 8c 0a bf 99 ae a6 be 24 07 06 bf
       0.051972102 -0.541201 -0.32555082 -0.52354646
000150 59 49 80 be fe a0 c2 be c2 12 3b bd 18 d1 9f bf
       -0.2505596 -0.38013452 -0.045672186 -1.2485685
000160 68 7e 5e 3e 08 66 a9 3e 71 80 9e bf cd cf e2 be
       0.21727908 0.33085656 -1.2382947 -0.44299164
000170 85 a5 13 be 4b 2c 30 bf 5c 02 85 be 05 96 4a bf
       -0.1441861 -0.68817586 -0.25978363 -0.7913516
000180 29 9a f3 be 42 14 80 bf aa bf ee be 32 65 84 3e
       -0.47578552 -1.0006182 -0.46630603 0.25858456
000190 ec 79 37 bf 2b 36 8c bf d8 e3 47 be e4 d1 b5 3d
       -0.71670413 -1.0954031 -0.19520509 0.08877924
0001a0 87 97 d7 be 94 3a 61 be 98 52 f5 3d 63 6d c8 bd
       -0.42107794 -0.21995002 0.11978644 -0.09786489
0001b0 7d 84 2c bf 22 a9 41 bf cb 81 91 3e 20 b4 72 bc
       -0.6738966 -0.756487 0.28419337 -0.014813453
0001c0 cd 69 ff be c1 43 2a 3e 6c 45 23 3f 9c 5c e0 3d
       -0.49885407 0.16627409 0.63777804 0.10955164
0001d0 c4 b8 28 be 4f c4 73 3e 35 ff 02 bf 93 98 8e be
       -0.16476732 0.23805355 -0.51170665 -0.2785078
0001e0 0b 41 36 3d b0 d8 f7 3e fd c0 8e bf 99 c9 f1 be
       0.044495624 0.48407507 -1.1152645 -0.4722412
0001f0 7d 17 2c bf da 4c 1a bd 63 c1 b3 be 14 43 b3 bd
       -0.6722334 -0.037670948 -0.3510848 -0.087530285

net.2.weight f4 [128, 128]
000000 2c 53 7e bd 27 f8 14 be 6c e8 a7 bd b4 2b 3d be
       -0.062091038 -0.14547788 -0.08198628 -0.18473703
000010 53 56 86 be fe 92 fe bd b7 02 55 bd c6 d9 02 be
       -0.26237735 -0.1243038 -0.052004542 -0.12778386
000020 82 51 db bd f9 98 c4 bd 9f 8e 89 be 39 12 1d bd
       -0.10708906 -0.0959949 -0.26866624 -0.038347457
000030 ae 6e 60 be a9 71 6b be e7 9c 67 be 4f 3d 9b bd
       -0.21917221 -0.22992577 -0.22618447 -0.07580053
000040 5c 78 af bd c9 c5 a5 bd d3 59 8f be 26 43 c9 3d
       -0.085678786 -0.08094365 -0.27998218 0.09827261
000050 cd b6 82 bd d6 2b e7 bd 53 2c 97 be 8a 6b 13 be
       -0.06382523 -0.11287658 -0.29526004 -0.14396492
000060 ab 26 1f 3c 42 30 0e 3e 08 9f 38 be dc 69 10 be
       0.009713809 0.13885596 -0.18029416 -0.14102882
000070 5f cf 12 be e0 c6 76 bc 3e 84 4e bd 95 b2 24 bd
       -0.14336918 -0.015062064 -0.050419085 -0.04020937
000080 52 ac 24 be 38 b7 14 be 13 de 20 3e 49 91 46 bd
       -0.1608136 -0.14523017 0.15709715 -0.0484784
000090 90 42 b0 3c 14 b4 6c be 4b f5 a7 bd 27 64 88 bd
       0.021516114 -0.2311557 -0.08201083 -0.066597275
0000a0 90 46 64 3d 97 10 19 be e4 e9 40 be 1f c9 65 be
       0.055731356 -0.14947735 -0.18839222 -0.22440003
0000b0 8c 3a cd 3d c9 3e 57 be f9 da 75 be f1 af 53 be
       0.100209326 -0.21020044 -0.24009313 -0.20672585
0000c0 20 14 a6 bd 00 5b 46 bb 7f b3 5f be 7b e5 21 be
       -0.08109307 -0.0030266643 -0.21845816 -0.15810196
0000d0 6d 65 1e 3d ac 82 1f be 4b f7 c8 bc da 09 22 be
       0.038670946 -0.15577191 -0.024531981 -0.1582407
0000e0 d6 4a db 3d 5d 8d e4 bd 83 93 03 3e 3c b3 b6 3c
       0.10707633 -0.111597754 0.1284924 0.022302262
0000f0 28 5e 7f be 1a 5d 32 be 9b a2 92 bd 85 e5 71 bc
       -0.24938262 -0.17418328 -0.07159921 -0.014764194
000100 d7 35 d9 3d 41 ae 0e be d2 09 59 be 1e 65 31 be
       0.10605972 -0.1393366 -0.21195152 -0.1732373
000110 4c 45 8c bd c6 c1 7c 37 96 67 09 be 89 26 46 be
       -0.06849155 1.5065487e-05 -0.13418421 -0.19350637
000120 69 99 23 be 43 42 08 3e 45 86 6d 3d 9c 3b 07 be
       -0.1597649 0.13306527 0.057989378 -0.13206333
000130 bd 8d 6f 3d 7f f5 ae 3d 7a 1e af bd 69 59 b0 bd
       0.05848478 0.085429184 -0.08550735 -0.08610804
000140 08 ba 4e be 42 7c 42 be a4 ef 76 bd 3f 48 08 be
       -0.20188153 -0.18992713 -0.060287133 -0.1330881
000150 c4 c1 52 be 52 ea 31 be b8 c0 67 be b6 bb 28 be
       -0.20581728 -0.17374542 -0.2263211 -0.16477856
000160 67 2b 9c bd a6 5d a4 bd 71 86 c8 bd 0c cd 8a 3a
       -0.07625466 -0.080256745 -0.09791268 0.0010589673
000170 91 3b 65 bc ad c6 4c be 71 b8 94 be 2c 61 90 be
       -0.0139912525 -0.19997664 -0.29046968 -0.28199136
000180 f1 79 c9 3b c3 e7 74 bd 00 32 51 3b 0a 42 dd 3d
       0.0061485698 -0.059791338 0.0031920671 0.108036116
000190 b6 52 37 be 75 f4 c5 bd 35 2d 33 be c9 5b de bd
       -0.17902645 -0.09665767 -0.17497714 -0.108573504
0001a0 a5 99 53 be b2 3b 10 bd 5a 66 03 be 4f 9e 7f be
       -0.2066408 -0.03521318 -0.12832013 -0.24962734
0001b0 c0 62 7a be 0d e3 61 be c1 24 bd 3d ad 83 19 be
       -0.24451733 -0.22059269 0.09235526 -0.14991637
0001c0 84 bd 87 3d 9a ae 13 bd 86 7b b5 bd f1 6a 6b be
       0.06627944 -0.036055185 -0.08861451 -0.22990014
0001d0 4c b8 ee bb 82 93 8b be 3d e6 41 3e 0b eb 78 be
       -0.0072851535 -0.27260977 0.18935485 -0.24308412
0001e0 3e 9a 5a bd fd d1 cb 3d 50 e8 33 be a5 63 2e be
       -0.053369753 0.099521615 -0.17569089 -0.17030199
0001f0 86 0c e6 3d c9 5c 72 bd 79 a9 e3 bd 30 86 94 3d
       0.112328574 -0.059170518 -0.11116309 0.07252157
000200 2b 27 89 be f8 b2 38 3e 31 98 01 bd 30 06 ba 3c
       -0.26787695 0.18037021 -0.03163928 0.022708029
000210 81 7c 94 bd a4 94 8c bd 97 26 f3 bd 71 c7 52 be
       -0.0725031 -0.068642884 -0.11872595 -0.20583893
000220 e6 2f 63 be 1c b6 84 bb c5 a5 33 bc 2a 5b 05 be
       -0.2218624 -0.0040500294 -0.0109648155 -0.13023058
000230 6e 65 dd bd ac 39 db bd a3 32 d4 3d e2 12 66 be
       -0.10810362 -0.107043594 0.10361221 -0.2246814
000240 29 e8 3e 3d da ee 07 be b6 b0 00 be c0 11 54 be
       0.046608124 -0.13274708 -0.1256741 -0.20709896
000250 bd c5 64 be 06 96 93 3c 47 0b 12 bd 05 5f 10 3e
       -0.22341056 0.018015873 -0.035655286 0.14098747
000260 eb 47 3c 3e a0 af f3 bd b0 7d 6a bd ba 19 4c 3c
       0.1838681 -0.11898732 -0.05724877 0.012457306
000270 a7 6f f3 bc 22 44 24 be 6e d9 4f 3c f3 cd 66 be
       -0.029716326 -0.16041616 0.012686117 -0.22539501
000280 e1 ab 93 be 60 3b 49 be 53 99 87 be 53 7c 53 be
       -0.2884207 -0.19651556 -0.26484165 -0.20652895
000290 fc 19 b8 3d a2 45 86 be 54 8c 8c be 34 90 29 be
       0.08989331 -0.26225 -0.27450812 -0.16558915
0002a0 53 f8 9c bd d2 64 c6 be 65 20 8d be 1d 93 87 be
       -0.076645516 -0.38748795 -0.27563778 -0.26479426
0002b0 f5 43 0e be 06 8d 7c be 6c 8e 29 be 25 c4 2a be
       -0.13893111 -0.24663171 -0.16558236 -0.16676386
0002c0 87 c3 72 be d1 b0 59 bc 3b 58 a2 be c4 cb d1 bc
       -0.237074 -0.013286785 -0.3170794 -0.025609858
0002d0 63 9e 3b be a5 f8 10 bd 16 8c 0e bd 80 82 15 be
       -0.18322138 -0.035393376 -0.034801565 -0.14600563
0002e0 a0 e7 5f be 79 3d 09 3e 1f 13 61 3d ee 27 22 bc
       -0.21865702 0.13402356 0.054949876 -0.009897215
0002f0 2e c7 32 be 3b eb a2 bd 56 7a 93 3c 17 b7 34 be
       -0.17458794 -0.07955023 0.01800267 -0.17647968
000300 4a 5d 05 3d 6e f6 0c 3c 09 d7 8f bd 8c 26 7b bd
       0.03255967 0.008603675 -0.070234366 -0.061316058
000310 29 6c d4 bc e6 f5 3c be 50 8f ce bd d7 55 f2 bd
       -0.025930481 -0.18453178 -0.100859284 -0.11832779
000320 bc e8 98 3d 35 26 48 3e 47 76 d3 3d ad e6 b4 3e
       0.074662656 0.19545825 0.10325294 0.35332242
000330 86 d2 12 bd 7c e2 c0 be cd b0 72 be 4e af 18 be
       -0.035845302 -0.37672794 -0.23700257 -0.14910623
000340 41 45 5d bd fe c8 47 3d 37 44 ad be 63 a1 c9 bd
       -0.054021124 0.048775665 -0.33841106 -0.09845235
000350 00 81 5f bd 7c 84 9c bd 0c c7 05 bd fa 1c 12 be
       -0.054566383 -0.07642457 -0.03266053 -0.14268866
000360 00 e4 9e 3c 2a 70 21 bd 8a 72 08 be ba 3f d4 3c
       0.019395828 -0.03941361 -0.13324943 0.025909293
000370 e0 a1 23 3e d1 eb f4 3d c7 cd f5 bd 4a 69 ef 3c
       0.15979719 0.11959041 -0.120021395 0.02922501
000380 bc 66 cd bd 72 6c 02 be b2 bc 27 be fc 1f 74 be
       -0.10029361 -0.12736681 -0.16380575 -0.23840326
000390 1b 6b 47 bd 17 79 b0 3c f5 3f 3c be c1 03 8d be
       -0.048686128 0.021542115 -0.18383773 -0.27541927
0003a0 0b 6a 49 be e9 39 9b bd 3f 16 25 be b6 be 5f be
       -0.19669358 -0.07579405 -0.16121767 -0.21850094
0003b0 c0 da 2b be 1a 78 27 3e 29 41 a7 bd fb 38 1b 3d
       -0.16782665 0.16354409 -0.08166725 0.037896138
0003c0 44 38 a8 bd 28 77 a4 3d 49 f8 00 be 2b 6b 30 be
       -0.08213857 0.0803054 -0.12594713 -0.17228381
0003d0 f6 59 ce bd 61 4d 8c 3d 34 c5 a4 bd 06 cb 79 be
       -0.100757524 0.06850696 -0.08045426 -0.24393854
0003e0 e0 4d 3a be 1b 59 ac 3d 26 0f 68 3d 0c 26 5b be
       -0.1819377 0.08415433 0.05665507 -0.21401232
0003f0 02 5e 0a be c1 90 49 bd 40 a0 7a be 75 97 63 bd
       -0.13512424 -0.049210314 -0.24475193 -0.055564363

net.2.bias f4 [128]
000000 f9 73 fd bd cd 3c 01 be 29 ce 92 3d 28 c0 61 3f
       -0.12375636 -0.1262085 0.07168228 0.8818383
000010 b0 00 a0 bc 62 bc 2a bb c5 6d 31 3e 84 2c f4 3e
       -0.019531578 -0.0026052226 0.1732703 0.47690213
000020 43 7b 8f 3d 81 59 86 3d c9 71 f7 3d fe 04 94 3e
       0.07005932 0.0656004 0.1208225 0.2891006
000030 ee ee 32 3e 3b b2 24 bd d2 69 98 3c 51 03 4b 3f
       0.17473957 -0.040209036 0.018605147 0.79301935
000040 c2 22 13 3f c1 27 08 3c 71 d5 46 3e bd 47 91 3e
       0.5747491 0.008310259 0.19417359 0.28375044
000050 9b f4 5f be 55 35 a0 3c f6 05 80 3e 6c 3f 20 3f
       -0.21870653 0.01955668 0.25004548 0.62596774
000060 58 e3 e0 3e df f2 2d 3f c1 40 8a 3e 01 d1 80 3d
       0.4392345 0.67948717 0.27002528 0.06289864
000070 01 93 5a be 5a bb 67 3f 97 99 86 bd 8a 84 e5 3e
       -0.2134514 0.9052025 -0.06572264 0.44827682
000080 72 58 0a 3c f0 4f 07 3e 0c f9 7c be 00 65 88 3e
       0.008443939 0.13214087 -0.24704379 0.26639557
000090 c5 22 2c be 5f f7 fd 3e a4 5d 2f 3e 90 2d d0 3b
       -0.16810139 0.49602792 0.17125565 0.0063530877
0000a0 e7 0b 20 3e 92 35 d9 bd 90 c0 4a ba 1c 9e 17 3f
       0.1562954 -0.10605921 -0.00077343825 0.5922563
0000b0 52 51 06 3f 9a 00 f2 bd a7 29 a5 ba 74 2e 19 3f
       0.52467835 -0.11816521 -0.0012600914 0.59836507
0000c0 b9 ad 07 bd 86 d4 2d 3e b5 1c 25 3d c6 c8 37 3f
       -0.03312466 0.16975603 0.04031058 0.7179073
0000d0 52 b3 03 bd 09 da 24 bc 9e a0 bf bd 96 3a 3e 3f
       -0.032153435 -0.010061749 -0.09356807 0.74308145
0000e0 a8 42 ae bd bb 00 b0 3e 41 3f 0b 3f 67 fc 0d 3f
       -0.085088074 0.34375557 0.5439339 0.5546326
0000f0 5d 85 34 3f 56 bd eb bd 6f 5a 25 3d 23 1b 98 3f
       0.70515996 -0.11510722 0.040369447 1.1883281
000100 1b 89 7f bd d8 5a f2 3e c3 04 b0 bc d9 5e 39 3d
       -0.062386613 0.47334933 -0.021486646 0.04525647
000110 30 05 1b 3f a2 24 b1 bd 68 31 c8 3d 86 a5 a7 bc
       0.6055479 -0.08649565 0.097750485 -0.02046467
000120 22 db 11 be 9e 9b 3e be 39 63 e2 3e 9f 23 4a 3f
       -0.14243749 -0.18614051 0.44216326 0.78960603
000130 a7 bf dc bd 2e 01 8f bd 65 8f 15 be 2d 2a 02 3f
       -0.10778742 -0.06982647 -0.14605482 0.50845605
000140 6f 82 24 3e 2c ca 42 bd fe 97 0e 3f 04 43 a7 3d
       0.16065381 -0.047556087 0.5570067 0.08167079
000150 00 93 84 bc 34 d1 54 3e 4a 9f 26 3d 3b 89 22 3f
       -0.016183376 0.2078293 0.040679254 0.6349065
000160 04 ba 3d bd 6c bd 1f 3f 56 a1 1b 3f 7a 0d ed 3d
       -0.046319976 0.6239841 0.60793054 0.11574836
000170 49 08 3f 3e 4a 53 9b 3f b2 bf a4 3e eb 4a d6 3d
       0.18655504 1.2134793 0.32177502 0.10463508
000180 94 6d f1 bd d5 83 60 3f 04 b7 36 3f ff 6a 36 3e
       -0.117884785 0.8770116 0.7137301 0.17814253
000190 58 04 32 be a4 b3 1b 3e 41 80 67 3e ac 7b 80 be
       -0.1738447 0.15205246 0.22607519 -0.25094354
0001a0 42 c5 7d bd 93 f2 47 3f a7 b8 4f be 06 8a 39 bd
       -0.061955698 0.78104514 -0.20285283 -0.045297645
0001b0 fb 4a 7c 3d 67 cc d0 3e 11 ee 42 bd de 73 6c bd
       0.061594944 0.40780947 -0.04759032 -0.057727687
0001c0 cc 53 01 3f 11 ec f5 3e 70 05 47 bd c0 cd b3 bc
       0.5051849 0.48031667 -0.04858917 -0.021948695
0001d0 37 35 c0 3d 76 33 00 3f 8f 23 4b 3e f9 59 20 3f
       0.0938515 0.50078523 0.19837783 0.6263729
0001e0 b1 7d 23 3f 4d 72 83 3e 49 98 1b bc 98 92 4a bc
       0.63863665 0.25673142 -0.009496757 -0.012364052
0001f0 67 75 31 3e f8 8e 13 3d 06 20 f4 3e 04 6d 08 3f
       0.17329942 0.036025017 0.47680682 0.53291345

net.4.weight f4 [6, 128]
000000 cc fe 3f be e9 aa 68 3d b4 cc d1 3c 0f 41 18 3e
       -0.18749541 0.056803618 0.025610305 0.14868568
000010 a1 42 eb bd ea 8e b2 bd 50 c4 84 bd 8b 60 92 3e
       -0.11487318 -0.08718665 -0.06482756 0.2858928
000020 4e 44 b8 3d 75 7c 2c be f9 80 db bd 3a 24 1a 3e
       0.08997403 -0.16844352 -0.10717959 0.15052882
000030 58 c2 a3 bd cb f5 4a bd 8e 01 a7 bd 3a 3e fc 3d
       -0.079960525 -0.049550813 -0.081545934 0.12316556
000040 07 c9 d6 bd 2e 67 18 3d b2 73 73 bd 85 93 68 be
       -0.10487562 0.037207775 -0.059436508 -0.22712524
000050 fc 01 4f 3c c8 39 3b bd a0 d4 f5 3d b6 31 44 be
       0.01263475 -0.0457094 0.120034456 -0.19159588
000060 dd 53 19 bd d5 b8 11 be 0d 94 1f 3e ca 32 d9 3d
       -0.037433494 -0.14230664 0.1558382 0.1060539
000070 fd 14 ae bb a9 99 4a 3e 5a 8a d2 bd 36 a4 81 3d
       -0.0053125606 0.19785179 -0.10280295 0.06330149
000080 34 03 4b 3d 1f e8 34 bd 06 04 e5 bd 16 44 83 3d
       0.0495636 -0.04416668 -0.11182408 0.06409471
000090 7a df 9d bc 97 fc 51 3e 4e 50 3a 3d 99 40 bb 3d
       -0.019271601 0.20506512 0.04548674 0.091431804
0000a0 da 4e c7 bc 38 b8 0c 3e e7 32 fb bc 3a de ec 3d
       -0.024329592 0.13742149 -0.03066392 0.11565824
0000b0 7c fa 09 3e a7 d1 d0 3d 9d 93 bc 3b a6 02 5c bc
       0.13474458 0.10196238 0.0057549016 -0.013428366
0000c0 a7 84 13 be b1 ba c5 3d c0 cd 12 be 3c a9 08 3d
       -0.14406072 0.09654749 -0.143363 0.03336452
0000d0 57 ab b4 bd 40 88 42 be 7d 1d 07 be ae 8c 17 be
       -0.08821743 -0.18997288 -0.13194843 -0.14799759
0000e0 b1 09 26 3e 7a 40 e8 bd ec 4e 64 3e c7 f8 2f 3e
       0.16214634 -0.11340423 0.22295731 0.17184745
0000f0 f2 47 af 3d 0a 5f 1d 3d 68 74 07 be 93 a4 85 3e
       0.08558644 0.038420714 -0.13227999 0.26102123
000100 1e b5 35 be 78 3d f8 bc 34 8b fc bd 7d 04 05 3e
       -0.17744872 -0.030302748 -0.123312384 0.12989993
000110 2b e1 1a 3e 07 df 85 3d 0c 6e 80 bd cc 8f b3 bc
       0.15124957 0.0653668 -0.0627099 -0.021919154
000120 c8 8d 0d 3e 48 9a 82 3d 4d 6f 4f be 03 45 5f bd
       0.13823617 0.06377083 -0.20257302 -0.054509174
000130 cd 64 06 3e ba 24 87 3d 00 b3 8a 3e f5 32 48 3e
       0.1312439 0.06598802 0.2708969 0.19550689
000140 84 0d c2 bb e4 06 a1 bd 34 d6 63 be c3 bf 0d be
       -0.0059220213 -0.078626424 -0.22249681 -0.13842683
000150 56 a5 47 bb 98 93 f0 bc 85 d3 3f be 00 54 41 be
       -0.0030463538 -0.029367253 -0.18733032 -0.188797
000160 47 aa 01 bd 0f 8a 04 3d d6 0a 85 be 4c 2a 80 3e
       -0.03165653 0.032358225 -0.2598483 0.2503227
000170 52 20 1f be 04 b8 61 3e 79 75 74 3e f3 7e 9a 3d
       -0.15539673 0.22042853 0.23872937 0.07543745
000180 ca 7d 6c bc 8c 6d a6 bd e4 f3 2f 3e a6 a5 04 3e
       -0.014434287 -0.08126363 0.1718288 0.12953815
000190 3c f2 c9 3d 2e 1c 29 3d 5c 28 09 3e dc d0 30 3d
       0.09860656 0.04128664 0.13394302 0.043167934
0001a0 e5 53 9f bc 68 7e fe bb e8 da a5 bc 90 b8 ac 3d
       -0.019449184 -0.0077665336 -0.020245984 0.0843364
0001b0 c8 e7 5c bc 81 a9 bd 3c c4 2c 66 bd 4e cd 58 bc
       -0.013482995 0.023152115 -0.056195036 -0.013232542
0001c0 c1 73 32 3e 37 52 a7 3d bb 93 98 3e 12 19 3e bd
       0.17426969 0.08169978 0.2980021 -0.046410628
0001d0 63 8f c0 3c b3 f2 96 3d 2b cf 58 bd a7 08 80 3d
       0.023505872 0.0737051 -0.052931946 0.0625165
0001e0 24 ed d7 be 10 75 6b bb 24 31 8c bd 2a 33 af be
       -0.4217311 -0.003592793 -0.0684531 -0.34218723
0001f0 ea e9 61 bd 69 22 4c be b6 48 aa 3d 91 d0 7c 3e
       -0.05515472 -0.19935001 0.0831465 0.24688937
000200 84 de 65 3c 34 5e d1 bd c3 5b 62 bd 1f 76 81 3d
       0.014030103 -0.10223046 -0.055263292 0.06321358
000210 5b 2f 50 bd b7 b1 e7 bc b4 a1 45 3e 99 2a 2f 3e
       -0.05082641 -0.028282983 0.19299966 0.17106093
000220 20 78 50 bd c7 7f aa 3d b3 66 ce bd 10 04 db 3e
       -0.05089581 0.08325153 -0.10078182 0.42776537
000230 08 a5 5e 3d 1c 55 9d 3c 57 91 7a be 74 2a dd 3d
       0.054356605 0.019205622 -0.24469505 0.10799113
000240 f3 98 22 3e 9c 67 f4 3b d9 b6 16 3e bd b4 de 3d
       0.15878658 0.0074586403 0.14718188 0.10874317
000250 ea a2 7f bd 17 04 d3 bd cb 91 9d 3c ff 07 4f 3d
       -0.062411226 -0.103035145 0.019234559 0.050544735
000260 17 01 37 3e 50 6f 4f be 2a f5 38 3d c2 41 1c 3e
       0.1787151 -0.20257306 0.04515568 0.1525946
000270 01 be eb bc 46 6a 83 3d 4a 62 38 be db e3 4b 3d
       -0.028777124 0.064167544 -0.18006244 0.049777847
000280 64 74 1f bd 26 ba 68 bd 02 b3 21 3c 27 2f d8 3d
       -0.038929358 -0.05681815 0.009869339 0.105558686
000290 89 ea d7 3d c7 68 ac bd fd 94 dd 3d 01 72 32 be
       0.10542781 -0.08418422 0.10819433 -0.17426302
0002a0 a0 85 bc 3d 76 cc 33 be 44 38 47 bd 99 ed d2 ba
       0.092051744 -0.17558464 -0.048637643 -0.0016092538
0002b0 c0 39 85 be d3 1d 65 bd 6a a2 fd 3c e8 06 b0 bd
       -0.26020622 -0.055936646 0.030961234 -0.08595067
0002c0 5c 94 c5 3c 70 27 b9 3d a5 f4 71 3d f5 b3 e2 3c
       0.024118595 0.09040725 0.0590712 0.0276737
0002d0 35 22 4e bc 58 9a 93 3e 37 5e ce bb af 09 43 bc
       -0.012581398 0.28828692 -0.0062978524 -0.011904164
0002e0 7d 2c a5 3b 2e f1 17 3d 2f d8 ff 3c ed d5 6f bd
       0.005040704 0.03709524 0.031231014 -0.058553625
0002f0 fe 55 a8 3d ab fa eb 3b 01 23 2e 3d 33 92 fb 3d
       0.08219527 0.007201513 0.04251385 0.12283745
000300 7d 34 83 bc be e7 4d bc 3b dd b6 bc b8 fd 4e bd
       -0.01601624 -0.012567459 -0.022322288 -0.050534934
000310 6e 14 a0 3d b9 b1 bd 3c 4c dc 5a bd 83 62 af bd
       0.07816397 0.023156034 -0.053432748 -0.085637115
000320 64 6d 3b 3e 80 a6 86 bd 9c 9f c7 bd b1 e6 16 be
       0.18303448 -0.06574726 -0.0974724 -0.1473644
000330 da c4 3e be f6 27 5a bd fe cf 35 bd b1 e1 58 bc
       -0.1862978 -0.053260766 -0.04438781 -0.013237403
000340 27 9e 23 3d ac 85 83 3e 97 15 38 be 27 4c 4d 3c
       0.039945748 0.2568792 -0.17976986 0.012530363
000350 35 02 ea 3c 1d 53 3f bc 57 39 1b 3e bd ec 03 be
       0.028565506 -0.011677531 0.15158592 -0.12883277
000360 d9 31 07 bd 23 8a 27 3e ac 19 78 bc 31 67 29 3d
       -0.033006523 0.16361289 -0.015142839 0.041358177
000370 60 6d 18 3d 95 60 ba 3e 14 db 03 3e 4b 14 f5 3c
       0.037213683 0.3640181 0.1287654 0.029916903
000380 6c c7 02 be 1d 92 8e 3d ef 8f 9b 3e 3a b5 26 3e
       -0.12771386 0.06961463 0.3038325 0.1628007
000390 ef a6 2e 3e 64 e9 dd bd 11 ba 11 3c f7 f0 65 bc
       0.17055868 -0.10835531 0.008894459 -0.014034501
0003a0 a4 c5 39 3d d0 a7 3a 3e 71 b0 b6 bc 53 80 95 3c
       0.0453545 0.18228078 -0.02230093 0.018249666
0003b0 38 83 0f bd 28 e6 c7 bd b6 b0 83 bc f6 72 86 bd
       -0.03503725 -0.09760696 -0.016075473 -0.06564896
0003c0 25 e9 26 3e 56 82 00 bd ef 5e 8a 3e 50 fa 6e bd
       0.16299875 -0.031374298 0.27025554 -0.058344185
0003d0 fb 7a 6c 3d a8 09 a6 3c 3d 76 a7 bc a2 e9 5a 3e
       0.05773447 0.020268276 -0.020442123 0.21378186
0003e0 11 b6 44 bd d2 e3 c5 bd f3 50 5b 3c 02 dd d8 bd
       -0.048025195 -0.09662594 0.013385999 -0.10589029
0003f0 ad f5 34 3e b5 22 0a bd fa 0e 10 3e dd 59 1d be
       0.17671843 -0.033724505 0.14068213 -0.15366311

net.4.bias f4 [6]
000000 1a 6d 81 3d c1 1e 67 bc b1 22 87 be 37 fa 21 be
       0.063196376 -0.014106453 -0.26393655 -0.15818106
000010 05 8e 94 bf b5 86 8d bf
       -1.1605841 -1.1056734
