results/double_dqn/seed_33/double_dqn_target.pt (torch, 233875 bytes, 7 tensors)

embed.weight f4 [500, 64]
000000 a9 f3 19 3f c8 b3 de 3d 08 56 e6 be da bd 48 3f
       0.6013742 0.10874134 -0.44987512 0.7841469
000010 2d ae 27 3f 90 c1 9c be ad 5d b2 3f 61 24 81 3d
       0.65500146 -0.30616426 1.3934838 0.06305767
000020 76 2f a0 bf a1 23 a3 3f b5 99 f4 3e e5 3c e7 be
       -1.2514484 1.2745248 0.4777352 -0.45163646
000030 84 87 0e 3e a3 df c1 bf 40 d7 93 3e a4 76 0e 3f
       0.13918883 -1.5146374 0.2887516 0.5564978
000040 0a 07 e2 be 60 1e c0 bf bf 63 a0 3f 30 ae 30 bf
       -0.44145995 -1.500927 1.253044 -0.6901579
000050 5d 3a 75 3e 09 14 ab 3f e1 a2 12 bf e7 69 09 3f
       0.23948045 1.3365489 -0.57279783 0.5367722
000060 f5 cc fa 3e 68 61 a1 bf fa 6d a3 be 14 2d a4 3e
       0.48984495 -1.2607851 -0.31919843 0.32065642
000070 fd 50 49 be 74 d8 46 bf f0 9a bb bf 15 22 8b bf
       -0.19659801 -0.7767403 -1.4656658 -1.0869776
000080 af a8 84 bf 5e 0e a4 3e 60 fa 83 bf 8e 8d 49 3f
       -1.0363978 0.3204221 -1.0310783 0.7873162
000090 48 a0 a7 bf f8 45 ac be ce 08 9a bf b3 a6 c0 3f
       -1.3095789 -0.33647132 -1.2033937 1.5050873
0000a0 12 42 98 be b5 1b cc 3e 39 c8 fd 3e d4 22 60 3f
       -0.29737908 0.3986489 0.4956682 0.87553144
0000b0 77 7c 19 3f 5a 20 03 3e 12 09 82 3e 9d 5d 9f be
       0.59955543 0.1280531 0.25397545 -0.3112611
0000c0 df ea 95 bf 4f 0e 89 bf 87 68 c1 3f b6 af b8 bf
       -1.1712302 -1.0707492 1.5110024 -1.4428623
0000d0 ec de ad be 09 a4 d8 bf 81 aa b0 be 0f 81 a9 3f
       -0.33959138 -1.692506 -0.34505084 1.324251
0000e0 71 43 0d 3e 2c dc 45 bf d8 af 6c 3f 0d 41 12 3f
       0.13795258 -0.7728908 0.92455816 0.5713051
0000f0 54 54 88 3e e0 26 c4 be 65 64 36 3f 76 cd 2e c0
       0.26626837 -0.3831091 0.7124694 -2.7312903
000100 06 d1 ca be 78 3f 04 c0 19 39 8f bf 3f 85 fb 3e
       -0.39612597 -2.0663738 -1.11893 0.49125096
000110 40 72 b3 bf 74 8b 2a 3f 03 d8 50 bd e2 04 6c 3f
       -1.4019241 0.6661904 -0.050987255 0.9219495
000120 d8 68 12 3e 14 9a f9 3e ee 46 56 3f 39 c6 6f be
       0.14297807 0.48750365 0.8370198 -0.2341546
000130 38 a3 80 bf 58 14 dd be aa 47 26 3f e3 60 ce be
       -1.004981 -0.43179584 0.649531 -0.40308294
000140 c7 cf 7b 3f 42 83 9a bf 57 13 27 3e ec 81 4e 3f
       0.9836392 -1.2071307 0.16315971 0.80666995
000150 d6 53 9b 3f ab 89 63 be dd 2c 3e be 18 b1 9e bf
       1.213496 -0.22220485 -0.18571801 -1.2397795
000160 5a ca 1d bf 74 6e 09 3e 23 4a e3 3e 54 dd 8e bf
       -0.6163689 0.13421041 0.443925 -1.1161294
000170 2b 0e d9 be 69 62 48 bf 3a ad 83 3d 62 f0 85 bf
       -0.42393622 -0.7827516 0.06429525 -1.0463984
000180 9f de 19 bf 1d 43 3f bf 02 71 e1 3f db 7e dc 3f
       -0.6010532 -0.7471178 1.7612612 1.7226213
000190 10 68 13 3f ee 51 95 be 74 cd a4 be 80 21 7f bd
       0.5758066 -0.2916407 -0.32187998 -0.062287807
0001a0 cf 75 37 3f 0b 87 61 3f 6f 9b 06 3f df 91 8f be
       0.71664137 0.88096684 0.5258092 -0.28040978
0001b0 45 40 99 3f f2 49 e3 bd f1 60 bb 3f de 76 0e be
       1.1972739 -0.11098088 1.4638959 -0.13912532
0001c0 b3 69 cc bf 19 c3 7f 3f c3 37 00 be 4b f5 c1 be
       -1.5969757 0.9990707 -0.12521271 -0.37882456
0001d0 24 9a 50 3f 84 95 af 3f 21 96 4a bf 16 6b 02 bf
       0.814852 1.3717504 -0.7913533 -0.5094465
0001e0 d3 7d 1e bf 94 48 8f 3f 01 89 0f bf be 29 ee be
       -0.6191074 1.1194024 -0.56068426 -0.46516222
0001f0 a0 ea 34 3f 25 01 84 bf 55 4e 66 bf 62 31 2f 3f
       0.7067051 -1.0312849 -0.89963275 0.6843473
000200 77 97 73 3e d4 5f 2f bf 49 da e1 bf bc af 53 be
       0.23788248 -0.685056 -1.764474 -0.20672506
000210 fe c5 56 3d e7 f8 71 3f e4 0a 80 bf 61 5d d9 3f
       0.052434914 0.9452042 -1.0003324 1.6981622
000220 85 56 19 3f 57 40 1e 3f 3a 06 35 3f 6f 8a 09 bf
       0.59897643 0.61816925 0.70712626 -0.5372686
000230 29 61 c8 bf e4 7a e4 bf 87 07 d3 be ef 4e 2c bf
       -1.5654651 -1.7850003 -0.4121668 -0.67307943
000240 60 b9 5d be cc 5f 1f be 85 f4 4a 3f 4e ff 5b 3f
       -0.21652746 -0.15563887 0.7927936 0.8593644
000250 74 26 b6 3e 12 d4 5d 3f 1d c9 89 bf 3b 28 d4 3f
       0.35576212 0.8665172 -1.07645 1.6574777
000260 dc 07 11 bf 4d e8 69 3e 11 8c 98 3f 2a e9 6b bf
       -0.5665262 0.22842522 1.1917745 -0.92152655
000270 ec 93 a7 3f e8 76 ca 3e d1 b5 85 bf a7 be 65 bf
       1.3092017 0.39543843 -1.0446111 -0.8974404
000280 78 10 5d bf ec 1b 35 bd 8b 2b 40 3f 1b 30 10 3f
       -0.86353254 -0.04421608 0.7506644 0.56323403
000290 0a 7b 80 be 2a 27 ca 3e b7 5b b1 bf 05 79 ac bf
       -0.2509387 0.39483005 -1.3856114 -1.3474432
0002a0 7b cc da 3e 73 d6 a3 bf 4c 5d 2d 3f c4 e9 70 3f
       0.4273413 -1.279982 0.67720485 0.941067
0002b0 bb d7 dc bf d3 ba ad 3e 4a 2e 96 3f ce 61 77 bd
       -1.7253336 0.33931598 1.1732876 -0.06039601
0002c0 9c 9f aa bf 89 c2 e7 3e 6a c0 a9 3f ad f6 87 be
       -1.3329959 0.45265606 1.3261845 -0.26555386
0002d0 11 eb f8 bd 87 79 63 be bf f9 6b be 8b 09 e5 be
       -0.1215421 -0.22214328 -0.2304449 -0.44733843
0002e0 db 95 3c 3f f2 21 90 3f 16 42 94 be d2 af d2 bf
       0.7366616 1.1260359 -0.2895667 -1.6459906
0002f0 bb 5a 56 3f 36 1a 3b bf 3e d9 c0 bf cf 99 13 3e
       0.83732194 -0.7308687 -1.5066297 0.14414142
000300 16 78 03 bf 79 aa 39 bf 69 52 da be 4a 70 d6 bf
       -0.5135511 -0.72525746 -0.42641 -1.6753018
000310 20 43 13 3d 11 6c cc 3c 3f 7d a9 3f e8 79 f5 3f
       0.035952687 0.024953874 1.3241347 1.9177828
000320 92 f8 dd 3e 23 16 72 3e 3b fa 31 3e 2e 80 2e bf
       0.43353707 0.23641257 0.17380612 -0.68164337
000330 82 fc 2a be 9c 35 0b c0 10 9a 82 bf f2 4b 02 bf
       -0.16697887 -2.175147 -1.0203266 -0.50897133
000340 cc 44 c4 3d f7 dd ac 3c f8 e7 41 bf 2a 96 c4 bd
       0.095834345 0.021101935 -0.7574458 -0.09598954
000350 75 e5 f2 be 80 93 18 bf cc 36 b9 be c5 70 90 3f
       -0.47440687 -0.5960007 -0.3617462 1.1284415
000360 e7 3a e7 bf 1c 5e f3 be d4 e5 26 bf 09 26 cb be
       -1.806485 -0.47532737 -0.6519444 -0.39677456
000370 ad e5 88 3f cc 03 93 be 6b 29 0d 3f de ec 10 bd
       1.0695091 -0.28713834 0.55141324 -0.035382144
000380 af ec 2f bf 4a 8c 32 bd 0e 00 c6 be 42 d0 04 bf
       -0.68720526 -0.04359082 -0.38671917 -0.51880276
000390 e8 52 e2 bf 27 21 9c be 86 1c 83 bf 1a fe 5b be
       -1.7681551 -0.30494043 -1.024308 -0.21483651
0003a0 c8 0a ac 3e 72 de dc 3e 8c ce ea 3f d6 32 7a be
       0.33601975 0.43138462 1.8344283 -0.24433455
0003b0 19 96 1e 3f ec 20 aa 3e d4 9c 80 be bf a7 aa 3f
       0.6194778 0.33228242 -0.2511965 1.3332442
0003c0 7e 3b 4b bf ed 1f 35 bf 05 91 d0 3d 8b aa 8b bf
       -0.7938765 -0.7075184 0.1018391 -1.091142
0003d0 94 7d e1 be e8 1e 1a 3f dc c5 bc be df 60 00 c0
       -0.4404112 0.6020341 -0.36869705 -2.0059125
0003e0 40 48 27 3e 31 ff a8 3f a5 75 28 bf af 5e 00 3f
       0.16336155 1.3202878 -0.6580451 0.50144476
0003f0 72 12 c8 bf f8 79 d7 be 1b a0 78 bf e1 fa c3 bc
       -1.5630629 -0.42085242 -0.971193 -0.02392334

net.0.weight f4 [128, 64]
000000 b4 02 81 3d 79 d2 df 3d 33 00 e0 be fa 5e 42 be
       0.06299344 0.10928816 -0.43750152 -0.18981543
000010 64 d7 3a 3e c8 8f 42 3d fd 2c ac be 58 bb 1a bd
       0.18246228 0.0475004 -0.33628073 -0.03777632
000020 bf 7a d4 be 82 cb 8c be e3 0d 58 be c7 05 7d be
       -0.41499898 -0.27499014 -0.21099047 -0.24709235
000030 44 61 22 3e b6 92 97 be c2 0b f2 3e 30 20 17 3e
       0.15857416 -0.2960412 0.47274595 0.14758372
000040 4f d2 70 be bf dd f8 bd 6f 05 cf bb 3a a8 55 bd
       -0.23517726 -0.1215167 -0.0063177864 -0.052162386
000050 6f a7 b8 be 42 3b 47 3c b9 1b 9b 3c 48 fb f8 3d
       -0.36065242 0.012160124 0.018934118 0.12157303
000060 17 86 33 3e 13 18 83 be 56 e3 d4 be d0 58 2a 3d
       0.1753162 -0.25604305 -0.41579694 0.041588604
000070 96 6f 96 be d6 8c 16 3e 0b fa d8 bd b6 1d 1a bf
       -0.29382008 0.14702162 -0.10594567 -0.60201585
000080 cb 4f f1 3e 1a e4 c1 3d 33 4f 4f 3d 8f f0 f6 be
       0.4713119 0.09467335 0.05061264 -0.48230407
000090 12 f3 f1 3e 28 fb c3 3c 23 e1 da 3e 01 e1 9d bd
       0.4725576 0.023923472 0.4274989 -0.07708932
0000a0 11 97 81 bc a5 1b 8f bb 97 c8 76 be 4f 3e 86 be
       -0.015819104 -0.004367309 -0.24099956 -0.26219413
0000b0 b6 d8 68 bd 7c 47 89 3e 85 59 2f be c3 64 9a 3e
       -0.056847297 0.2681235 -0.17123993 0.30155
0000c0 ec c2 a1 bd 09 a6 de bd 32 e2 c1 3d 84 e7 5c be
       -0.078985065 -0.108715124 0.094669715 -0.21572691
0000d0 05 4a 62 3e 98 f9 8f bd 7a 31 0a 3e 00 34 82 3e
       0.22098549 -0.07030028 0.13495436 0.25430298
0000e0 28 31 06 3f 0a f4 ed be d7 20 0a 3e 76 a8 81 bd
       0.52418756 -0.4647525 0.1348909 -0.063309595
0000f0 7a 99 e2 bc 72 83 98 3d 8d 48 59 bd 92 20 d7 bd
       -0.027661074 0.07446946 -0.053047705 -0.10504259
000100 85 50 f4 be 3c 23 88 3e 27 cc 42 be 42 6b 60 be
       -0.47717682 0.26589382 -0.1902319 -0.21915916
000110 5b 8a bb be ac a1 c6 3e 4d 31 ef bd c0 d1 77 3e
       -0.36628994 0.3879522 -0.11679325 0.24201107
000120 b6 47 c5 be 80 9b 8d 3d f8 b0 02 bf ca 3a 74 3e
       -0.38531274 0.06914425 -0.5105128 0.23850551
000130 01 c9 6a be 1a 37 de 3e 38 14 34 3e 30 f8 24 3e
       -0.2292824 0.43401414 0.17585838 0.16110301
000140 47 45 a9 3e 77 1c 13 bf 9d b3 cf be da 4d 32 be
       0.33060667 -0.5746531 -0.40566722 -0.1741251
000150 58 a6 83 be 44 53 85 3e 76 8c 61 3e 9e 3d 70 be
       -0.25712848 0.2604009 0.22026238 -0.23461005
000160 0e b2 2c be 41 34 89 be 9e 9d 54 bd 62 0e d5 be
       -0.16864797 -0.2679768 -0.051908128 -0.41612536
000170 9b 9c c7 bc 6f 87 76 be b4 a4 2e be 34 7d b0 3e
       -0.024366667 -0.24075101 -0.17055017 0.34470522
000180 41 93 ba be 06 66 03 be f7 e2 e6 3d 26 42 26 3e
       -0.3644047 -0.12831888 0.11273759 0.16236171
000190 ab 49 a6 3d 47 8c af 3e c4 3b 95 3d 3c 30 d8 3e
       0.0811952 0.3428671 0.0728679 0.422243
0001a0 84 0b b8 be 97 75 70 bc fb 48 70 3e 1c 76 78 3e
       -0.35946286 -0.014676473 0.2346534 0.24263805
0001b0 f6 45 4f 3e b2 b2 ab 3d b0 de 9a be 87 ca 4c 3d
       0.20241532 0.08383693 -0.30248022 0.049997833
0001c0 14 0f 69 3e 31 42 63 3e c7 2e 2d 3d e5 52 26 be
       0.22759658 0.22193219 0.04228094 -0.16242559
0001d0 7a 57 7e 3e 67 5d a3 be 56 5f 01 be 36 c2 a8 3c
       0.24838057 -0.31907198 -0.12634024 0.02060042
0001e0 a6 66 f9 3c 49 9d dd be 16 02 ef bd 2d 8e d1 be
       0.030444454 -0.43284062 -0.1167032 -0.40928784
0001f0 08 fb ed 3e 15 b7 b3 bd 6b 7a 80 3d b5 f1 10 bf
       0.46480584 -0.087751545 0.062733494 -0.56618816
000200 8f c1 ae be 8c 03 c9 bd f3 60 94 bc ef 2c d1 bd
       -0.34132048 -0.0981513 -0.018112635 -0.102136485
000210 97 09 70 3d 3f 93 cf 3e 82 8d aa be 44 87 db 3d
       0.058602896 0.40542027 -0.33311087 0.10719159
000220 a5 6d 4c be 52 39 8b be 83 cb 04 be 74 ee 99 3e
       -0.19963701 -0.2719217 -0.12968259 0.30064738
000230 be fd 95 be ee 2d bd 3d 15 8b 8c 3d e5 f2 80 3e
       -0.29295152 0.09237276 0.06862465 0.25185314
000240 74 eb ba be 4b e1 2e bc ae 40 75 be 06 26 b2 3c
       -0.3650776 -0.010673831 -0.23950455 0.021746647
000250 67 09 34 bc 2d 8d 7e 3e 63 83 e9 3e f1 4d 04 3d
       -0.01098857 0.24858542 0.45608053 0.032300893
000260 45 2e 0c 3f 5e ef 44 be ba 42 d3 3e 32 0a 3d be
       0.547581 -0.19231936 0.41261846 -0.1846092
000270 8f 9d 2f 3e 80 b2 5a 3e a9 50 e1 bc 6f 0a 14 3e
       0.17149948 0.21357155 -0.027504282 0.14457105
000280 30 cf ee be 7b f1 dc be 06 c4 83 bf dd 41 0a 3e
       -0.46642447 -0.43152985 -1.0294197 0.13501687
000290 a6 3a 87 3e 3b cb a9 3e 6a ea 3e 3d f6 58 68 3e
       0.26411933 0.33162865 0.046610273 0.22690186
0002a0 0f 59 da bc b4 69 2e 3d 6f d5 4f be 96 aa ce bd
       -0.026653795 0.042581275 -0.20296262 -0.100911304
0002b0 75 fa b8 3e 0e 54 31 be 3a f6 04 3d b0 27 b0 3e
       0.36128584 -0.1731722 0.032461382 0.3440528
0002c0 a7 7a 40 bd 34 7b f0 3e ec 1c 6c 3e 71 aa aa 3e
       -0.04699197 0.46968997 0.23057908 0.3333316
0002d0 37 62 a3 be fd 4c c7 be f2 3e 0d bf 64 80 08 3f
       -0.3191087 -0.38925925 -0.5517417 0.5332091
0002e0 d5 0d 6c be f8 70 44 be 50 52 c2 be ee 96 91 3e
       -0.23052152 -0.19183719 -0.37953424 0.28435463
0002f0 bc 39 67 3d 9b 97 9e 3e 07 90 83 be 2e a0 22 3c
       0.056451544 0.3097504 -0.25695822 0.009925885
000300 59 39 8d 3d 0f 95 33 be 90 d5 9b be 77 f2 ee 3e
       0.06895704 -0.1753733 -0.30436373 0.4666936
000310 96 aa 36 bc e6 17 8d 3d 15 be 84 be 63 bb 3c be
       -0.011149069 0.06889324 -0.2592627 -0.18430857
000320 8d 44 72 3d 62 c0 99 be 5a 5e 84 3e 5b 6a 1f be
       0.059147406 -0.3002959 0.25853235 -0.15567915
000330 96 29 68 bd cb 10 5e be 8c be 0d 3c 79 94 57 3e
       -0.056680284 -0.21686094 0.008651387 0.21052732
000340 4a 2a 14 3e d3 ef 30 3e 9b 51 86 3e 9e da d6 be
       0.14469257 0.17278986 0.26234135 -0.41963667
000350 1e f8 32 3e 05 7c ea bd 66 7a 5a be 5c 9c e0 bc
       0.17477462 -0.11449436 -0.21335754 -0.027418308
000360 de 21 01 be fd 83 cb 3d 58 71 19 bc 37 83 d1 bd
       -0.12610576 0.09937284 -0.009365402 -0.10230105
000370 9b 75 a6 bd c6 47 ba be 59 4f e4 3d 18 72 f0 3d
       -0.081279 -0.36382884 0.11147947 0.11740512
000380 53 ce d5 3e a7 89 ce bd 61 e8 a4 be 85 13 23 be
       0.41758975 -0.10084849 -0.3220854 -0.15925415
000390 e5 15 e2 3c f8 0a a3 3b 76 27 a2 3e 84 5a 3e be
       0.02759833 0.004975673 0.3167073 -0.18589216
0003a0 63 0a 26 3d 3b 80 08 3e 5b c9 1b be de b5 7b be
       0.04053725 0.13330166 -0.1521353 -0.24581096
0003b0 06 eb 0c 3e f3 bc 5d be 30 f4 ee bc d9 1f 7f be
       0.1376153 -0.2165411 -0.029169172 -0.24914493
0003c0 79 7b fc bd 1b ff ef 3d 58 8f 67 3e b1 c7 0c be
       -0.12328238 0.117185794 0.22613275 -0.13748051
0003d0 56 ff df 3e bb 0f ec bd 6d e3 6f bc c1 aa 0e 3e
       0.43749493 -0.11526438 -0.014641625 0.13932325
0003e0 ad 75 98 3d 8d a6 4a be 56 86 97 3e 2d d3 0f bd
       0.0744432 -0.19790097 0.29594678 -0.035113502
0003f0 2c 7b 00 3f d9 81 a5 be 95 0e 0f 3e 6f d2 8c bb
       0.50187945 -0.32325628 0.13970406 -0.0042975466

net.0.bias f4 [128]
000000 58 7e 25 bf b9 8d 9a 3e b3 39 ea 3e 1a 15 4d bd
       -0.6464591 0.3018625 0.45747146 -0.050068952
000010 97 69 a2 bf 50 ac 5a bf 54 79 29 bf 1f b7 8d bf
       -1.2688473 -0.8541918 -0.6620076 -1.1071509
000020 24 0a 63 bf 5a 63 eb 3c 87 37 84 be a1 33 27 3e
       -0.8868735 0.028733898 -0.25823614 0.16328289
000030 ca 7d f1 3e 15 48 f5 bc 03 49 c8 be 84 27 4d bf
       0.47166282 -0.029941598 -0.39118204 -0.8013842
000040 8e c5 4b be 37 63 8c bf 34 9b ad bd 16 74 2e be
       -0.1989958 -1.0967778 -0.08476868 -0.17036471
000050 ba 59 37 bf 90 ad a8 be 9a 5d 9a bf 54 c0 66 3e
       -0.71621287 -0.32944918 -1.2059815 0.22534305
000060 94 ae 2c bf 6f 07 0b bf 09 3d 9d bd 85 a4 0b 3d
       -0.67453885 -0.5430822 -0.07677657 0.034092445
000070 3e 8d 50 be a3 4a 02 bf 7d cf e0 3d e6 79 52 bd
       -0.2036638 -0.50895137 0.10977075 -0.051385783
000080 0f e8 dc be e8 dd 0c bf 0b 46 53 3d a7 eb 92 3d
       -0.43145797 -0.550261 0.05158047 0.07173853
000090 d1 50 f0 be 0a 4e 85 be 06 d8 91 bf 99 7a 65 3d
       -0.46936658 -0.26036102 -1.139405 0.05602512
0000a0 f5 f9 94 be 69 de 0c bf 2f a8 ae 3e 65 3b 15 3f
       -0.29096952 -0.5502687 0.3411269 0.58293754
0000b0 37 e6 9e be db 87 3c bf 2a 2a 81 3e 79 1a da 3e
       -0.31035015 -0.736448 0.2522748 0.42598322
0000c0 eb 81 2a 3e bd f6 1b bf cd 46 16 bf 45 01 e6 be
       0.16651122 -0.6092337 -0.58701783 -0.44922844
0000d0 dd a3 e5 be da dc 31 bf 29 32 43 be 86 f3 b6 3e
       -0.4485158 -0.6947762 -0.19062103 0.3573267
0000e0 04 34 23 bf 28 ce a2 be 1e 05 80 bf 55 7d a7 3e
       -0.63751245 -0.3179791 -1.0001562 0.32712808
0000f0 60 4a 67 3e f5 33 35 bf ac f5 77 be 4a 1e 79 3c
       0.22586966 -0.70782405 -0.2421481 0.015204975
000100 67 55 99 be 83 c3 05 bf be 75 a7 bf 26 00 04 bf
       -0.2994797 -0.5225145 -1.3082807 -0.51562726
000110 1c f5 80 bf a2 97 f4 3c d1 48 15 bf 60 91 d6 be
       -1.0074801 0.02985746 -0.58314234 -0.41907787
000120 96 1d 80 bf e7 dd e4 bd 38 f2 95 bf 0b cd ba 3d
       -1.0009029 -0.11175137 -1.1714544 0.0912114
000130 32 08 ef bc 9b b4 a6 3e cb 47 40 bf 73 79 e4 be
       -0.029178713 0.32559666 -0.7510955 -0.44623908
000140 f5 29 46 3d 4c e7 0c bf 1b 0d 9f be 34 f9 03 bf
       0.048379857 -0.5504043 -0.31064686 -0.5155213
000150 f6 3a 84 be a0 da c2 be 42 0a 84 bc 1f 67 a0 bf
       -0.25826234 -0.38057423 -0.016118173 -1.253147
000160 98 4d 5b 3e 4b 39 a8 3e 6f 29 9f bf 39 4f de be
       0.21416318 0.3285621 -1.243452 -0.43419817
000170 49 28 10 be 94 b3 2e bf 14 31 89 be 3f 00 4b bf
       -0.14077868 -0.68242764 -0.26795256 -0.7929725
000180 b8 64 f4 be 7f 39 81 bf 7b a1 f5 be 00 a4 87 3e
       -0.47733092 -1.0095671 -0.47974762 0.2649231
000190 a9 d2 38 bf 19 fd 88 bf 8e d9 53 be 15 63 af 3d
       -0.7219644 -1.0702239 -0.2068846 0.0856382
0001a0 98 74 dc be b9 57 79 be 35 11 e8 3d aa 03 d8 bd
       -0.43057704 -0.2434987 0.11331407 -0.10547574
0001b0 c3 50 2a bf 37 2f 40 bf 91 87 90 3e 91 86 90 bc
       -0.6652948 -0.75072044 0.2822843 -0.017642291
0001c0 a7 fd 00 bf e8 7b 24 3e 9d 51 23 3f c5 94 de 3d
       -0.5038704 0.16062891 0.63796407 0.10868219
0001d0 49 aa 1f be 76 2a 70 3e 83 30 02 bf 52 cf 89 be
       -0.15592302 0.23453698 -0.50855273 -0.26915985
0001e0 ce fc 42 3d 33 5a f6 3e 86 80 8d bf d4 66 f5 be
       0.047604375 0.48115692 -1.1054847 -0.47930014
0001f0 06 74 2a bf 08 10 11 bd ab 18 b3 be 1e 24 ca bd
       -0.6658329 -0.03541568 -0.34979758 -0.0987017

net.2.weight f4 [128, 128]
000000 2c 53 7e bd 27 f8 14 be 6c e8 a7 bd b4 2b 3d be
       -0.062091038 -0.14547788 -0.08198628 -0.18473703
000010 53 56 86 be fe 92 fe bd b7 02 55 bd c6 d9 02 be
       -0.26237735 -0.1243038 -0.052004542 -0.12778386
000020 82 51 db bd f9 98 c4 bd 9f 8e 89 be 39 12 1d bd
       -0.10708906 -0.0959949 -0.26866624 -0.038347457
000030 ae 6e 60 be a9 71 6b be e7 9c 67 be 4f 3d 9b bd
       -0.21917221 -0.22992577 -0.22618447 -0.07580053
000040 5c 78 af bd c9 c5 a5 bd d3 59 8f be 26 43 c9 3d
       -0.085678786 -0.08094365 -0.27998218 0.09827261
000050 cd b6 82 bd d6 2b e7 bd 53 2c 97 be 8a 6b 13 be
       -0.06382523 -0.11287658 -0.29526004 -0.14396492
000060 ab 26 1f 3c 42 30 0e 3e 08 9f 38 be dc 69 10 be
       0.009713809 0.13885596 -0.18029416 -0.14102882
000070 5f cf 12 be e0 c6 76 bc 3e 84 4e bd 95 b2 24 bd
       -0.14336918 -0.015062064 -0.050419085 -0.04020937
000080 52 ac 24 be 38 b7 14 be 13 de 20 3e 49 91 46 bd
       -0.1608136 -0.14523017 0.15709715 -0.0484784
000090 90 42 b0 3c 14 b4 6c be 4b f5 a7 bd 27 64 88 bd
       0.021516114 -0.2311557 -0.08201083 -0.066597275
0000a0 90 46 64 3d 97 10 19 be e4 e9 40 be 1f c9 65 be
       0.055731356 -0.14947735 -0.18839222 -0.22440003
0000b0 8c 3a cd 3d c9 3e 57 be f9 da 75 be f1 af 53 be
       0.100209326 -0.21020044 -0.24009313 -0.20672585
0000c0 20 14 a6 bd 00 5b 46 bb 7f b3 5f be 7b e5 21 be
       -0.08109307 -0.0030266643 -0.21845816 -0.15810196
0000d0 6d 65 1e 3d ac 82 1f be 4b f7 c8 bc da 09 22 be
       0.038670946 -0.15577191 -0.024531981 -0.1582407
0000e0 d6 4a db 3d 5d 8d e4 bd 83 93 03 3e 3c b3 b6 3c
       0.10707633 -0.111597754 0.1284924 0.022302262
0000f0 28 5e 7f be 1a 5d 32 be 9b a2 92 bd 85 e5 71 bc
       -0.24938262 -0.17418328 -0.07159921 -0.014764194
000100 d7 35 d9 3d 41 ae 0e be d2 09 59 be 1e 65 31 be
       0.10605972 -0.1393366 -0.21195152 -0.1732373
000110 4c 45 8c bd c6 c1 7c 37 96 67 09 be 89 26 46 be
       -0.06849155 1.5065487e-05 -0.13418421 -0.19350637
000120 69 99 23 be 43 42 08 3e 45 86 6d 3d 9c 3b 07 be
       -0.1597649 0.13306527 0.057989378 -0.13206333
000130 bd 8d 6f 3d 7f f5 ae 3d 7a 1e af bd 69 59 b0 bd
       0.05848478 0.085429184 -0.08550735 -0.08610804
000140 08 ba 4e be 42 7c 42 be a4 ef 76 bd 3f 48 08 be
       -0.20188153 -0.18992713 -0.060287133 -0.1330881
000150 c4 c1 52 be 52 ea 31 be b8 c0 67 be b6 bb 28 be
       -0.20581728 -0.17374542 -0.2263211 -0.16477856
000160 67 2b 9c bd a6 5d a4 bd 71 86 c8 bd 0c cd 8a 3a
       -0.07625466 -0.080256745 -0.09791268 0.0010589673
000170 91 3b 65 bc ad c6 4c be 71 b8 94 be 2c 61 90 be
       -0.0139912525 -0.19997664 -0.29046968 -0.28199136
000180 f1 79 c9 3b c3 e7 74 bd 00 32 51 3b 0a 42 dd 3d
       0.0061485698 -0.059791338 0.0031920671 0.108036116
000190 b6 52 37 be 75 f4 c5 bd 35 2d 33 be c9 5b de bd
       -0.17902645 -0.09665767 -0.17497714 -0.108573504
0001a0 a5 99 53 be b2 3b 10 bd 5a 66 03 be 4f 9e 7f be
       -0.2066408 -0.03521318 -0.12832013 -0.24962734
0001b0 c0 62 7a be 0d e3 61 be c1 24 bd 3d ad 83 19 be
       -0.24451733 -0.22059269 0.09235526 -0.14991637
0001c0 84 bd 87 3d 9a ae 13 bd 86 7b b5 bd f1 6a 6b be
       0.06627944 -0.036055185 -0.08861451 -0.22990014
0001d0 4c b8 ee bb 82 93 8b be 3d e6 41 3e 0b eb 78 be
       -0.0072851535 -0.27260977 0.18935485 -0.24308412
0001e0 3e 9a 5a bd fd d1 cb 3d 50 e8 33 be a5 63 2e be
       -0.053369753 0.099521615 -0.17569089 -0.17030199
0001f0 86 0c e6 3d c9 5c 72 bd 79 a9 e3 bd 30 86 94 3d
       0.112328574 -0.059170518 -0.11116309 0.07252157
000200 2b 27 89 be f8 b2 38 3e 31 98 01 bd 30 06 ba 3c
       -0.26787695 0.18037021 -0.03163928 0.022708029
000210 81 7c 94 bd a4 94 8c bd 97 26 f3 bd 71 c7 52 be
       -0.0725031 -0.068642884 -0.11872595 -0.20583893
000220 e6 2f 63 be 1c b6 84 bb c5 a5 33 bc 2a 5b 05 be
       -0.2218624 -0.0040500294 -0.0109648155 -0.13023058
000230 6e 65 dd bd ac 39 db bd a3 32 d4 3d e2 12 66 be
       -0.10810362 -0.107043594 0.10361221 -0.2246814
000240 29 e8 3e 3d da ee 07 be b6 b0 00 be c0 11 54 be
       0.046608124 -0.13274708 -0.1256741 -0.20709896
000250 bd c5 64 be 06 96 93 3c 47 0b 12 bd 05 5f 10 3e
       -0.22341056 0.018015873 -0.035655286 0.14098747
000260 eb 47 3c 3e a0 af f3 bd b0 7d 6a bd ba 19 4c 3c
       0.1838681 -0.11898732 -0.05724877 0.012457306
000270 a7 6f f3 bc 22 44 24 be 6e d9 4f 3c f3 cd 66 be
       -0.029716326 -0.16041616 0.012686117 -0.22539501
000280 e1 ab 93 be 60 3b 49 be 53 99 87 be 53 7c 53 be
       -0.2884207 -0.19651556 -0.26484165 -0.20652895
000290 fc 19 b8 3d a2 45 86 be 54 8c 8c be 34 90 29 be
       0.08989331 -0.26225 -0.27450812 -0.16558915
0002a0 53 f8 9c bd d2 64 c6 be 65 20 8d be 1d 93 87 be
       -0.076645516 -0.38748795 -0.27563778 -0.26479426
0002b0 f5 43 0e be 06 8d 7c be 6c 8e 29 be 25 c4 2a be
       -0.13893111 -0.24663171 -0.16558236 -0.16676386
0002c0 87 c3 72 be d1 b0 59 bc 3b 58 a2 be c4 cb d1 bc
       -0.237074 -0.013286785 -0.3170794 -0.025609858
0002d0 63 9e 3b be a5 f8 10 bd 16 8c 0e bd 80 82 15 be
       -0.18322138 -0.035393376 -0.034801565 -0.14600563
0002e0 a0 e7 5f be 79 3d 09 3e 1f 13 61 3d ee 27 22 bc
       -0.21865702 0.13402356 0.054949876 -0.009897215
0002f0 2e c7 32 be 3b eb a2 bd 56 7a 93 3c 17 b7 34 be
       -0.17458794 -0.07955023 0.01800267 -0.17647968
000300 4a 5d 05 3d 6e f6 0c 3c 09 d7 8f bd 8c 26 7b bd
       0.03255967 0.008603675 -0.070234366 -0.061316058
000310 29 6c d4 bc e6 f5 3c be 50 8f ce bd d7 55 f2 bd
       -0.025930481 -0.18453178 -0.100859284 -0.11832779
000320 bc e8 98 3d 35 26 48 3e 47 76 d3 3d ad e6 b4 3e
       0.074662656 0.19545825 0.10325294 0.35332242
000330 86 d2 12 bd 7c e2 c0 be cd b0 72 be 4e af 18 be
       -0.035845302 -0.37672794 -0.23700257 -0.14910623
000340 41 45 5d bd fe c8 47 3d 37 44 ad be 63 a1 c9 bd
       -0.054021124 0.048775665 -0.33841106 -0.09845235
000350 00 81 5f bd 7c 84 9c bd 0c c7 05 bd fa 1c 12 be
       -0.054566383 -0.07642457 -0.03266053 -0.14268866
000360 00 e4 9e 3c 2a 70 21 bd 8a 72 08 be ba 3f d4 3c
       0.019395828 -0.03941361 -0.13324943 0.025909293
000370 e0 a1 23 3e d1 eb f4 3d c7 cd f5 bd 4a 69 ef 3c
       0.15979719 0.11959041 -0.120021395 0.02922501
000380 bc 66 cd bd 72 6c 02 be b2 bc 27 be fc 1f 74 be
       -0.10029361 -0.12736681 -0.16380575 -0.23840326
000390 1b 6b 47 bd 17 79 b0 3c f5 3f 3c be c1 03 8d be
       -0.048686128 0.021542115 -0.18383773 -0.27541927
0003a0 0b 6a 49 be e9 39 9b bd 3f 16 25 be b6 be 5f be
       -0.19669358 -0.07579405 -0.16121767 -0.21850094
0003b0 c0 da 2b be 1a 78 27 3e 29 41 a7 bd fb 38 1b 3d
       -0.16782665 0.16354409 -0.08166725 0.037896138
0003c0 44 38 a8 bd 28 77 a4 3d 49 f8 00 be 2b 6b 30 be
       -0.08213857 0.0803054 -0.12594713 -0.17228381
0003d0 f6 59 ce bd 61 4d 8c 3d 34 c5 a4 bd 06 cb 79 be
       -0.100757524 0.06850696 -0.08045426 -0.24393854
0003e0 e0 4d 3a be 1b 59 ac 3d 26 0f 68 3d 0c 26 5b be
       -0.1819377 0.08415433 0.05665507 -0.21401232
0003f0 02 5e 0a be c1 90 49 bd 40 a0 7a be 75 97 63 bd
       -0.13512424 -0.049210314 -0.24475193 -0.055564363

net.2.bias f4 [128]
000000 f9 73 fd bd cd 3c 01 be 29 ce 92 3d e5 2e 61 3f
       -0.12375636 -0.1262085 0.07168228 0.8796218
000010 b0 00 a0 bc 62 bc 2a bb c5 6d 31 3e 41 d2 ec 3e
       -0.019531578 -0.0026052226 0.1732703 0.4625416
000020 43 7b 8f 3d 81 59 86 3d c9 71 f7 3d 32 5d 95 3e
       0.07005932 0.0656004 0.1208225 0.29172665
000030 ee ee 32 3e 3b b2 24 bd b5 33 d6 3c a8 d8 4b 3f
       0.17473957 -0.040209036 0.026147703 0.79627466
000040 c2 22 13 3f c1 27 08 3c 71 d5 46 3e 55 d2 87 3e
       0.5747491 0.008310259 0.19417359 0.26527658
000050 9b f4 5f be ee da c2 3c d0 0a 84 3e 6c 3f 20 3f
       -0.21870653 0.023786034 0.257895 0.62596774
000060 20 70 e1 3e df f2 2d 3f f2 e5 86 3e 01 d1 80 3d
       0.44030857 0.67948717 0.2634731 0.06289864
000070 30 5e 71 be 65 29 67 3f 97 99 86 bd 02 b5 e6 3e
       -0.23571086 0.9029754 -0.06572264 0.45059973
000080 72 58 0a 3c f0 4f 07 3e 0c f9 7c be 0e 55 90 3e
       0.008443939 0.13214087 -0.24704379 0.28189892
000090 c5 22 2c be 5f f7 fd 3e d7 90 3e 3e 90 2d d0 3b
       -0.16810139 0.49602792 0.1860994 0.0063530877
0000a0 e7 0b 20 3e 92 35 d9 bd 90 c0 4a ba 69 a4 17 3f
       0.1562954 -0.10605921 -0.00077343825 0.59235245
0000b0 52 51 06 3f 9a 00 f2 bd a7 29 a5 ba 74 2e 19 3f
       0.52467835 -0.11816521 -0.0012600914 0.59836507
0000c0 b9 ad 07 bd 60 02 34 3e be 68 37 3d 90 70 36 3f
       -0.03312466 0.17579031 0.044777624 0.71265507
0000d0 52 b3 03 bd 09 da 24 bc 9e a0 bf bd 96 3a 3e 3f
       -0.032153435 -0.010061749 -0.09356807 0.74308145
0000e0 a8 42 ae bd fd ad b8 3e f9 98 0b 3f 02 47 0d 3f
       -0.085088074 0.36070243 0.5453029 0.55186474
0000f0 da 33 36 3f 56 bd eb bd 6f 5a 25 3d 0c f3 97 3f
       0.7117287 -0.11510722 0.040369447 1.1871047
000100 1b 89 7f bd 1d 21 f3 3e c3 04 b0 bc ff b8 32 3d
       -0.062386613 0.474862 -0.021486646 0.043633457
000110 b9 67 17 3f a2 24 b1 bd ec 04 e3 3d 86 a5 a7 bc
       0.59142643 -0.08649565 0.11084923 -0.02046467
000120 9c ce 13 be b4 9c 54 be ec 07 de 3e 61 f9 48 3f
       -0.14434284 -0.20762902 0.4336542 0.7850552
000130 a7 bf dc bd 2e 01 8f bd 65 8f 15 be 01 17 00 3f
       -0.10778742 -0.06982647 -0.14605482 0.500351
000140 1b e3 25 3e 2c ca 42 bd 5a 3a 18 3f 28 f8 80 3d
       0.16199915 -0.047556087 0.5946404 0.06297332
000150 00 93 84 bc 34 d1 54 3e ce a6 7a 3d 3b 89 22 3f
       -0.016183376 0.2078293 0.061194234 0.6349065
000160 04 ba 3d bd 2b a4 1f 3f d4 6f 1c 3f f4 c4 d9 3d
       -0.046319976 0.62359875 0.61108136 0.10633269
000170 49 08 3f 3e b8 09 9b 3f f9 fa a1 3e cf cb e3 3d
       0.18655504 1.2112341 0.3163679 0.11122858
000180 94 6d f1 bd a3 54 61 3f eb 25 34 3f fc b9 2c 3e
       -0.117884785 0.8801977 0.7037036 0.16867822
000190 58 04 32 be a4 b3 1b 3e d9 24 6d 3e ac 7b 80 be
       -0.1738447 0.15205246 0.23158588 -0.25094354
0001a0 42 c5 7d bd 94 17 47 3f a7 b8 4f be 06 8a 39 bd
       -0.061955698 0.7777035 -0.20285283 -0.045297645
0001b0 fb 4a 7c 3d 67 cc d0 3e 11 ee 42 bd de 73 6c bd
       0.061594944 0.40780947 -0.04759032 -0.057727687
0001c0 89 09 02 3f 76 0c f5 3e 70 05 47 bd c0 cd b3 bc
       0.507958 0.4786107 -0.04858917 -0.021948695
0001d0 37 35 c0 3d e4 a9 ff 3e 86 a2 4c 3e 3d ec 1f 3f
       0.0938515 0.49934304 0.19983873 0.62469846
0001e0 b1 7d 23 3f 4d 72 83 3e 49 98 1b bc 98 92 4a bc
       0.63863665 0.25673142 -0.009496757 -0.012364052
0001f0 f3 46 3e 3e f9 35 07 3d f2 73 f4 3e 04 6d 08 3f
       0.18581752 0.033010457 0.4774471 0.53291345

net.4.weight f4 [6, 128]
000000 cc fe 3f be e9 aa 68 3d b4 cc d1 3c 58 22 0f 3e
       -0.18749541 0.056803618 0.025610305 0.13977945
000010 a1 42 eb bd ea 8e b2 bd 50 c4 84 bd 7e f8 96 3e
       -0.11487318 -0.08718665 -0.06482756 0.2948646
000020 4e 44 b8 3d 75 7c 2c be f9 80 db bd 03 df 14 3e
       0.08997403 -0.16844352 -0.10717959 0.14538197
000030 58 c2 a3 bd cb f5 4a bd 8e 01 a7 bd 28 d7 e5 3d
       -0.079960525 -0.049550813 -0.081545934 0.112226784
000040 07 c9 d6 bd 2e 67 18 3d b2 73 73 bd a2 4d 61 be
       -0.10487562 0.037207775 -0.059436508 -0.22002271
000050 fc 01 4f 3c 8c 03 75 bd 58 2b ff 3d b6 31 44 be
       0.01263475 -0.059817836 0.12459439 -0.19159588
000060 c7 5b 18 bd d5 b8 11 be 28 72 1c 3e ca 32 d9 3d
       -0.0371969 -0.14230664 0.15277922 0.1060539
000070 9c b3 b3 3c 3a b1 4c 3e 5a 8a d2 bd 41 aa 40 3d
       0.02193623 0.19989482 -0.10280295 0.047037367
000080 34 03 4b 3d 1f e8 34 bd 06 04 e5 bd cb a5 a4 3d
       0.0495636 -0.04416668 -0.11182408 0.08039435
000090 7a df 9d bc 97 fc 51 3e 4e 50 3a 3d 99 40 bb 3d
       -0.019271601 0.20506512 0.04548674 0.091431804
0000a0 da 4e c7 bc 38 b8 0c 3e e7 32 fb bc e5 41 ea 3d
       -0.024329592 0.13742149 -0.03066392 0.1143835
0000b0 7c fa 09 3e a7 d1 d0 3d 9d 93 bc 3b a6 02 5c bc
       0.13474458 0.10196238 0.0057549016 -0.013428366
0000c0 a7 84 13 be 43 a1 cb 3d 89 06 28 be 1a c9 f6 3c
       -0.14406072 0.099428676 -0.16408743 0.03012519
0000d0 57 ab b4 bd 40 88 42 be 7d 1d 07 be ae 8c 17 be
       -0.08821743 -0.18997288 -0.13194843 -0.14799759
0000e0 b1 09 26 3e 6d 83 c6 bd 69 62 5e 3e cc 78 07 3e
       0.16214634 -0.09693036 0.21717228 0.13229674
0000f0 a2 48 bf 3d 0a 5f 1d 3d 68 74 07 be 0e d3 86 3e
       0.093400255 0.038420714 -0.13227999 0.26332897
000100 1e b5 35 be e9 b6 63 bd 34 8b fc bd 03 d5 15 3e
       -0.17744872 -0.05559436 -0.123312384 0.14632039
000110 c0 f9 18 3e 07 df 85 3d 12 bd 8c bd cc 8f b3 bc
       0.14939022 0.0653668 -0.06872 -0.021919154
000120 6c d3 f3 3d 8c 2d 75 3d 06 64 49 be de 78 56 bd
       0.1190556 0.05985789 -0.19667062 -0.05236136
000130 cd 64 06 3e ba 24 87 3d 00 b3 8a 3e 0f 4d 4b 3e
       0.1312439 0.06598802 0.2708969 0.19853614
000140 48 95 45 bc e4 06 a1 bd 28 a0 64 be 2f 2c 22 be
       -0.012059517 -0.078626424 -0.2232672 -0.15837167
000150 56 a5 47 bb 98 93 f0 bc a5 91 57 be 00 54 41 be
       -0.0030463538 -0.029367253 -0.21051653 -0.188797
000160 47 aa 01 bd d1 40 2a 3d d6 0a 85 be 60 08 70 3e
       -0.03165653 0.04156572 -0.2598483 0.23440695
000170 52 20 1f be bf 2d 63 3e 1a f9 7a 3e 9f b7 96 3d
       -0.15539673 0.2218542 0.24509087 0.07359242
000180 ca 7d 6c bc f0 d9 9a bd e4 f3 2f 3e 20 0b 08 3e
       -0.014434287 -0.075610995 0.1718288 0.13285494
000190 3c f2 c9 3d 2e 1c 29 3d 34 37 09 3e dc d0 30 3d
       0.09860656 0.04128664 0.13399965 0.043167934
0001a0 e5 53 9f bc 7d c2 f6 bb e8 da a5 bc 90 b8 ac 3d
       -0.019449184 -0.007530509 -0.020245984 0.0843364
0001b0 c8 e7 5c bc 81 a9 bd 3c c4 2c 66 bd 4e cd 58 bc
       -0.013482995 0.023152115 -0.056195036 -0.013232542
0001c0 fc 60 3b 3e b8 e3 9a 3d bb 93 98 3e 12 19 3e bd
       0.18298715 0.07562965 0.2980021 -0.046410628
0001d0 63 8f c0 3c 5d ba ae 3d f5 26 45 bd a2 a5 77 3d
       0.023505872 0.0853164 -0.048132855 0.060460694
0001e0 24 ed d7 be 10 75 6b bb 24 31 8c bd 2a 33 af be
       -0.4217311 -0.003592793 -0.0684531 -0.34218723
0001f0 a3 fd 69 bd 69 22 4c be 05 5d ae 3d 91 d0 7c 3e
       -0.057126652 -0.19935001 0.08513836 0.24688937
000200 84 de 65 3c 34 5e d1 bd c3 5b 62 bd 28 5d 89 3d
       0.014030103 -0.10223046 -0.055263292 0.06707221
000210 5b 2f 50 bd b7 b1 e7 bc b4 a1 45 3e 1f d4 30 3e
       -0.05082641 -0.028282983 0.19299966 0.17268418
000220 20 78 50 bd c7 7f aa 3d b3 66 ce bd 1b f2 d4 3e
       -0.05089581 0.08325153 -0.10078182 0.41590962
000230 08 a5 5e 3d 1c 55 9d 3c 9d d4 7a be fb d3 d3 3d
       0.054356605 0.019205622 -0.24495168 0.103431664
000240 f3 98 22 3e 9c 67 f4 3b d9 b6 16 3e d4 1e db 3d
       0.15878658 0.0074586403 0.14718188 0.106992394
000250 ea a2 7f bd 99 31 bf bd 19 3b bf 3c ff 07 4f 3d
       -0.062411226 -0.09335632 0.02334361 0.050544735
000260 22 be 2e 3e 50 6f 4f be a6 1a 2f 3d c2 41 1c 3e
       0.17064717 -0.20257306 0.042750023 0.1525946
000270 ac 1b 31 bd e9 8d 71 3d 4a 62 38 be ff 2d 71 3d
       -0.04323928 0.058973227 -0.18006244 0.058881756
000280 64 74 1f bd 26 ba 68 bd 02 b3 21 3c 5c de 05 3e
       -0.038929358 -0.05681815 0.009869339 0.13073105
000290 89 ea d7 3d c7 68 ac bd 5c 31 fc 3d 01 72 32 be
       0.10542781 -0.08418422 0.12314102 -0.17426302
0002a0 a0 85 bc 3d 76 cc 33 be 44 38 47 bd dc 7b da 3a
       0.092051744 -0.17558464 -0.048637643 0.0016668993
0002b0 c0 39 85 be d3 1d 65 bd 6a a2 fd 3c e8 06 b0 bd
       -0.26020622 -0.055936646 0.030961234 -0.08595067
0002c0 5c 94 c5 3c 7b aa c6 3d 69 01 99 3c 40 1e e5 3c
       0.024118595 0.09700485 0.01867743 0.027968526
0002d0 35 22 4e bc 58 9a 93 3e 37 5e ce bb af 09 43 bc
       -0.012581398 0.28828692 -0.0062978524 -0.011904164
0002e0 7d 2c a5 3b 66 b1 7c 3d 79 e0 db 3c a9 1c 27 3c
       0.005040704 0.061692618 0.026840435 0.010199704
0002f0 10 41 85 3d ab fa eb 3b 01 23 2e 3d ef c9 05 3e
       0.0650655 0.007201513 0.04251385 0.13065313
000300 7d 34 83 bc 20 7d f7 b9 3b dd b6 bc 70 30 56 bd
       -0.01601624 -0.00047204737 -0.022322288 -0.052292287
000310 75 c9 91 3d b9 b1 bd 3c 72 d4 3c bd 83 62 af bd
       0.07118503 0.023156034 -0.04610104 -0.085637115
000320 64 6d 3b 3e 02 0f 08 bd d7 29 f5 bd bc fd 13 be
       0.18303448 -0.033217438 -0.11970871 -0.1445226
000330 da c4 3e be f6 27 5a bd fe cf 35 bd b1 e1 58 bc
       -0.1862978 -0.053260766 -0.04438781 -0.013237403
000340 96 ce 2f 3d ac 85 83 3e 97 15 38 be e2 35 26 3d
       0.042921625 0.2568792 -0.17976986 0.04057873
000350 35 02 ea 3c 1d 53 3f bc 9e ef 34 3e bd ec 03 be
       0.028565506 -0.011677531 0.17669532 -0.12883277
000360 d9 31 07 bd 15 47 2f 3e ac 19 78 bc b8 75 55 3d
       -0.033006523 0.1711696 -0.015142839 0.05211422
000370 60 6d 18 3d d0 50 bb 3e b3 36 05 3e 7e d4 11 3d
       0.037213683 0.36585093 0.13009147 0.03560304
000380 6c c7 02 be 23 cb 8f 3d 89 fc 96 3e 54 a8 23 3e
       -0.12771386 0.07021167 0.29489544 0.15982181
000390 ef a6 2e 3e 64 e9 dd bd 4c 31 16 3b f7 f0 65 bc
       0.17055868 -0.10835531 0.0022917567 -0.014034501
0003a0 a4 c5 39 3d 58 78 38 3e 71 b0 b6 bc 53 80 95 3c
       0.0453545 0.18014657 -0.02230093 0.018249666
0003b0 38 83 0f bd 28 e6 c7 bd b6 b0 83 bc f6 72 86 bd
       -0.03503725 -0.09760696 -0.016075473 -0.06564896
0003c0 aa 5c 21 3e e5 4d cd bc ef 5e 8a 3e 50 fa 6e bd
       0.15758005 -0.025061557 0.27025554 -0.058344185
0003d0 fb 7a 6c 3d 43 03 ce 3b 63 d3 ef bc a7 28 59 3e
       0.05773447 0.00628701 -0.029275602 0.21206914
0003e0 11 b6 44 bd d2 e3 c5 bd f3 50 5b 3c 02 dd d8 bd
       -0.048025195 -0.09662594 0.013385999 -0.10589029
0003f0 cf 50 3b 3e 75 11 c5 bc e6 5a f2 3d dd 59 1d be
       0.18292545 -0.024056176 0.11833744 -0.15366311

net.4.bias f4 [6]
000000 f4 7b 85 3d 84 df 6e bc ec 86 86 be df 43 24 be
       0.06517783 -0.014579657 -0.26274812 -0.16041516
000010 38 bb 94 bf 00 9a 8d bf
       -1.1619635 -1.1062622
